assets/models/backup/2025-04-14/02:06:56/nn/best_reward_172.27.pth (torch, 332186 bytes, 25 tensors)

sigma f4 [6]
-0.16723093 -0.11909915 -0.004529128 -0.04841354 -0.058491044 -0.18058859
00000000: 963e 2bbe 41ea f3bd 1469 94bb 474d 46bd
00000010: 4e94 6fbd 37ec 38be

actor_mlp.mlp.0.weight f4 [256, 27]
-0.020565335 -0.00053905934 -0.19645706 -0.101090886 -0.04789776 0.22975111 -0.10659276 0.07723191
-0.09825919 0.14507578 0.037961416 0.008475488 -0.003924667 0.21070446 -0.07847025 -0.065278284
-0.024238802 -0.03770188 -0.15021299 0.12970828 0.2571252 0.15324463 -0.16179082 -0.07716226
0.025582178 0.007773294 -0.0035553074 0.17907095 -0.08809488 -0.17737938 -0.09842048 0.025612459
0.07340183 -0.108080044 0.11570835 0.041523464 -0.066074595 0.12325608 0.049841687 -0.05274914
0.14414167 -0.022593137 -0.08009068 -0.10596518 0.013964185 0.050679944 -0.09959716 0.09936057
0.14793217 0.012052414 -0.10719879 -0.15316606 0.118919834 -0.13462396 0.15197107 -0.0471253
0.20015457 0.08889639 0.012665574 -0.10014804 -0.071670175 0.012356749 -0.030846372 0.1517692
0.15626512 -0.13680379 -0.09988415 0.026592992 -0.034578115 -0.0632711 -0.057204887 -0.08531915
-0.10406416 0.22602995 0.17412992 -0.047123224 -0.1063236 0.07089896 0.03090003 -0.005812434
0.034448445 0.17466596 -0.13836265 0.05639872 -0.0846457 0.052081518 -0.13107355 -0.04014169
-0.04813014 0.010879498 -0.084703766 0.10073361 0.13805503 0.16065663 0.09363719 0.075398095
-0.2022189 -0.16718931 -0.012243087 -0.0065352214 0.0401904 0.0318355 0.13621879 -0.004872402
-0.16400003 0.07490139 -0.051254448 -0.14458327 0.16396251 -0.033671256 0.3391546 0.20227656
-0.11617184 0.062073726 -0.1231917 -0.11330251 0.20498683 0.117926784 -0.031192573 0.06721281
-0.052324466 -0.17683078 -0.10062676 -0.053146515 -0.14890331 0.0273938 0.09874998 0.09179421
0.05230567 0.027517326 -0.09292155 -0.23332244 0.23549299 0.030731698 0.11344582 -0.053133063
-0.13206561 -0.026339728 -0.15992701 -0.021670576 -0.012788123 -0.050563253 -0.05191611 0.02185558
0.06452344 0.07191859 -0.20403054 -0.028714586 0.002148981 -0.20046116 -0.2737763 -0.030749368
0.083473265 0.03666209 0.09032823 0.05282078 0.20968038 -0.115082495 -0.018142592 0.11448889
-0.17698345 0.018716764 0.21951742 0.039267987 -0.2980801 -0.05946286 0.09624159 0.160119
-0.060627785 0.019137511 0.18778402 0.034822296 0.06854079 0.11220982 0.22297306 -0.055986047
0.057364725 -0.07291391 0.15264444 -0.016784169 0.022992054 -0.09127985 0.08966441 0.30462813
-0.08522358 -0.13648011 -0.24518849 0.12706548 -0.114260115 0.22639665 0.013084501 0.016591191
0.041385923 -0.17858808 0.08769077 0.029884214 -0.017520795 -0.0035279132 0.10759323 0.17332684
0.08651657 0.02641328 0.012008953 0.034468167 -0.009733614 0.0065603135 -0.06334662 -0.077494726
-0.042111963 0.3297866 0.17433769 -0.14258853 0.027365567 0.10811833 0.22156222 0.21364881
0.06935544 0.10457337 0.05220152 0.37218174 0.010565777 0.16693217 -0.050957076 0.0876959
0.26583186 0.024854159 0.15326954 0.037614405 -0.034238975 -0.08177354 -0.25059292 -0.06509311
-0.020740513 0.004078699 0.10156634 0.042535264 -0.11434223 0.115997545 -0.04456406 -0.24188252
-0.0017274979 0.21084848 -0.07095575 -0.24989888 0.04566246 -0.22963779 -0.08139357 -0.17285778
-0.1268117 -0.057354882 0.14504762 0.16733348 -0.2250376 0.053533614 0.064261094 -0.33032456
00000000: a278 a8bc a94f 0dba 0a2c 49be bd08 cfbd
00000010: 7130 44bd e043 6b3e 4e4d dabd c32b 9e3d
00000020: 1d3c c9bd bf8e 143e 6e7d 1b3d c6dc 0a3c
00000030: 7e9a 80bb e9c2 573e 03b5 a0bd 9fb0 85bd
00000040: 7490 c6bc 496d 1abd 6fd1 19be 3fd2 043e
00000050: eaa5 833e 29ec 1c3e 7eac 25be 3f07 9ebd
00000060: b791 d13c 1eb7 fe3b 2900 69bb 605e 373e
00000070: 176b b4bd f1a2 35be ad90 c9bd 38d1 d13c
00000080: b353 963d 1259 ddbd 80f8 ec3d 8214 2a3d
00000090: 1e52 87bd af6d fc3d cc26 4c3d 7b0f 58bd
000000a0: e099 133e 3e15 b9bc 9506 a4bd 4604 d9bd
000000b0: 09ca 643c c695 4f3d 99f9 cbbd 8e7d cb3d
000000c0: 887b 173e 7d77 453c 0a8b dbbd 90d7 1cbe
000000d0: 3e8c f33d ddda 09be 4e9e 1b3e 7506 41bd
000000e0: 52f5 4c3e 4f0f b63d 4583 4f3c 6a1a cdbd
000000f0: d0c7 92bd f673 4a3c 88b1 fcbc 6369 1b3e
00000100: f703 203e 4b16 0cbe 1090 ccbd 8cd9 d93c
00000110: c8a1 0dbd 4794 81bd ac4f 6abd cebb aebd
00000120: 971f d5bd 6574 673e 1d4f 323e 4804 41bd
00000130: 30c0 d9bd 7933 913d 0f22 fd3c 3b76 bebb
00000140: d019 0d3d a2db 323e f0ae 0dbe 5802 673d
00000150: ba5a adbd 6e53 553d 2538 06be 9d6b 24bd
00000160: 1c24 45bd ec3f 323c 2b79 adbd 6c4d ce3d
00000170: 4c5e 0d3e 2c83 243e dbc4 bf3d 516a 9a3d
00000180: 7912 4fbe ad33 2bbe 3b97 48bc 6925 d6bb
00000190: b09e 243d f165 023d f07c 0b3e aca8 9fbb
000001a0: a0ef 27be e665 993d 2ff0 51bd a30d 14be
000001b0: cae5 273e dfea 09bd aca5 ad3e 9621 4f3e
000001c0: 80eb edbd 0541 7e3d ee4b fcbd 250b e8bd
000001d0: 11e8 513e 9983 f13d 9187 ffbc dfa6 893d
000001e0: 2e52 56bd 2113 35be 6715 cebd 29b0 59bd
000001f0: 1c7a 18be f668 e03c 6e3d ca3d 9afe bb3d
00000200: 783e 563d 046c e13c a74d bebd 14ec 6ebe
00000210: 1325 713e 0bc1 fb3c 4856 e83d 0ea2 59bd
00000220: 353c 07be 6ac6 d7bc e8c3 23be 7e86 b1bc
00000230: 4785 51bc 6a1b 4fbd fda5 54bd 790a b33c
00000240: de24 843d 0e4a 933d 62ed 50be da3a ebbc
00000250: ebd5 0c3b b145 4dbe 682c 8cbe 19e6 fbbc
00000260: 08f4 aa3d fd2a 163d 02fe b83d 9a5a 583d
00000270: 74b6 563e 5fb0 ebbd c69f 94bc 2779 ea3d
00000280: 263b 35be e653 993c 2dc9 603e 78d7 203d
00000290: f49d 98be 548f 73bd 501a c53d 3cf6 233e
000002a0: d754 78bd 45c6 9c3c 744a 403e d3a1 0e3d
000002b0: 1d5f 8c3d 43ce e53d 0d53 643e a051 65bd
000002c0: 46f7 6a3d e353 95bd d34e 1c3e f47e 89bc
000002d0: d559 bc3c eef0 babd f9a1 b73d 38f8 9b3e
000002e0: b389 aebd 71c1 0bbe b112 7bbe 741d 023e
000002f0: 3501 eabd 86d4 673e 6060 563c 40ea 873c
00000300: 4984 293d cbdf 36be 3897 b33d bdcf f43c
00000310: c587 8fbc 9034 67bb d759 dc3d 977c 313e
00000320: 992f b13d aa60 d83c 33c1 443c 7e2e 0d3d
00000330: bc79 1fbc e6f7 d63b dfbb 81bd 8eb5 9ebd
00000340: 987d 2cbd cad9 a83e 9485 323e ba02 12be
00000350: c12d e03c 256d dd3d 35e1 623e c1c6 5a3e
00000360: 3a0a 8e3d 902a d63d 43d1 553d 9b8e be3e
00000370: 151c 2d3c 44f0 2a3e 5eb8 50bd e899 b33d
00000380: 1d1b 883e f39a cb3c b1f2 1c3e 9011 1a3d
00000390: 2b3e 0cbd e378 a7bd b74d 80be 894f 85bd
000003a0: 02e8 a9bc 9ba6 853b 0302 d03d 7539 2e3d
000003b0: 422c eabd 1f90 ed3d ce88 36bd 0db0 77be
000003c0: 366d e2ba aae8 573e 4051 91bd 7ee5 7fbe
000003d0: 8f08 3b3d 2b26 6bbe acb1 a6bd a101 31be
000003e0: edda 01be f4ec 6abd 5d87 143e 7859 2b3e
000003f0: 4270 66be 1046 5b3d 529b 833d 4d20 a9be

actor_mlp.mlp.0.bias f4 [256]
0.06349791 -0.07870479 -0.001820271 0.009947544 -0.06531333 -0.049064454 0.004133905 0.077880055
0.09444189 -0.0030532943 -0.043390814 -0.0973241 0.09322617 -0.016671466 -0.09413239 -0.11144842
0.09989963 -0.012836959 0.060941976 -0.003867461 0.08404372 -0.06977352 -0.03045835 -0.023812782
-0.03659527 -0.028538678 -0.069069386 0.044952523 -0.07489325 -0.0028326972 0.089745246 -0.030693412
-0.00094942126 -0.040989667 0.023063645 -0.014695191 -0.04090619 -0.044672236 -0.02235642 -0.01889548
-0.0540868 0.01213058 -0.006586179 -0.08297762 -0.017831221 -0.09207166 -0.07390976 0.0701877
-0.071280725 0.0017317847 0.018412743 -0.053370196 -0.020001318 -0.18399927 0.0010440961 -0.011508622
0.023360567 -0.03574627 -0.060883638 0.009775608 0.07183952 0.009979948 0.06975535 0.08265096
-0.027473556 -0.098125964 -0.019259887 -0.058164515 0.024878457 -0.025515618 -0.008389995 -0.035811137
0.16527747 -0.13148613 -0.0034064103 -0.040675215 0.07997548 -0.10052863 -0.105623074 -0.040920343
0.0072593912 0.05438122 -0.020713745 0.059930153 -0.1717595 -0.10016981 0.0023228063 0.030390978
-0.032606937 0.09712593 0.03867445 0.016592568 -0.12260316 -0.093831345 -0.06537465 0.06833326
0.1269961 0.04551968 0.10746831 -0.014798985 -0.042076044 0.08266844 -0.06953909 0.09506107
-0.012033299 -0.009753348 -0.07582952 -0.11195325 0.08109387 -0.065418586 0.11680042 0.013333083
-0.0048907488 -0.13250928 -0.005076234 0.011303382 0.015763046 -0.02530853 0.01074519 0.045316752
-0.06409398 -0.094972655 -0.0036512068 -0.03247241 0.058024526 0.004080396 0.021679828 0.037917722
0.07653212 0.06760831 0.034172796 0.020756057 -0.00026185173 0.021063728 0.0066476916 -0.045935422
-0.081674 0.020260714 0.0055946554 -0.023393938 0.039396007 -0.040080447 0.046476174 -0.072837204
0.05906811 -0.031283423 0.03353972 -0.00097077637 -0.061281927 -0.08924348 -0.068079956 0.034467764
-0.059754726 -0.077300765 -0.081005305 0.029024221 -0.06434099 0.021596018 -0.043770634 -0.07725368
-0.022990542 0.13543637 0.053434163 -0.005413557 -0.065340094 -0.014957715 -0.077438876 -0.024980873
0.034854352 0.0042562075 0.045777645 -0.029218936 -0.009120388 -0.066576265 -0.024333691 0.024808211
0.019491097 0.008163103 -0.021917168 -0.010407523 0.08859679 0.11827379 0.036620498 0.0745774
-0.010272235 -0.071143515 0.05030783 0.023316106 -0.06818253 -0.08536767 0.07373726 0.043861568
-0.057093088 0.009002769 0.041523077 -0.10328149 -0.037167825 -0.01818464 -0.09206492 -0.11568416
-0.03701781 -0.083384626 -0.047629446 -0.10082524 -0.047150925 -0.11291048 -0.0027330983 -0.049816336
-0.02050627 0.024885831 0.09244133 -0.0972728 -0.0075124055 -0.12152493 0.05757519 -0.0010030565
-0.07687599 -0.00025727673 -0.13163388 0.073562555 0.05926447 0.08922385 0.11850134 -0.016754054
0.107164405 -0.106092304 -0.027441034 -0.0037070173 0.072118714 -0.02034766 -0.01145126 0.101854734
-0.036942106 -0.09354136 -0.072305344 0.056670867 0.15510052 -0.17427261 0.05451888 0.026204595
-0.062540025 -0.039393004 0.045196872 -0.095857464 0.0671759 0.037244026 0.03308953 0.028675742
-0.09001563 0.082102016 0.0608917 -0.03488632 0.013395884 0.06905036 0.041031264 0.030001238
00000000: 310b 823d fa2f a1bd 2996 eeba 06fb 223c
00000010: ffc2 85bd cff7 48bd b575 873b 947f 9f3d
00000020: c06a c13d c719 48bb 91ba 31bd dc51 c7bd
00000030: 5ded be3d 9992 88bc 7cc8 c0bd 123f e4bd
00000040: 2d98 cc3d 1c52 52bc 4b9e 793d 3b75 7dbb
00000050: 1d1f ac3d 6be5 8ebd ca83 f9bc 0613 c3bc
00000060: ece4 15bd f2c9 e9bc 4074 8dbd 2320 383d
00000070: a261 99bd c6a4 39bb 5bcc b73d c070 fbbc
00000080: 95e2 78ba c8e4 27bd f8ef bc3c 19c4 70bc
00000090: 408d 27bd 3cfa 36bd d024 b7bc b2ca 9abc
000000a0: 1f8a 5dbd 57bf 463c e0d0 d7bb 2cf0 a9bd
000000b0: c812 92bc 1190 bcbd 005e 97bd 92be 8f3d
000000c0: a1fb 91bd 0dfd e23a 52d6 963c b59a 5abd
000000d0: ced9 a3bc 4e6a 3cbe 0dda 883a a98e 3cbc
000000e0: a95e bf3c ae6a 12bd 1f61 79bd df29 203c
000000f0: 9920 933d f082 233c e5db 8e3d e844 a93d
00000100: 3910 e1bc 44f6 c8bd e9c6 9dbc ea3d 6ebd
00000110: e8cd cb3c 2106 d1bc 3176 09bc b3ae 12bd
00000120: 7f3e 293e 4da4 06be 153e 5fbb 0e9b 26bd
00000130: 2fca a33d f4e1 cdbd e950 d8bd 179c 27bd
00000140: 30e0 ed3b d8be 5e3d dfaf a9bc 5279 753d
00000150: b9e1 2fbe d425 cdbd 393a 183b 80f6 f83c
00000160: da8e 05bd f6e9 c63d 1a69 1e3d 23ed 873c
00000170: 5e17 fbbd a62a c0bd 25e3 85bd 4ff2 8b3d
00000180: 440b 023e d872 3a3d 5818 dc3d 7177 72bc
00000190: ee57 2cbd 124e a93d 836a 8ebd 61af c23d
000001a0: 5027 45bc 82cc 1fbc 824c 9bbd bf47 e5bd
000001b0: 8b14 a63d 2efa 85bd 0f35 ef3d 0173 5a3c
000001c0: 9342 a0bb 83b0 07be 8a56 a6bb d231 393c
000001d0: 8121 813c d653 cfbc 980c 303c 0f9e 393d
000001e0: b443 83bd 0681 c2bd 1649 6fbb ca01 05bd
000001f0: 20ab 6d3d d8b4 853b e599 b13c 9d4f 1b3d
00000200: dfbc 9c3d 3a76 8a3d c6f8 0b3d 9b08 aa3c
00000210: 2549 89b9 d78d ac3c e1d4 d93b c826 3cbd
00000220: b344 a7bd ccf9 a53c 5f53 b73b a5a4 bfbc
00000230: b55d 213d 652b 24bd cd5d 3e3d ac2b 95bd
00000240: 67f1 713d 0c23 00bd f260 093d b37b 7eba
00000250: c202 7bbd 49c5 b6bd 816d 8bbd 122e 0d3d
00000260: 5fc1 74bd dd4f 9ebd 1ce6 a5bd 34c4 ed3c
00000270: 35c5 83bd 22ea b03c d648 33bd 2d37 9ebd
00000280: a956 bcbc d5af 0a3e c8dd 5a3d 3564 b1bb
00000290: 07d1 85bd 3411 75bc 4698 9ebd b0a4 ccbc
000002a0: 70c3 0e3d a877 8b3b 5781 3b3d 8d5c efbc
000002b0: ae6d 15bc 2359 88bd 7357 c7bc 973a cb3c
000002c0: cbab 9f3c 89be 053c a28b b3bc 5184 2abc
000002d0: 3c72 b53d 8739 f23d 60ff 153d 09bc 983d
000002e0: e04c 28bc b1b3 91bd 950f 4e3d 6b01 bf3c
000002f0: 48a3 8bbd 3fd5 aebd 9003 973d 30a8 333d
00000300: 71da 69bd 5a80 133c 1a14 2a3d 3f85 d3bd
00000310: 4a3d 18bd f4f7 94bc 888c bcbd d1eb ecbd
00000320: fd9f 17bd 8fc5 aabd 1817 43bd 777d cebd
00000330: 5421 41bd 9c3d e7bd c81d 33bb 370c 4cbd
00000340: c4fc a7bc 5fdd cb3c e151 bd3d f636 c7bd
00000350: a02a f6bb 10e2 f8bd f6d3 6b3d fe78 83ba
00000360: 2971 9dbd 19e3 86b9 08cb 06be f7a7 963d
00000370: 4dbf 723d feba b63d d5b0 f23d cc3f 89bc
00000380: 0379 db3d ec46 d9bd 05cc e0bc 6ef1 72bb
00000390: fab2 933d 23b0 a6bc 119e 3bbc 3799 d03d
000003a0: 9b50 17bd 9d92 bfbd d314 94bd b61f 683d
000003b0: acd2 1e3e 8574 32be 304f 5f3d 05ab d63c
000003c0: fc14 80bd 8f5a 21bd 5b20 393d eb50 c4bd
000003d0: 8593 893d 318d 183d e388 073d 64e9 ea3c
000003e0: 1d5a b8bd 1a25 a83d 9369 793d f5e4 0ebd
000003f0: 697a 5b3c 466a 8d3d 6610 283d 28c5 f53c

actor_mlp.mlp.2.weight f4 [128, 256]
0.20597608 -0.042618696 0.028789556 0.053864103 0.022721276 0.02784738 0.11423775 0.30003494
-0.017629912 0.08727261 0.13466762 -0.045217097 0.049125064 -0.19903603 -0.0891102 0.11400726
0.10665995 0.19633086 0.18576273 0.20099731 -0.08517402 -0.07978277 -0.09910508 0.11578273
-0.19776076 -0.0014051045 -0.16017479 -0.075548775 -0.009373572 -0.05924224 0.09918047 0.1013964
-0.0018224965 0.13222426 -0.101734474 -0.21520448 0.070615016 0.085258245 -0.1275213 -0.0064029386
0.033349227 -0.13457459 -0.04468345 -0.08203081 -0.053153127 0.009210848 -0.05216947 0.089888245
-0.11595682 0.046180237 -0.06632106 -0.2382738 -0.07166472 -0.048655532 0.061031483 -0.17348738
-0.02445236 -0.086598456 0.104439996 0.035789367 -0.030805869 0.3238297 0.26092446 -0.11611411
-0.07564011 0.08563787 -0.06593336 -0.109887004 -0.033867314 -0.087160945 0.043442078 0.071478136
0.09299929 0.07058064 0.028491233 0.04864857 0.040411845 0.0022383924 -0.044310212 -0.15842938
-0.0031707617 0.2010565 0.15501446 -0.1565673 -0.017754035 0.022843413 0.091842696 -0.05757791
-0.048061743 0.23020016 0.18369924 0.058476478 0.078329116 -0.029603472 0.13914262 0.12810314
-0.0539733 0.08524664 -0.23345314 0.04935088 0.104508914 -0.027793333 -0.18471123 0.017524
0.04608854 -0.005748588 -0.03585016 -0.05486914 0.03810627 -0.0039734 0.08308181 -0.038572088
-0.07579051 0.03060007 0.15324709 -0.14158767 0.33568302 0.100547895 0.064831614 -0.120615974
-0.06935396 0.07103404 0.004302115 0.21205598 -0.00055441563 0.07616664 -0.032059927 -0.07058367
0.016334968 -0.1585603 0.050326474 0.009893995 0.05756451 -0.10112379 -0.1339689 0.102128126
-0.12077745 -0.11568744 0.16772884 -0.21332511 -0.041521363 0.16608426 0.033303708 0.08733494
-0.094438225 0.0408344 0.10389816 -0.17595407 -0.0861434 -0.086180285 0.20529224 0.19956797
-0.16641401 -0.06699233 0.33887932 -0.06818667 0.10777023 0.07250954 -0.03844283 0.093849435
-0.05785317 0.044199124 0.015581292 0.13067205 0.028688932 0.0071123717 0.13316886 -0.016647935
0.02851661 0.13962519 -0.0017600073 -0.240984 0.08674967 0.11889231 0.116215296 0.014375409
0.039520875 -0.045477267 0.2599591 0.1038623 0.049026478 -0.03507135 0.0410934 0.04708768
0.17821373 -0.07276853 0.03568645 -0.058789846 -0.071757175 -0.19925286 -0.18458109 -0.058296844
-0.035019703 0.02140697 -0.04084423 0.11715546 0.020620959 -0.136662 0.052333638 -0.19595948
-0.047704183 0.0478105 -0.06566173 -0.036748298 -0.13353245 -0.07674513 -0.060326718 0.114488736
-0.13374266 -0.17907989 0.08200375 -0.12576126 -0.1724066 -0.26142448 0.11925291 -0.0007174482
0.026651459 0.07951077 0.04069733 -0.052852813 0.047243744 -0.004567061 -0.040844902 0.25085774
0.07691652 -0.2102993 -0.07220841 -0.17022324 0.05600009 -0.0516671 0.008039766 0.08731282
-0.0058775153 0.017388009 -0.08093859 -0.059467245 -0.021714387 0.039319184 0.14817241 -0.01861694
-0.11819574 -0.047341812 0.03223695 0.06140674 -0.040474642 0.08325481 -0.005711329 -0.055921078
0.18521656 0.0897601 -0.12551314 -0.16335544 0.075645395 -0.08541377 -0.328705 0.15064363
00000000: 65eb 523e f190 2ebd 13d8 eb3c 9ba0 5c3d
00000010: f821 ba3c 3020 e43c 7bf5 e93d 2e9e 993e
00000020: 9b6c 90bc fbbb b23d 4fe6 093e 9035 39bd
00000030: 5d37 493d 1ad0 4bbe 697f b6bd a37c e93d
00000040: 8870 da3d f50a 493e 9638 3e3e 3dd2 4d3e
00000050: b76f aebd 2665 a3bd 9bf7 cabd 7f1f ed3d
00000060: cc81 4abe 7c2b b8ba dc04 24be 51b9 9abd
00000070: 9c93 19bc fea7 72bd 211f cb3d eaa8 cf3d
00000080: d6e0 eeba cc65 073e 2a5a d0bd 905e 5cbe
00000090: 9b9e 903d e09b ae3d f294 02be becf d1bb
000000a0: 3399 083d eccd 09be fe05 37bd c5ff a7bd
000000b0: 18b7 59bd 19e9 163c a7af 55bd 5417 b83d
000000c0: c57a edbd 7d27 3d3d 56d3 87bd 0cfe 73be
000000d0: f4c4 92bd 064b 47bd 26fc 793d ada6 31be
000000e0: 5150 c8bc 885a b1bd a3e4 d53d df97 123d
000000f0: 975c fcbc 02cd a53e e497 853e 3ccd edbd
00000100: 34e9 9abd e862 af3d 1208 87bd 700c e1bd
00000110: 74b8 0abd 7081 b2bd 52f0 313d 2163 923d
00000120: 6976 be3d 958c 903d 7266 e93c b943 473d
00000130: e486 253d feb1 123b a07e 35bd 503b 22be
00000140: 8ecc 4fbb c1e1 4d3e 1cbc 1e3e 2e53 20be
00000150: e970 91bc 1c22 bb3c 0618 bc3d d1d6 6bbd
00000160: 64dc 44bd 97b9 6b3e a71b 3c3e 0885 6f3d
00000170: 046b a03d fb82 f2bc 677b 0e3e 782d 033e
00000180: 1b13 5dbd ca95 ae3d 570e 6fbe 2624 4a3d
00000190: c508 d63d d8ae e3bc f124 3dbe 7e8e 8f3c
000001a0: 56c7 3c3d a75e bcbb 9ed7 12bd 77be 60bd
000001b0: 5215 1c3d 4c33 82bb cc26 aa3d c4fd 1dbd
000001c0: 0e38 9bbd ffac fa3c ceec 1c3e 5cfc 10be
000001d0: a5de ab3e 0eec cd3d 70c6 843d 8205 f7bd
000001e0: 7309 8ebd 4b7a 913d c2f8 8c3b 3425 593e
000001f0: 3456 11ba 41fd 9b3d 4551 03bd 2c8e 90bd
00000200: e9d0 853c a25d 22be 2223 4e3d 6c1a 223c
00000210: c3c8 6b3d fd19 cfbd 252f 09be 8d28 d13d
00000220: 2b5a f7bd 89ed ecbd 1cc1 2b3e e671 5abe
00000230: 4e12 2abd fe11 2a3e 7869 083d a9dc b23d
00000240: d468 c1bd f941 273d 8fc8 d43d 4e2d 34be
00000250: f36b b0bd 4a7f b0bd 2138 523e 8c5b 4c3e
00000260: 6f68 2abe 4633 89bd 9781 ad3e 74a5 8bbd
00000270: a3b6 dc3d e27f 943d 3b76 1dbd 2234 c03d
00000280: 72f7 6cbd 240a 353d ad48 7f3c e5ce 053e
00000290: 0d05 eb3c e60e e93b 6b5d 083e 4061 88bc
000002a0: aa9b e93c e8f9 0e3e 0cb0 e6ba 82c4 76be
000002b0: d0a9 b13d d07d f33d 4902 ee3d d686 6b3c
000002c0: a4e0 213d 5f46 3abd 5c19 853e c2b5 d43d
000002d0: fdcf 483d faa6 0fbd 8e51 283d 03df 403d
000002e0: a97d 363e ab07 95bd f42b 123d 9fcd 70bd
000002f0: 6df5 92bd f108 4cbe d302 3dbe acc8 6ebd
00000300: d270 0fbd ac5d af3c 484c 27bd 34ef ef3d
00000310: 49ed a83c 20f1 0bbe cc5b 563d 9aa9 48be
00000320: 7665 43bd f1d4 433d a879 86bd 6285 16bd
00000330: bbbc 08be 8d2c 9dbd 2619 77bd 1279 ea3d
00000340: d6f3 08be b860 37be 95f1 a73d 8fc7 00be
00000350: 5b8b 30be 6ed9 85be df3a f43d 2213 3cba
00000360: 2954 da3c 8bd6 a23d 3eb2 263d 317c 58bd
00000370: a882 413d 49a7 95bb fc4c 27bd 6d70 803e
00000380: 6986 9d3d b358 57be 01e2 93bd 004f 2ebe
00000390: 5a60 653d e2a0 53bd 39b9 033c 10d1 b23d
000003a0: 2c98 c0bb 4c71 8e3c 22c3 a5bd ed93 73bd
000003b0: 5fe2 b1bc 270d 213d 82ba 173e 8e82 98bc
000003c0: 9c10 f2bd 7de9 41bd e40a 043d a285 7b3d
000003d0: bdc8 25bd 7f81 aa3d 1a26 bbbb 800d 65bd
000003e0: 69a9 3d3e 25d4 b73d 8486 00be a646 27be
000003f0: f9eb 9a3d 6aed aebd 064c a8be 5342 1a3e

actor_mlp.mlp.2.bias f4 [128]
-0.09124043 0.0008776517 -0.065964475 -0.0011601545 0.010178981 -0.026152404 -0.039697304 -0.11185739
-0.09344046 0.020288968 -0.0049882336 0.025810499 -0.09806955 -0.02610376 -0.01625974 0.038871687
-0.011455235 0.008937736 -0.07748769 -0.06488272 -0.043461468 0.024311071 -0.002756338 -0.06985245
-0.045509733 -0.059165966 0.008573783 -0.12681663 -0.11170745 -0.05434589 -0.08324021 -0.056850914
-0.035700385 -0.04826526 0.045531932 0.06648099 -0.02445281 -0.04009366 -0.012020021 -0.101326756
-0.007321572 0.027334666 -0.04198546 -0.01356915 -0.01466727 -0.055772394 -0.019640394 -0.024289992
-0.023713142 0.028170902 -0.014526767 0.047640443 -0.06752815 0.008540501 -0.10807105 -0.028061366
-0.0992508 0.0056831073 0.00036827792 -0.075189695 -0.04316276 -0.08580854 -0.056083363 -0.027403703
0.013448331 0.0003137176 0.017116858 -0.11831208 -0.080894336 -0.10209025 -0.12371553 0.026873887
-0.014906701 -0.036147404 0.01540373 -0.029750573 0.011446247 -0.0028370512 -0.064717464 -0.076508984
-0.10080731 -0.039146245 -0.06278994 -0.041194726 -0.0076525514 -0.0985499 -0.17714106 -0.15270865
-0.08768518 0.010417634 -0.14164734 -0.03978202 -0.10095093 -0.10390919 0.021231065 -0.021601655
-0.01907405 -0.05093604 -0.057884116 -0.05080666 -0.062131353 0.1009763 -0.05598359 -0.17583914
0.011492411 0.017336272 -0.02410543 -0.09763084 0.009010419 0.015137607 -0.10732748 -0.07701693
-0.04004089 0.015860016 -0.15132515 -0.03918782 -0.11331042 0.028171774 -0.0039553437 -0.097102955
-0.09633241 -0.016069708 -0.07096835 -0.05003292 0.030838767 0.031302076 -0.07804519 -0.081995614
00000000: 43dc babd 3512 663a 6218 87bd 5310 98ba
00000010: bec5 263c 913d d6bc a499 22bd 7d15 e5bd
00000020: b65d bfbd 0d35 a63c 5674 a3bb 8a70 d33c
00000030: b0d8 c8bd 8dd7 d5bc 2533 85bc eb37 1f3d
00000040: bdae 3bbc 956f 123c deb1 9ebd 3be1 84bd
00000050: a704 32bd 0328 c73c aea3 34bb cd0e 8fbd
00000060: 6a68 3abd 0358 72bd 0d79 0c3c 38dc 01be
00000070: e0c6 e4bd cc99 5ebd d879 aabd 81dc 68bd
00000080: 913a 12bd cbb1 45bd b17f 3a3d 2f27 883d
00000090: 4251 c8bc 4039 24bd 9fef 44bc 6784 cfbd
000000a0: cce9 efbb f3ec df3c f2f8 2bbd 2451 5ebc
000000b0: fd4e 70bc 9871 64bd e4e4 a0bc cefb c6bc
000000c0: 1042 c2bc aac6 e63c ad01 6ebc a022 433d
000000d0: 334c 8abd 75ed 0b3c 5b54 ddbd f3e0 e5bc
000000e0: 0144 cbbd 5c39 ba3b 6d15 c139 0efd 99bd
000000f0: 6fcb 30bd 63bc afbd abb7 65bd bb7d e0bc
00000100: 6356 5c3c 777a a439 a738 8c3c 9b4d f2bd
00000110: eeab a5bd b114 d1bd 915e fdbd a026 dc3c
00000120: 3c3b 74bc 4d0f 14bd ed5f 7c3c 79b7 f3bc
00000130: 0a89 3b3c d2ed 39bb 978a 84bd beb0 9cbd
00000140: 1074 cebd d057 20bd 0398 80bd cdbb 28bd
00000150: 41c2 fabb 88d4 c9bd 7764 35be a85f 1cbe
00000160: 4a94 b3bd b9ae 2a3c 000c 11be 79f2 22bd
00000170: 5cbf cebd 57ce d4bd c5ec ad3c f4f5 b0bc
00000180: 2f41 9cbc 4fa2 50bd e517 6dbd a51a 50bd
00000190: 727d 7ebd aacc ce3d 0d4f 65bd 2d0f 34be
000001a0: aa4a 3c3c cc04 8e3c c078 c5bc aef2 c7bd
000001b0: 70a0 133c ba03 783c 83ce dbbd 0dbb 9dbd
000001c0: eb01 24bd ddec 813c fbf4 1abe 6883 20bd
000001d0: 4b0f e8bd 7ec8 e63c d49b 81bb eadd c6bd
000001e0: ed49 c5bd 9fa4 83bc db57 91bd 52ef 4cbd
000001f0: 95a1 fc3c 9b36 003d 28d6 9fbd 51ed a7bd

value_mlp.mlp.0.weight f4 [256, 27]
-0.06243347 -0.040091716 -0.16825853 -0.016869416 0.02951745 -0.018448567 -0.0026285842 -0.14274582
-0.016061116 0.07406662 0.033433285 0.027002847 -0.12168763 0.02593263 0.06579725 -0.14290746
-0.016883023 -0.0024716922 -0.16400333 0.09303859 -0.13846049 0.04488526 -0.15297097 -0.10654185
-0.18140972 -0.04196389 -0.018128023 -0.033904333 -0.061432414 -0.16231553 0.10880445 0.035941288
0.0090186875 0.0808868 -0.020341855 0.06278156 0.10324903 0.07966859 0.023102552 -0.015824856
-0.034405224 0.015739243 -0.042475417 -0.08933048 0.053185 -0.101515114 -0.05266384 -0.08049238
-0.0145457275 -0.18077372 -0.11275473 -0.054151904 -0.002985744 0.056159753 -0.13713256 0.05314502
-0.1524284 0.16626677 0.045676425 -0.09475092 -0.060367916 -0.103934586 -0.030340275 0.14060974
-0.031702235 0.012325387 -0.06957539 0.05567024 0.06937426 -0.06828395 -0.030229902 0.061607514
-0.18287875 -0.04957045 -0.030851351 -0.05279554 0.019321634 0.03506336 -0.03334175 -0.03418739
-0.18117063 -0.029296085 -0.07468112 0.092919864 0.006349415 -0.14193419 0.09046773 -0.2527178
-0.28126422 -0.15833268 0.029885659 0.03612142 -0.1169449 0.031576008 0.090553 0.059496738
-0.0015903603 -0.011565937 0.03061168 0.056312438 -0.07141127 0.1377921 0.0056456407 -0.0030686695
0.2311117 -0.0577895 -0.09477963 -0.030567702 0.02116286 -0.022695731 -0.008821004 -0.03732831
0.072548665 -0.05770919 0.0071998434 0.084003955 0.13150881 0.06893466 -0.14314821 -0.018464819
0.0734982 0.053873938 0.10200878 0.04860132 0.00980584 0.0035380556 0.16883898 -0.2101409
-0.098541535 -0.16405407 -0.18409806 -0.009663593 -0.21897298 0.013504312 0.108199686 -0.0088164965
-0.0008904157 0.08229581 -0.029771842 0.09132662 0.13700171 0.08984041 -0.08292646 0.10016142
0.07823665 -0.099380955 -0.11484696 -0.114735566 -0.22326335 0.02900638 -0.09540253 -0.063122064
-0.0307418 -0.023001628 -0.02965953 -0.13230328 -0.025806058 -0.057191048 0.10910337 -0.07346147
0.07810859 -0.07375098 0.077719465 -0.035179302 -0.08834639 0.058036838 0.1131891 0.040963896
-0.18984877 -0.016407672 0.08932439 0.16634633 0.073783584 0.10886951 0.15760635 0.08445932
0.04674026 -0.025654275 -0.06890957 0.020766197 -0.04865957 -0.10286255 0.03314987 -0.018203804
0.10640146 0.008080287 0.27266127 -0.33786768 -0.07615812 -0.036139134 0.13555825 -0.00017585051
0.011915905 0.0746573 -0.13332257 0.14461814 0.068521984 -0.009127623 0.023092497 0.10588629
-0.026630836 0.2524221 0.08756719 -0.057414554 0.038812757 0.07450288 0.16186745 -0.032662377
0.12928876 -0.07948647 -0.06665852 0.10430961 -0.14272368 0.017731125 0.11028438 -0.055568554
-0.10865252 0.10585575 0.1945108 -0.016354728 0.04310577 0.07453815 -0.1453646 0.0352763
-0.01903789 -0.06603574 0.037627608 0.114065655 0.238184 0.06448766 0.03697059 -0.13328652
-0.0125363935 -0.019108236 0.05990681 0.09404328 0.21150534 0.05347063 0.09366372 -0.103121996
0.01591806 -0.13970132 -0.189776 0.13521048 0.060370527 0.016089445 -0.031270828 0.19490552
-0.06719868 0.029720055 0.045490943 0.052816458 0.0051304093 -0.026079584 0.00070442836 -0.054732375
00000000: 3dba 7fbd 3637 24bd f74b 2cbe bb31 8abc
00000010: 94ce f13c 7321 97bc 5344 2cbb f62b 12be
00000020: 9a92 83bc 3db0 973d 57f1 083d 1335 dd3c
00000030: 5d37 f9bd ab70 d43c b5c0 863d 5556 12be
00000040: 444e 8abc 1dfc 21bb 7df0 27be 048b be3d
00000050: 96c8 0dbe 9bd9 373d 6ca4 1cbe 9d32 dabd
00000060: 78c3 39be 54e2 2bbd 3881 94bc 45df 0abd
00000070: 8ea0 7bbd 0b36 26be ded4 de3d 2c37 133d
00000080: 1ec3 133c fba7 a53d f6a3 a6bc 9e93 803d
00000090: 3a74 d33d 4929 a33d 9041 bd3c 21a3 81bc
000000a0: 7eec 0cbd 96ef 803c b4fa 2dbd e6f2 b6bd
000000b0: 84d8 593d 28e7 cfbd 0ab6 57bd 30d9 a4bd
000000c0: 3451 6ebc bf1c 39be f4eb e6bd 63ce 5dbd
000000d0: 79ac 43bb c507 663d 7a6c 0cbe 98ae 593d
000000e0: 3116 1cbe d641 2a3e 3417 3b3d c50c c2bd
000000f0: 5944 77bd a8db d4bd 2b8c f8bc 00fc 0f3e
00000100: 34da 01bd 6cf0 493c 8b7d 8ebd 7a06 643d
00000110: 1814 8e3d 75d8 8bbd b3a4 f7bc 2958 7c3d
00000120: 9144 3bbe 620a 4bbd f9bb fcbc 2340 58bd
00000130: 6748 9e3c 999e 0f3d 5c91 08bd 1408 0cbd
00000140: cb84 39be 58fe efbc 6af2 98bd c54c be3d
00000150: c10e d03b 3257 11be 2547 b93d 3a64 81be
00000160: dd01 90be f621 22be c5d2 f43c 0ef4 133d
00000170: cf80 efbd d855 013d da73 b93d dab2 733d
00000180: a373 d0ba 0e7f 3dbc 59c5 fa3c dfa7 663d
00000190: 1240 92bd 5f19 0d3e 11ff b83b bb1b 49bb
000001a0: 8ca8 6c3e afb4 6cbd d31b c2bd 1e69 fabc
000001b0: bc5d ad3c 66ec b9bc f985 10bc 92e5 18bd
000001c0: 6594 943d 7960 6cbd aaec eb3b 440a ac3d
000001d0: 3faa 063e 9d2d 8d3d 7295 12be 8843 97bc
000001e0: 3986 963d ebaa 5c3d fbe9 d03d 2d12 473d
000001f0: ada8 203c b9de 673b 20e4 2c3e 2d2f 57be
00000200: 25d0 c9bd cafd 27be 3484 3cbe 0c54 1ebc
00000210: 743a 60be 3141 5d3c cc97 dd3d 1173 10bc
00000220: c96a 69ba b58a a83d 14e4 f3bc 7309 bb3d
00000230: 2d4a 0c3e 40fe b73d 59d5 a9bd 6e21 cd3d
00000240: 893a a03d 3e88 cbbd e234 ebbd 7bfa eabd
00000250: 269f 64be ca9e ed3c 6762 c3bd 2446 81bd
00000260: 3ad6 fbbc e96d bcbc 8bf8 f2bc 837a 07be
00000270: 3a67 d3bc 2941 6abd 9671 df3d f872 96bd
00000280: 65f7 9f3d c10a 97bd 622b 9f3d 2c18 10bd
00000290: f4ee b4bd 09b8 6d3d b0cf e73d c2c9 273d
000002a0: b767 42be 6269 86bc b5ef b63d b156 2a3e
000002b0: d91b 973d faf6 de3d 8f63 213e 02f9 ac3d
000002c0: b772 3f3d ea28 d2bc 7620 8dbd df1d aa3c
000002d0: 424f 47bd 9aa9 d2bd 28c8 073d 2520 95bc
000002e0: 02e9 d93d 2e63 043c 429a 8b3e fefc acbe
000002f0: caf8 9bbd a106 14bd c8cf 0a3e 8364 38b9
00000300: ee3a 433c ede5 983d b685 08be c716 143e
00000310: 4155 8c3d 078c 15bc 7a2c bd3c e9da d83d
00000320: e928 dabc 783d 813e 6d56 b33d 862b 6bbd
00000330: 20fa 1e3d f794 983d 95c0 253e fcc8 05bd
00000340: 4664 043e cdc9 a2bd 4384 88bd 47a0 d53d
00000350: 2826 12be dd40 913c c7dc e13d da9b 63bd
00000360: 3685 debd e6ca d83d d72d 473e 5afa 85bc
00000370: ad8f 303d 75a7 983d 75da 14be e27d 103d
00000380: 59f5 9bbc bf3d 87bd 681f 1a3d 419b e93d
00000390: 82e6 733e 1b12 843d 796e 173d 437c 08be
000003a0: 7265 4dbc e088 9cbc d860 753d c399 c03d
000003b0: db94 583e 0504 5b3d c4d2 bf3d a031 d3bd
000003c0: 9766 823c dd0d 0fbe a454 42be 9e74 0a3e
000003d0: 1647 773d 03ce 833c d715 00bd 5095 473e
000003e0: 769f 89bd 7977 f33c b654 3a3d 1256 583d
000003f0: fe1c a83b daa4 d5bc 63a9 383a 0e2f 60bd

value_mlp.mlp.0.bias f4 [256]
-0.06273354 -0.03050714 0.102190055 0.04487405 -0.20381492 0.012435373 0.041486982 -0.02178245
0.052692033 0.04885005 0.028999893 0.08961399 -0.013422636 0.024307352 0.005374827 0.0013804185
0.049751822 -0.05127169 -0.041304227 -0.057340246 0.03177705 -0.025724253 -0.064105615 -0.080998555
0.046364523 -0.07390476 -0.010089686 -0.029333249 -0.07371308 -0.05169563 0.06360841 -0.10274421
-0.1757113 0.04488848 -0.054315522 -0.05376774 -0.05999409 0.107918695 0.076106995 -0.09503289
-0.05755311 -0.023983512 0.079257786 -0.056763057 -0.033404436 0.025164869 0.02678182 -0.08318616
0.002415956 -0.00797852 0.0038265528 0.022079635 -0.06197783 -0.032446805 -0.13754827 -0.12717915
-0.14586349 -0.117149524 -0.10613955 0.05809327 -0.003104962 -0.025347533 -0.067151494 -0.03340285
-0.17950161 -0.008759936 0.057163093 0.017845988 -0.03823676 -0.11197202 -0.08490285 0.027139368
0.044699393 0.044934757 -0.08484803 0.041524783 -0.12201838 -0.038899776 -0.035678834 -0.017135765
-0.10073038 0.03087481 -0.020473687 0.0048012235 -0.14980912 -0.06580574 -0.06392568 0.01414336
-0.20094621 -0.1809098 0.0029853082 -0.03523596 -0.07430409 -0.0019050846 0.005302057 -0.063090965
-0.09112153 -0.094708055 0.0025524602 -0.13621052 0.024015736 -0.022328975 -0.008064407 -0.16045879
-0.016592553 -0.1036769 -0.1340773 0.014455656 -0.0019928224 -0.083414674 -0.026926534 0.018524867
-0.07944806 -0.054149695 0.02054792 -0.06830367 -0.15216354 0.0021669758 0.07169462 -0.062474873
0.044450104 -0.09429297 0.031181607 -0.02163257 0.037490945 -0.027152382 -0.03684775 -0.16748782
0.006175366 -0.110465765 0.025124686 -0.036107644 -0.040012885 0.031078069 -0.002484234 -0.04742668
-0.10823486 0.001962108 -0.14230639 -0.0002625347 0.077193305 -0.119766444 0.005737054 0.038655806
-0.17170459 -0.078187324 -0.07485697 -0.012369016 0.02374932 -0.054325648 -0.028996985 -0.018782007
0.020818613 -0.01239072 0.06971091 0.018890113 -0.1160419 -0.10270118 0.13559814 -0.009711624
0.064732164 0.10270187 -0.08309557 0.012035664 0.06801944 0.02908153 -0.08147356 -0.046378516
-0.018650772 -0.030601975 -0.029623155 -0.035956882 0.066780046 0.0025087756 -0.12938942 -0.039857097
-0.092004694 -0.019282755 -0.073523834 -0.038330916 0.12778476 -0.21901004 -0.12887365 0.056327693
-0.094470434 0.03954387 0.02696969 -9.057155e-05 -0.008823651 -0.14090717 -0.06639274 -0.022079838
-0.20671418 0.0619997 -0.0193618 -0.13052464 0.011213937 -0.09880192 0.053315554 0.0066636647
-0.0498365 -0.07099101 -0.02726586 0.09532497 -0.159901 -0.105256215 -0.00996575 0.06325643
-0.029793136 0.03257718 0.008876916 0.08415733 -0.02703043 -0.07238652 0.048102662 -0.024107935
0.03987856 0.001723334 -0.057135627 -0.0614787 -0.045735292 -0.03416374 0.018944096 0.06133367
0.0030971179 -0.09296509 -0.06475297 0.018319637 -0.10286433 0.006748528 -0.087180875 0.013911518
0.041679554 -0.15812592 -0.026667673 -0.1331929 -0.041773055 0.0008363089 -0.0221192 0.07044737
-0.012298319 -0.042680055 0.017774811 -0.024537187 -0.17563024 -0.0021128273 -0.1049111 -0.031443905
0.022918632 0.020829296 -0.111901276 0.063597366 -0.124115676 0.019664863 -0.10578255 0.047378775
00000000: 717a 80bd 1cea f9bc 0549 d13d dacd 373d
00000010: dcb4 50be bcbd 4b3c 41ee 293d 1c71 b2bc
00000020: 9ad3 573d fd16 483d 2f91 ed3c 8a87 b73d
00000030: 9eea 5bbc 3620 c73c 511f b03b 29ef b43a
00000040: 91c8 4b3d 4302 52bd 9f2e 29bd 9bdd 6abd
00000050: a728 023d abbb d2bc ce49 83bd 92e2 a5bd
00000060: bae8 3d3d 615b 97bd 364f 25bc 484c f0bc
00000070: e2f6 96bd ccbe 53bd 2045 823d 8e6b d2bd
00000080: aaed 33be fcdc 373d f479 5ebd 903b 5cbd
00000090: 5dbc 75bd 7a04 dd3d fcdd 9b3d 9ba0 c2bd
000000a0: cfbc 6bbd 1279 c4bc e851 a23d 6180 68bd
000000b0: 17d3 08bd 8e26 ce3c 8c65 db3c 815d aabd
000000c0: 0455 1e3b 57b8 02bc e7c6 7a3b 5ae0 b43c
000000d0: 77dc 7dbd f1e6 04bd 74d9 0cbe 403b 02be
000000e0: 3d5d 15be 17ec efbd b15f d9bd 35f3 6d3d
000000f0: 9e7c 4bbb a1a5 cfbc b986 89bd 6dd1 08bd
00000100: 45cf 37be d685 0fbc d923 6a3d c031 923c
00000110: 269e 1cbd 9651 e5bd 8ce1 adbd 6153 de3c
00000120: b616 373d 820d 383d cec4 adbd e415 2a3d
00000130: c6e4 f9bd 5f55 1fbd f823 12bd 4e60 8cbc
00000140: bb4b cebd 2bed fc3c 6fb8 a7bc 9553 9d3b
00000150: 9067 19be 29c5 86bd 78eb 82bd 8db9 673c
00000160: d8c4 4dbe 6b40 39be 29a5 433b 9553 10bd
00000170: be2c 98bd 08b4 f9ba e1bc ad3b d635 81bd
00000180: ed9d babd 4cf6 c1bd 2d47 273b c57a 0bbe
00000190: a6bc c43c 41eb b6bc 9320 04bc 4f4f 24be
000001a0: 1bed 87bc 8e54 d4bd 8f4b 09be 6ad7 6c3c
000001b0: 039a 02bb 50d5 aabd 0995 dcbc 76c1 973c
000001c0: aab5 a2bd 12cc 5dbd 1d54 a83c cbe2 8bbd
000001d0: c2d0 1bbe d203 0e3b a1d4 923d a7e5 7fbd
000001e0: 5011 363d ac1c c1bd 9270 ff3c ca36 b1bc
000001f0: 1b90 193d ac6e debc abed 16bd ed81 2bbe
00000200: ba5a ca3b e03b e2bd 49d2 cd3c 9ce5 13bd
00000210: 8de4 23bd 6f97 fe3c 88ce 22bb 7a42 42bd
00000220: 3daa ddbd b696 003b c4b8 11be d0a4 89b9
00000230: 8617 9e3d 1c48 f5bd e6fd bb3b 8d55 1e3d
00000240: 54d3 2fbe ad20 a0bd 9c4e 99bd 6aa7 4abc
00000250: ef8d c23c 9284 5ebd 168b edbc b9dc 99bc
00000260: cc8b aa3c 7202 4bbc 98c4 8e3d 70bf 9a3c
00000270: 60a7 edbd ff54 d2bd 3dda 0a3e 811d 1fbc
00000280: 4c92 843d 5c55 d23d 032e aabd 3c31 453c
00000290: c74d 8b3d 643c ee3c 9cdb a6bd 66f7 3dbd
000002a0: 81c9 98bc feb0 fabc 42ac f2bc 8647 13bd
000002b0: fac3 883d 456a 243b a97e 04be 3241 23bd
000002c0: f56c bcbd def6 9dbc aa93 96bd e100 1dbd
000002d0: 02da 023e 2b44 60be 74f7 03be deb7 663d
000002e0: b779 c1bd c1f8 213d 8aef dc3c 3bf1 bdb8
000002f0: 1391 10bc f849 10be ebf8 87bd c7e0 b4bc
00000300: e2ac 53be 66f3 7d3d a39c 9ebc 40a8 05be
00000310: a9ba 373c a958 cabd 6961 5a3d df5a da3b
00000320: 5c21 4cbd bc63 91bd a75c dfbc bd39 c33d
00000330: 16bd 23be 9290 d7bd 6347 23bc 968c 813d
00000340: bc10 f4bc a66f 053d 7c70 113c ae5a ac3d
00000350: ec6e ddbc 623f 94bd 4c07 453d 017e c5bc
00000360: b357 233d 7ee1 e13a 0c07 6abd 17d1 7bbd
00000370: ee54 3bbd 47ef 0bbd a630 9b3c 0439 7b3d
00000380: 04f9 4a3b 7b64 bebd 359d 84bd 1013 963c
00000390: 89aa d2bd c222 dd3b e38b b2bd 23ed 633c
000003a0: 2eb8 2a3d c3eb 21be 2a76 dabc b863 08be
000003b0: 391a 2bbd bd3b 5b3a 5333 b5bc b646 903d
000003c0: e37e 49bc 48d1 2ebd 7b9c 913c 3602 c9bc
000003d0: 6ad8 33be 5c77 0abb a1db d6bd 53cb 00bd
000003e0: dbbf bb3c 33a2 aa3c 7f2c e5bd 563f 823d
000003f0: 5c30 febd 3518 a13c 86a4 d8bd 3f10 423d

value_mlp.mlp.2.weight f4 [128, 256]
-0.063678026 -0.14123265 0.02489651 -0.1303253 0.0019476757 0.064071454 0.034748416 0.16271749
0.061486114 -0.033165205 0.14203589 0.007156261 -0.05095198 0.020590419 -0.022721784 -0.08914864
0.11996675 0.08596003 0.04375524 0.04541807 -0.0796112 0.13474512 -0.056099582 -0.0666756
-0.001759984 0.004204325 0.13955548 -0.16966063 -0.05123885 0.001664558 0.14246354 -0.055729087
-0.04481777 -0.0033380345 0.11510935 0.0810402 -0.019014323 0.12343709 0.12622114 0.038980044
0.20311335 0.1254501 -0.23448257 -0.05591774 0.08178146 0.04671784 -0.029112225 -0.043117553
0.11153153 -0.13506405 -0.06765062 -0.0666719 0.016559036 0.10479295 0.0757583 -0.0903278
0.09025242 -0.08845243 -0.1391285 -0.0065505365 0.038636573 -0.15927145 -0.14534865 -0.05660405
0.0035217684 -0.07431208 0.03743158 -0.04496084 0.045661572 0.04800337 -0.08909353 0.020645019
-0.017851977 -0.031537227 0.0026939304 0.005190767 0.07761503 -0.09954693 0.119155474 0.024869243
0.0031006336 -0.13907403 0.08810834 0.034541517 0.05457797 0.04734221 -0.047003604 0.009870305
-0.08370257 0.09428615 0.0052130613 -0.10982053 -0.0787282 -0.13251214 0.031616915 0.00066157035
-0.04678117 -0.13750595 -0.109452106 0.012781123 0.09696875 -0.015865155 0.18557297 0.21892534
-0.02069544 0.09089331 0.06618761 -0.057832904 0.121726885 0.1506891 -0.11073649 -0.07774495
0.18675503 0.117846206 -0.020252686 0.07520326 0.10814727 0.031151252 0.03887629 -0.03647135
0.053468958 -0.024536692 -0.16275588 -0.032777686 0.0680076 0.14570001 0.09618892 -0.048834693
0.05678835 0.11753863 0.0047323946 -0.11586213 -0.0130878715 0.053050235 -0.079487436 0.029809855
0.06168654 0.06571797 0.078771956 -0.124177344 -0.17950273 0.0021947643 -0.011441144 0.06746967
0.019326786 -0.14579763 0.21446547 -0.16829242 -0.11507671 -0.14986753 -0.020057445 0.09558179
-0.0919683 0.054335758 0.07256849 -0.040003266 0.0057145073 -0.106276035 -0.14822672 0.006816889
-0.04219137 -0.03563152 -0.043583255 -0.033118602 0.21836361 0.04725892 -0.09290842 -0.15609984
-0.09737577 -0.049046606 -0.035544164 0.1107101 -0.06321053 0.070981264 0.1474849 -0.03032835
0.054204408 0.010492745 -0.09315823 0.0721304 0.012157679 -0.09239977 0.00034090085 -0.0039037694
0.11037827 0.016369939 0.2083159 -0.002178059 0.1110668 0.11401043 0.01896811 0.048991635
-0.12914926 -0.002641597 -0.038871847 0.17610343 -0.029997218 0.0019466715 0.004137214 -0.05630164
-0.1682788 0.047738295 0.1507823 -0.17568521 -0.032856073 0.10089639 -0.03741426 0.11714488
0.04462812 -0.2111988 0.050334193 0.010490766 -0.106903404 0.07327887 -0.078442425 0.03162858
0.054192483 0.14418395 0.124563836 0.13084334 -0.07921262 -0.19016287 -0.15877719 0.017470015
0.14567687 0.00506911 -0.098693185 -0.25379452 -0.062478762 -0.025842827 0.06969369 -0.09677636
-0.09947501 -0.0071648466 0.1358726 0.016036324 -0.1723351 0.09229641 -0.11265913 0.14146677
-0.025762023 -0.087749824 -0.27062285 0.107740015 0.07285891 -0.17531772 0.026888147 -0.05714205
0.07795859 -0.08687318 -0.054609306 -0.04055733 0.046486605 -0.20452005 -0.013478139 -0.017355556
00000000: a069 82bd 4b9f 10be c4f3 cb3c ff73 05be
00000010: 2749 ff3a e537 833d 5b54 0e3d 6a9f 263e
00000020: ddd8 7b3d 3dd8 07bd db71 113e 117f ea3b
00000030: 06b3 50bd 3dad a83c 0923 babc 9093 b6bd
00000040: 21b1 f53d d00b b03d b238 333d 4c08 3a3d
00000050: 320b a3bd a0fa 093e adc8 65bd 388d 88bd
00000060: 43af e6ba 6fc4 893b a2e7 0e3e 84bb 2dbe
00000070: d4df 51bd 4c2d da3a f6e1 113e 2f44 64bd
00000080: d792 37bd edc2 5abb 73be eb3d 68f8 a53d
00000090: edc3 9bbc 96cc fc3d 1d40 013e 8aa9 1f3d
000000a0: f2fc 4f3e fe75 003e 331c 70be 000a 65bd
000000b0: 0a7d a73d 355b 3f3d c37c eebc 089c 30bd
000000c0: a56a e43d 3b4e 0abe 698c 8abd 478b 88bd
000000d0: d1a6 873c b09d d63d 2b27 9b3d c8fd b8bd
000000e0: 43d6 b83d 8c26 b5bd b477 0ebe e2a5 d6bb
000000f0: 6241 1e3d 0e18 23be 47d6 14be a6d9 67bd
00000100: 78cd 663b ef30 98bd db51 193d dc28 38bd
00000110: a107 3b3d 2f9f 443d ab76 b6bd be1f a93c
00000120: 4f3e 92bc 2e2d 01bd a78c 303b 4f17 aa3b
00000130: a1f4 9e3d 43df cbbd c907 f43d 95ba cb3c
00000140: 0034 4b3b 6c69 0ebe 2572 b43d 687b 0d3d
00000150: 268d 5f3d e8e9 413d da86 40bd 0fb7 213c
00000160: 416c abbd 1919 c13d 54d2 aa3b 96e9 e0bd
00000170: 403c a1bd 43b1 07be bd80 013d 3c6d 2d3a
00000180: 9d9d 3fbd 5cce 0cbe 6d28 e0bd ea67 513c
00000190: 8d97 c63d a4f7 81bc d706 3e3e f72d 603e
000001a0: 7c89 a9bc 4626 ba3d 5f8d 873d 32e2 6cbd
000001b0: f24b f93d 3e4e 1a3e d0c9 e2bd bf38 9fbd
000001c0: b63c 3f3e 5a59 f13d f6e8 a5bc 2b04 9a3d
000001d0: 517c dd3d e930 ff3c bf3c 1f3d fb62 15bd
000001e0: 4402 5b3d 2c01 c9bc 7aa9 26be e541 06bd
000001f0: 9247 8b3d 6232 153e b2fe c43d e306 48bd
00000200: e79a 683d 18b8 f03d 3412 9b3b 2049 edbd
00000210: 836e 56bc 344b 593d 4fca a2bd cc33 f43c
00000220: 06ab 7c3d 2597 863d 3153 a13d b150 febd
00000230: 90cf 37be 09d6 0f3b a373 3bbc 8a2d 8a3d
00000240: 3553 9e3c f94b 15be d69c 5b3e d954 2cbe
00000250: 57ad ebbd e076 19be 834f a4bc 63c0 c33d
00000260: e059 bcbd 2c8f 5e3d ca9e 943d 77da 23bd
00000270: c340 bb3b 40a7 d9bd bfc8 17be 3660 df3b
00000280: dcd0 2cbd 5bf2 11bd 5b84 32bd 5fa7 07bd
00000290: b69a 5f3e 9292 413d c546 bebd a3d8 1fbe
000002a0: f36c c7bd 18e5 48bd c296 11bd fabb e23d
000002b0: 8674 81bd a05e 913d 4806 173e 2973 f8bc
000002c0: 7105 5e3d c3e9 2b3c bec9 bebd 1ab9 933d
000002d0: 0031 473c 173c bdbd f0ba b239 62d6 7fbb
000002e0: 010e e23d 401a 863c c350 553e c4bd 0ebb
000002f0: fe76 e33d 4d7e e93d 0363 9b3c 74ab 483d
00000300: b43f 04be a51e 2dbb 1638 1fbd 7554 343e
00000310: babc f5bc 7527 ff3a 7791 873b 8c9c 66bd
00000320: 4751 2cbe 3b89 433d ad66 1a3e d3e6 33be
00000330: 1794 06bd c4a2 ce3d b23f 19bd a8e9 ef3d
00000340: facb 363d 8044 58be 3a2b 4e3d 76e1 2b3c
00000350: 2cf0 dabd 3b13 963d 6ca6 a0bd f88c 013d
00000360: f0f8 5d3d f5a4 133e 531b ff3d ccfb 053e
00000370: 3a3a a2bd 0eba 42be 7d96 22be 471d 8f3c
00000380: 512c 153e c71a a63b a71f cabd 5bf1 81be
00000390: bbe9 7fbd 56b4 d3bc 91bb 8e3d af32 c6bd
000003a0: 8eb9 cbbd 17c7 eabb 3022 0b3e 9c5e 833c
000003b0: 9d78 30be e605 bd3d d4b9 e6bd aadc 103e
000003c0: e10a d3bc 2eb6 b3bd 148f 8abe cca6 dc3d
000003d0: 0d37 953d 7d86 33be 8844 dc3c c80d 6abd
000003e0: c1a8 9f3d 91ea b1bd 02ae 5fbd 711f 26bd
000003f0: bd68 3e3d b46d 51be 6ad3 5cbc 3d2d 8ebc

value_mlp.mlp.2.bias f4 [128]
-0.09291779 -0.07702884 -0.06866678 -0.028365318 0.029723251 -0.11564277 -0.02051916 -0.079134986
-0.053935885 -0.06762179 -0.03469242 -0.021958023 -0.12101685 -0.06261956 -0.10498618 -5.397183e-05
-0.051898357 -0.046430692 -0.015472663 -0.063700475 -0.039943207 -0.02114177 -0.028947994 -0.044800248
-0.012674837 -0.05153559 0.0023525907 -0.10728982 -0.0443968 -0.008175013 -0.018572481 -0.09647091
-0.17212893 -0.08100966 -0.032872498 0.011306103 -0.02016677 0.013693197 -0.009156588 -0.0685702
-0.019492948 -0.062037855 -0.1268413 -0.036289707 0.018416876 -0.008353185 -0.045632377 -0.04069476
-0.047222108 -0.031856164 -0.05872863 -0.12131701 -0.07007347 -0.0026612484 -0.007168003 0.027439656
-0.021573273 -0.042240422 -0.029108064 -0.014424231 -0.000651664 -0.100118004 -0.05341295 -0.047288958
-0.10347959 -0.047376093 -0.030224118 -0.10917728 -0.103422806 -0.026272831 -0.07176078 -0.037412494
-0.1265287 -0.06410638 -0.079531096 -0.06224029 -0.05793256 -0.025375599 -0.04885201 -0.05828585
-0.022410903 0.027545605 0.0070539876 -0.077245645 -0.12090396 -0.057556283 -0.0031235598 -0.007885645
-0.059338268 -0.05598486 -0.021688407 0.001893971 -0.031855248 -0.03998809 -0.006448489 -0.051608253
-0.02320597 -0.013373685 -0.053580876 -0.024446186 -0.059387498 0.015262497 0.039093092 -0.0505771
-0.07765581 -0.10482544 -0.018661397 0.0027358544 -0.0076685213 -0.026753245 0.012722654 0.012017128
-0.09530345 -0.042006094 0.00085757964 -0.07168493 -0.20891857 -0.03495735 -0.012492105 -0.0030803054
-0.015500773 -0.20735706 -0.08739161 -0.014563141 -0.15786433 -0.013458664 -0.13895202 -0.025887704
00000000: af4b bebd 4cc1 9dbd 2ba1 8cbd 625e e8bc
00000010: 2d7e f33c 1ed6 ecbd cc17 a8bc 8611 a2bd
00000020: e0eb 5cbd 4b7d 8abd a419 0ebd 50e1 b3bc
00000030: afd7 f7bd af3e 80bd ff02 d7bd d05f 62b8
00000040: 5f93 54bd 1c2e 3ebd 0d81 7dbc 6575 82bd
00000050: 7d9b 23bd 8131 adbc 5824 edbc 7780 37bd
00000060: 1faa 4fbc fc16 53bd ec2d 1a3b c4ba dbbd
00000070: 6bd9 35bd 7df0 05bc 5125 98bc 8a92 c5bd
00000080: 9142 30be 65e8 a5bd 50a5 06bd 3c3d 393c
00000090: c834 a5bc 6e59 603c 8405 16bc 886e 8cbd
000000a0: adaf 9fbc 681b 7ebd b0e2 01be 84a4 14bd
000000b0: fdde 963c ccdb 08bc 04e9 3abd 8caf 26bd
000000c0: f86b 41bd 9c7b 02bd 6f8d 70bd 0d75 f8bd
000000d0: ae82 8fbd 5768 2ebb 91e1 eabb 21c9 e03c
000000e0: 6fba b0bc 4b04 2dbd 0974 eebc 9c53 6cbc
000000f0: 6ed4 2aba ab0a cdbd 8ac7 5abd 11b2 41bd
00000100: 1bed d3bd 6f0d 42bd 9298 f7bc 5698 dfbd
00000110: 56cf d3bd 1f3a d7bc 51f7 92bd d83d 19bd
00000120: bd90 01be 354a 83bd 33e1 a2bd adef 7ebd
00000130: b14a 6dbd 7de0 cfbc 0c19 48bd 25bd 6ebd
00000140: 1297 b7bc 52a7 e13c 2325 e73b f732 9ebd
00000150: 7f9c f7bd 23c0 6bbd a3b4 4cbb cb32 01bc
00000160: af0c 73bd 6150 65bd e3ab b1bc 1f3f f83a
00000170: a67a 02bd 8dca 23bd d94d d3bb 2d63 53bd
00000180: 721a bebc 4d1d 5bbc 9f77 5bbd 5e43 c8bc
00000190: 4e40 73bd 8d0f 7a3c 1420 203d ef29 4fbd
000001a0: 020a 9fbd b8ae d6bd c9df 98bc 054c 333b
000001b0: 3848 fbbb 9f29 dbbc ae72 503c 7de3 443c
000001c0: 752e c3bd 950e 2cbd 32cf 603a 8ccf 92bd
000001d0: c0ee 55be 702f 0fbd b0ab 4cbc f3de 49bb
000001e0: f4f6 7dbc 6955 54be 5ffa b2bd 3e9a 6ebc
000001f0: 30a7 21be ba81 5cbc 7049 0ebe 7312 d4bc

value.weight f4 [1, 128]
0.021596584 0.00956808 -0.013274341 0.011167959 0.018849818 -0.0073165144 0.015808063 -0.005095077
-0.005654528 0.0054545864 -0.0021682428 0.003636986 0.006402297 -0.0071097864 -0.031946175 -0.007992064
0.011796593 -0.0071067465 0.015938383 -0.1011344 -0.01389199 0.0073138005 -0.003147922 -0.011645439
0.015236058 -0.031837925 0.044896718 -0.0033612996 0.016619539 0.026095249 0.01556568 0.013920038
-0.020853484 0.01752729 -0.010211052 -0.0004075898 0.01693934 0.026163328 -0.0046764235 0.03879176
0.0060100495 -0.03040284 0.032500286 0.018200476 0.002059726 0.004646484 -0.00844446 0.018434457
0.009519305 0.027357858 -0.0014693149 0.0017221939 -0.009047919 0.015269061 0.0018864576 0.09398629
-0.019903658 -0.0010201596 0.013319215 0.015325101 0.009886425 -0.000267395 -0.026787715 0.0054403762
-0.009273181 -0.0011327071 -0.017095583 -0.00039245875 -0.024661416 -0.0118903415 0.0039532133 -0.0015323288
0.021163877 0.011328134 -0.030037358 0.00312623 -0.0013051704 0.011126406 0.019264495 0.012812669
0.0036234318 0.07975695 0.051168524 0.02821716 0.036688354 0.009683282 -0.0029712308 0.014229971
0.015954394 0.04219172 -0.006587342 0.0055109994 0.008742579 -0.017866509 0.023208722 -0.03424357
2.8657944e-06 0.0024515039 0.010977906 0.008845221 -0.029925356 0.0032622737 0.030362383 -0.01405936
-0.086308464 0.03525644 -0.006532396 0.037143715 -0.006966098 0.0018861566 0.020281926 0.01479791
0.0019287935 -0.014518233 -0.0024959298 -0.0035895377 -0.013595328 0.0031655314 0.0493371 0.0067305504
0.019319316 -0.024265759 0.0069235857 0.009511502 -6.602518e-05 -0.012011455 0.041070536 0.013534917
00000000: 52eb b03c 70c3 1c3c 9f7c 59bc d1f9 363c
00000010: ef6a 9a3c 5fbf efbb e97f 813c 9bf4 a6bb
00000020: 9e49 b9bb 63bc b23b 1419 0ebb 805a 6e3b
00000030: 5cca d13b 36f9 e8bb fed9 02bd 25f1 02bc
00000040: 7f46 413c b6df e8bb 3691 823c 8d1f cfbd
00000050: 3b9b 63bc 9ba8 ef3b 5e4d 4ebb 83cc 3ebc
00000060: a9a0 793c 7c68 02bd 9fe5 373d 4049 5cbb
00000070: b325 883c b4c5 d53c 3207 7f3c df10 643c
00000080: edd4 aabc 6495 8f3c 424c 27bc c7b1 d5b9
00000090: 5fc4 8a3c 7a54 d63c af3c 99bb 1ce4 1e3d
000000a0: f3ef c43b 600f f9bc 051f 053d 2a19 953c
000000b0: 78fc 063b 8841 983b a25a 0abc dc03 973c
000000c0: dcf6 1b3c 961d e03c 0796 c0ba 3dbb e13a
000000d0: b93d 14bc 152b 7a3c 0343 f73a e27b c03d
000000e0: ff0c a3bc e0b6 85ba d638 5a3c 2216 7b3c
000000f0: acfa 213c 2631 8cb9 e971 dbbc 2f45 b23b
00000100: 8aee 17bc 5877 94ba 090c 8cbc ecc2 cdb9
00000110: bd06 cabc b5cf 42bc f589 813b 6cd8 c8ba
00000120: de5f ad3c a399 393c e810 f6bc 70e1 4c3b
00000130: 4012 abba 874b 363c 93d0 9d3c 3bec 513c
00000140: 1977 6d3b 9d57 a33d 1696 513d ac27 e73c
00000150: 8746 163d a1a6 1e3c fbb8 42bb d324 693c
00000160: cab2 823c 3ad1 2c3d a1da d7bb 9d95 b43b
00000170: 093d 0f3c c95c 92bc 3820 be3c fc42 0cbd
00000180: f951 4036 69a9 203b addc 333c 8ceb 103c
00000190: 0526 f5bc dfcb 553b 88ba f83c 3b59 66bc
000001a0: 7ec2 b0bd 0f69 103d b60d d6bb 0224 183d
000001b0: de43 e4bb ea38 f73a 4826 a63c ef72 723c
000001c0: 92cf fc3a e2dd 6dbc c192 23bb 733e 6bbb
000001d0: f0be 5ebc ce74 4f3b b315 4a3d f38b dc3b
000001e0: 8b43 9e3c fcc8 c6bc 3fdf e23b 22d6 1b3c
000001f0: 0077 8ab8 b2cb 44bc 9439 283d 8ec1 5d3c
