assets/models/backup/2025-04-14/02:06:56/nn/last.pth (torch, 331224 bytes, 25 tensors)

sigma f4 [6]
0	0xbf3d76c9	-0.74009377
1	0x3dc0cbf8	0.09413904
2	0xbdcc2401	-0.09967805
3	0x3c91a468	0.01777859
4	0xbd994b8c	-0.074851125
5	0xbe64850a	-0.22316375

actor_mlp.mlp.0.weight f4 [256, 27]
0	0xbe1c5767	-0.15267716
1	0xbcbd11a6	-0.023079704
2	0xbf185c44	-0.59515786
3	0xbd98195d	-0.07426713
4	0xbe457719	-0.19283713
5	0x3e8779ea	0.264602
6	0xbe83feb8	-0.25780272
7	0xbd9fa951	-0.077959664
8	0xbe7857a8	-0.24252188
9	0xbdb21282	-0.08694936
10	0x3e452f59	0.19256343
11	0x3de92dab	0.113856636
12	0x3d516e7c	0.051130757
13	0x3ea40991	0.3203855
14	0x3d40a924	0.047036305
15	0xbe1f0ba1	-0.1553178
16	0xbdfe89fb	-0.124286614
17	0xbb582253	-0.0032979443
18	0x3e64e0d2	0.22351387
19	0x3e6c5c5a	0.23082104
20	0x3f04cc68	0.518744
21	0x3e6a0967	0.22855149
22	0xbe861e34	-0.26194918
23	0xbde895d7	-0.11356705
24	0x3e08ed28	0.13371718
25	0x3da65d33	0.08123245
26	0x3c9f0876	0.019413214
27	0xbe16118e	-0.14655134
28	0xbd9d7800	-0.07688904
29	0xbec43ae1	-0.3832617
30	0x3d0b5421	0.03401578
31	0xbd3f24d2	-0.046665974
32	0xbe2ec4c3	-0.17067246
33	0xbdcefafe	-0.10106467
34	0x3dfa9606	0.12235646
35	0xbe3375de	-0.17525432
36	0xbe4c00ed	-0.19922228
37	0x3e6a828c	0.22901362
38	0xbd067b7a	-0.0328326
39	0x3c43d90c	0.0119536035
40	0x3d00a11c	0.031403646
41	0x3d0c9be6	0.034328364
42	0xbcf380d8	-0.029724523
43	0xbe732317	-0.23743854
44	0xbe06b522	-0.13155034
45	0x3dcd7452	0.10031952
46	0xbe25f6ae	-0.16207382
47	0x3e967e5d	0.29393283
48	0xb9901462	-0.00027481007
49	0x3e1bd541	0.15218069
50	0xbea504f6	-0.32230347
51	0xbc5e34a9	-0.01356236
52	0x3e9ab93b	0.30219445
53	0xbea7a1f9	-0.32740763
54	0x3eec0d04	0.4610368
55	0xbe25ed5b	-0.16203825
56	0x3ef74931	0.48298028
57	0x3df6f556	0.12058513
58	0x3dc699d2	0.09697308
59	0xbd8a9044	-0.06765798
60	0xbdbb178a	-0.09135349
61	0x3dd30286	0.10303216
62	0xbd481f36	-0.04885789
63	0x3e9200fc	0.28516376
64	0x3bd640b5	0.0065384754
65	0xbd7cf673	-0.06175847
66	0xbdcc16fe	-0.09965323
67	0xbd1fbd71	-0.038999025
68	0xbe2b8376	-0.16749367
69	0xbd3ba32d	-0.045809913
70	0x3cff31f4	0.03115175
71	0x3c936274	0.017991282
72	0xbec2fbb7	-0.38082668
73	0x3e3deecc	0.18548125
74	0x3e661b05	0.22471245
75	0x3db1d22a	0.08682664
76	0xbe69b8a6	-0.22824344
77	0x3e6943ab	0.2277972
78	0x3c7335ab	0.014844338
79	0xbe8ab495	-0.27090898
80	0x3d221adc	0.039576396
81	0x3d87b2a1	0.06625868
82	0xbd46807d	-0.04846238
83	0xbeadf992	-0.3397947
84	0xbd309cc6	-0.04311826
85	0x3c8e965b	0.01740568
86	0xbda7085e	-0.08155893
87	0xbc5bf3f4	-0.013424862
88	0xbdefacef	-0.11702906
89	0x3d365ef5	0.04452415
90	0xbe91c54d	-0.2847084
91	0x3ddbdae5	0.1073511
92	0x3e1cc1a2	0.1530824
93	0xbba90523	-0.005158083
94	0x3e27cbd4	0.16386348
95	0x3d873a58	0.06602925
96	0xbeb3adfd	-0.3509368
97	0xbe6a6437	-0.22889791
98	0x3e290b65	0.16508253
99	0x3e88e74b	0.26738963
100	0x3ea6eb27	0.32601282
101	0x3e6e29d7	0.23258148
102	0x3e08e0fe	0.13367078
103	0xbe67a7e0	-0.22622633
104	0xbe3dfaf0	-0.18552756
105	0x3e42530e	0.18976995
106	0x3d48fe1d	0.049070466
107	0xbe702c8f	-0.23454498
108	0x3e0c7a3e	0.13718507
109	0xbda6a39c	-0.08136675
110	0x3e91ba5d	0.28462496
111	0x3ea16e8c	0.31529653
112	0xbe3ec9d4	-0.18631679
113	0xbc619b77	-0.013769976
114	0xbe69fdb8	-0.22850692
115	0xbe0ab3d1	-0.13545157
116	0x3d419239	0.04725859
117	0x3e82153f	0.25406834
118	0xbcd8d26b	-0.026467523
119	0x3e104082	0.14087108
120	0x3e4298c6	0.19003591
121	0xbe89b102	-0.2689286
122	0xbe3d505d	-0.18487687
123	0x3d87f047	0.06637626
124	0xbd33b2cf	-0.043871697
125	0xbe360f17	-0.17779194
126	0x3ce3ef4c	0.027824067
127	0x3c0b652d	0.008508009
128	0x3d781db9	0.06057522
129	0xbc805df3	-0.015669798
130	0xbe849172	-0.25892216
131	0xbe4b490d	-0.19852085
132	0x3f03db6e	0.515067
133	0xbd7805b2	-0.060552306
134	0x3eb7e3e7	0.35916063
135	0x3c0ab91d	0.008466986
136	0xbd868afb	-0.06569477
137	0xbe5b065f	-0.21389149
138	0xbe5a5f36	-0.21325383
139	0xbdf17b93	-0.11791148
140	0x3c45dc96	0.012076518
141	0xbd4eaae5	-0.050455946
142	0xbe0edb42	-0.13950828
143	0x3b7889b4	0.0037923874
144	0xbd844e02	-0.06460191
145	0x3e7d53c2	0.24738982
146	0xbdc9df94	-0.09857097
147	0xbcc1da4d	-0.023663664
148	0x3e2fd74f	0.17171977
149	0xbdb59d04	-0.08867839
150	0xbecf1302	-0.4044419
151	0xbe3d2640	-0.18471622
152	0x3e82545b	0.25454983
153	0x3e075b15	0.13218339
154	0x3edf1b97	0.43575737
155	0xb9ba133b	-0.00035491012
156	0x3e7f2e68	0.24920046
157	0xbe8bc07b	-0.27295288
158	0x3da22ff4	0.079193026
159	0x3e68f308	0.22748959
160	0xbe75f7bd	-0.24020286
161	0xbc500d0b	-0.012698422
162	0xbc65e510	-0.014031664
163	0x3db1ed93	0.08687892
164	0xbf1e00dd	-0.6172007
165	0xbd3fe8ab	-0.04685275
166	0xbdc9603a	-0.09832807
167	0x3d952875	0.07283107
168	0xbd3ad012	-0.045608588
169	0xbe14a159	-0.14514674
170	0x3df7c5f5	0.12098304
171	0xbd37e2b4	-0.044893935
172	0x3e39cb79	0.18144025
173	0x3cd3ef15	0.02587084
174	0x3e970a66	0.2950012
175	0xbda04353	-0.07825341
176	0x3d537a14	0.051630095
177	0xbc4f05b4	-0.012635637
178	0x3e0145ad	0.12624235
179	0xbe47eb97	-0.19523464
180	0x3e9bd58c	0.3043636
181	0xbe02ac6d	-0.12761088
182	0x3da89616	0.082317516
183	0x3e3db10a	0.18524566
184	0x3dc15e64	0.09441832
185	0xbec214e6	-0.3790657
186	0xbeb71356	-0.3575694
187	0x3ebf044d	0.3730797
188	0xbdd77ddc	-0.10522053
189	0x3e2e108f	0.16998504
190	0x3d38dabf	0.045130488
191	0xbe88ba32	-0.26704556
192	0xbc7237fe	-0.014783857
193	0xbeb34fd3	-0.3502184
194	0x3db71bf1	0.08940876
195	0xbdac6bdb	-0.08419009
196	0xbe44a9f6	-0.1920546
197	0xbdea5b48	-0.11443192
198	0x3e1b1a6e	0.15146801
199	0x3e4d7754	0.20065051
200	0x3df3cf0d	0.11904726
201	0x3e7aa043	0.24475197
202	0xbd72303a	-0.059128024
203	0xbd0ee5ad	-0.034887005
204	0x3dc3f281	0.09567738
205	0x3e16d619	0.1473011
206	0xbdfa0908	-0.12208754
207	0x3e43fc46	0.19139203
208	0xbd19e9ff	-0.03757667
209	0x3eef69df	0.4676046
210	0x3e6740bd	0.2258329
211	0xbe229dea	-0.15880552
212	0x3d2a60ba	0.041596152
213	0x3c1faaa7	0.0097452765
214	0x3e82572a	0.25457126
215	0x3e8b0ef8	0.27159858
216	0xbe33a4af	-0.1754329
217	0x3df055c6	0.1173511
218	0xbd854245	-0.065067805
219	0x3f0251f4	0.509063
220	0xbd345e09	-0.04403499
221	0x3e440fae	0.19146606
222	0xbdaab50a	-0.08335312
223	0x3cc52f3e	0.024070378
224	0x3e91c31c	0.2846917
225	0xb9edc00b	-0.00045347246
226	0x3df18db5	0.117946066
227	0x3db7da75	0.08977214
228	0x3d29bdea	0.04144088
229	0xbd848286	-0.06470208
230	0xbe739ec1	-0.23791029
231	0x3d839867	0.06425553
232	0x3dcbc62f	0.0994991
233	0xbe4b2ce3	-0.19841342
234	0x3e6ed224	0.2332235
235	0xbe4ad88c	-0.19809169
236	0xbe472075	-0.19445975
237	0x3da73391	0.081641324
238	0xbd25e360	-0.040500045
239	0xbec44428	-0.3833325
240	0xbd1be14c	-0.038056657
241	0x3ef50f55	0.4786326
242	0x3ddd59c9	0.10808141
243	0xbed9b515	-0.42520967
244	0x3e10785a	0.1410841
245	0xbdccf482	-0.10007574
246	0xbd47b6bf	-0.048758265
247	0xbe4ea0b2	-0.20178488
248	0xbe0936c7	-0.13399802
249	0xbd004b45	-0.031321783
250	0x3e123c56	0.14280829
251	0x3e925e54	0.28587592
252	0xbd87d8db	-0.06633159
253	0x3c4a92e5	0.012364124
254	0x3bcb75f5	0.00620913
255	0xbe721670	-0.23641372

actor_mlp.mlp.0.bias f4 [256]
0	0x3d39ced6	0.04536327
1	0xbd5bb077	-0.053635087
2	0x3d601070	0.054703176
3	0xb9ae1282	-0.00033201656
4	0xbe5f04a8	-0.2177912
5	0x3db9aaff	0.09065818
6	0xbcc8a30d	-0.024491811
7	0x3d66014c	0.05615358
8	0x3cad092c	0.021122538
9	0xbd93e23a	-0.07220884
10	0xbe27b076	-0.16375908
11	0xbe8225db	-0.25419506
12	0x3d4e592c	0.05037801
13	0xbd39571f	-0.0452491
14	0xbe687886	-0.22702226
15	0xbd9391e6	-0.07205562
16	0x3e07079a	0.13186494
17	0x3ded9c39	0.11602063
18	0x3e27f598	0.1640228
19	0x3d0e4515	0.03473385
20	0x3c5eb392	0.013592618
21	0xbe301536	-0.17195591
22	0x3d7da6fb	0.061926823
23	0x3d62330b	0.05522446
24	0x3d25998e	0.040429644
25	0x3cf04a69	0.029332357
26	0xbe09074d	-0.13381691
27	0x3e5d9a47	0.21640883
28	0xbc1db769	-0.009626248
29	0xbd190fa3	-0.037368428
30	0x3e28187c	0.1641559
31	0xbc19dcde	-0.009391038
32	0x3c58cd09	0.013232478
33	0xbe05da8f	-0.13071655
34	0x3c066d81	0.008204819
35	0xbe415d41	-0.1888323
36	0x3d1cc26e	0.03827136
37	0x3d9bdec0	0.076108456
38	0x3d3ae086	0.04562428
39	0xbd6b9ef8	-0.05752465
40	0x3ce8939c	0.028390698
41	0x3d832268	0.06403047
42	0xbcc01ae9	-0.023450332
43	0xbd91362c	-0.070904106
44	0x3d1146a0	0.035467744
45	0xbdc0f508	-0.09421736
46	0xbe58f0cd	-0.21185608
47	0x3d5ebefb	0.054381352
48	0xbe12432c	-0.14283437
49	0xbd1d8d8d	-0.03846507
50	0x3d2eb08f	0.04264885
51	0xbc845dc6	-0.016157996
52	0x3ce43aea	0.027860124
53	0xbe5452ec	-0.20734757
54	0xbd2d861f	-0.042364236
55	0xbd2392a1	-0.039934758
56	0x3d04a20d	0.032381106
57	0xbd610e1b	-0.054945093
58	0xbe6fdf2d	-0.23424979
59	0x3d0f976b	0.035056513
60	0x3e652545	0.22377498
61	0x3e326c90	0.17424226
62	0x3e2ba489	0.16761984
63	0x3ea47f06	0.3212816
64	0x3d2d5cee	0.042324953
65	0xbe57ff46	-0.21093473
66	0x3df95347	0.12174087
67	0xbdb274e1	-0.08713699
68	0x3d247d1e	0.040158384
69	0xbd9540d8	-0.072877586
70	0xbd40f30b	-0.047106784
71	0xbdf516f3	-0.11967268
72	0x3e4c0138	0.1992234
73	0xbd6c0828	-0.057624966
74	0xbc9f29b5	-0.019429067
75	0xbe1941d1	-0.14966513
76	0xbc42aaf4	-0.011881579
77	0xbdae7e2c	-0.08520159
78	0xb96769d9	-0.00022069308
79	0x3be6f2ab	0.0070479712
80	0x3ca5f669	0.0202591
81	0xbb13a523	-0.002252885
82	0x3d4d8d21	0.05018342
83	0x3d492f72	0.049117513
84	0xbe7db8c7	-0.24777518
85	0xbd9df23e	-0.0771222
86	0xbbb5655d	-0.005535765
87	0x3ddca80c	0.1077424
88	0x3db1011d	0.086427905
89	0x3df87120	0.12130952
90	0x3e8a3670	0.26994658
91	0x3db46e52	0.088101044
92	0xbd8dd92f	-0.0692619
93	0xbdfdb0ca	-0.123872355
94	0x3d192d04	0.037396446
95	0x3e6dd710	0.23226571
96	0x3de7eb10	0.113241315
97	0xbb011a90	-0.001969967
98	0xbb10e9ae	-0.002211194
99	0xbdea8508	-0.11451155
100	0xbe6be7ef	-0.23037694
101	0x3d29f2da	0.041491367
102	0xbb91ade8	-0.00444578
103	0x3d202352	0.039096184
104	0xbd39a752	-0.045325585
105	0xbd2272c7	-0.03966024
106	0x3caa4987	0.020787014
107	0xbe118261	-0.14209892
108	0x3ccc01d7	0.024903221
109	0xbd836735	-0.064161696
110	0x3d8df4bd	0.06931446
111	0x3caac363	0.02084512
112	0xbd9eb017	-0.0774843
113	0xbe6b36bc	-0.22970098
114	0x3cb62697	0.022235198
115	0x3db34fcd	0.08755455
116	0x3d7cacbf	0.06168818
117	0xbc9ae536	-0.018908124
118	0x3db6deb4	0.08929196
119	0x3d8c3dfa	0.068477586
120	0x3e0d6a82	0.13810161
121	0xbd974ebc	-0.07388064
122	0x3dc5c717	0.09657114
123	0x3c8a14ab	0.016855558
124	0x3d270d8a	0.040784396
125	0x3e09eda6	0.13469562
126	0x3e12d3a2	0.14338544
127	0xbd8f3751	-0.06992973
128	0x3e6d446b	0.2317063
129	0x3d46bbd0	0.048518956
130	0x3da71f0e	0.0816022
131	0xbcceffcb	-0.025268456
132	0x3dfe1a84	0.12407401
133	0x3d58ffac	0.052978203
134	0xbd8a7fc8	-0.067626536
135	0xbdc28d8b	-0.094996534
136	0xbd0e0cd4	-0.034680203
137	0x3c4870ed	0.012233955
138	0x3dbecbd6	0.09316222
139	0xbdd6a4e9	-0.10480673
140	0x3ddbf7f9	0.107406564
141	0xbd0c4c0b	-0.034252208
142	0x3cdcf0b6	0.026970249
143	0xbe09f174	-0.13471013
144	0x3dda825d	0.10669396
145	0xbde33b7f	-0.11095332
146	0x3da97bcd	0.08275566
147	0xbe3c6482	-0.18397716
148	0xbaa030fb	-0.0012221629
149	0xbe51038f	-0.20411514
150	0x3d0f18d1	0.034935776
151	0x3e301040	0.17193699
152	0xbdd1f4e6	-0.10251789
153	0xbdefaebb	-0.11703249
154	0x3de068b8	0.109574735
155	0xbd3a947b	-0.04555176
156	0xbdcbbebc	-0.09948489
157	0x3dc0b07f	0.09408664
158	0xbde579b0	-0.11204851
159	0xbd12cfd3	-0.035842728
160	0x3d7cbb93	0.061702322
161	0x3e6cee58	0.23137796
162	0x3d198d15	0.037488062
163	0x3d81995c	0.06328079
164	0xbd8cc39b	-0.06873246
165	0xbcbf83fa	-0.023378361
166	0xbe605ece	-0.21911165
167	0xbe2f16c1	-0.17098524
168	0x3ce782da	0.028260637
169	0x3d93b6fa	0.072126344
170	0xbcff1fab	-0.03114303
171	0x3e25dee5	0.16198309
172	0xbce277f4	-0.027645089
173	0x3d9d35e9	0.07676298
174	0x3d7b1589	0.061299834
175	0x3e395c25	0.18101557
176	0x3ccadf1b	0.024764588
177	0xbd264dbe	-0.040601484
178	0x3cb1186e	0.021618094
179	0x3dca3ff0	0.09875476
180	0x3de6cc39	0.11269421
181	0x3d708994	0.058724955
182	0x3e1274d1	0.14302374
183	0x3e486718	0.19570577
184	0xbd29c094	-0.041443422
185	0xbe14e33d	-0.1453981
186	0x3df68b61	0.12038303
187	0x3c14aa38	0.009073786
188	0xbdf20c79	-0.11818785
189	0x3c7df8e2	0.015501233
190	0x3d713796	0.0588909
191	0xbe1d91b0	-0.15387607
192	0xbdbe1db9	-0.09283013
193	0x3d5f37dc	0.05449663
194	0xbd3aa715	-0.045569498
195	0xbd8d09a2	-0.06886603
196	0xbdd80f27	-0.10549765
197	0xbdc18bb2	-0.09450473
198	0xbdedcbae	-0.116111144
199	0xbd76de3c	-0.060270533
200	0x3c5b5c2c	0.013388675
201	0xbd7bec09	-0.061504398
202	0xbe1e399c	-0.15451664
203	0x3d293cfe	0.041317932
204	0xbe0a3e5f	-0.13500355
205	0xbe9b1f8f	-0.30297515
206	0x3e527204	0.20551306
207	0xbe102d08	-0.14079678
208	0xbdf7c679	-0.120984025
209	0x3c9a3a87	0.018826736
210	0x3df9a28a	0.12189205
211	0xbe69f7d7	-0.2284845
212	0xbc062b1b	-0.008188988
213	0xbe8bb2bf	-0.2728481
214	0x3e9d5790	0.30730867
215	0x3e3fa60a	0.18715683
216	0xbdd88854	-0.105728775
217	0x3e0bea94	0.13663703
218	0xbe4f1c64	-0.20225674
219	0x3deb1dfb	0.11480328
220	0x3e21c722	0.1579862
221	0x3e9214be	0.2853145
222	0x3d90d4b1	0.07071818
223	0xbcea94f7	-0.028635485
224	0x3dcddabe	0.100514874
225	0xbe931ca6	-0.28732795
226	0x3d53dae2	0.051722415
227	0xbe3e6cc0	-0.18596172
228	0x3cf85da0	0.030318081
229	0xbd029235	-0.031877715
230	0x3db1591b	0.08659574
231	0x3e5dbc64	0.21653897
232	0xbe8e3e19	-0.27781752
233	0x3bd834c4	0.006598087
234	0xbc521fc2	-0.012824954
235	0x3e43cd17	0.19121204
236	0x3e26b115	0.16278489
237	0xbd94681f	-0.07246422
238	0x3e0a25db	0.13491003
239	0x3eb7b3a6	0.35879248
240	0xbe5fab72	-0.21842745
241	0x3c5ac830	0.0133533925
242	0x3c1e3ffb	0.009658809
243	0xbe20dc83	-0.15709119
244	0x3da60c5f	0.08107828
245	0x3dcc3bab	0.09972318
246	0x3e0a0e3f	0.13481997
247	0x3e35b3ad	0.17744322
248	0xbda23219	-0.079197116
249	0x3e4016e5	0.18758734
250	0x3c7caeab	0.015422503
251	0xbbc18a67	-0.0059063914
252	0xbcb7c2c6	-0.022431742
253	0x3d9cf82c	0.076645225
254	0xbe1694db	-0.14705221
255	0x3e5731b5	0.21015055

actor_mlp.mlp.2.weight f4 [128, 256]
0	0x3f07611f	0.5288257
1	0xbcc829f0	-0.02443406
2	0xbe029ea6	-0.12755832
3	0x3e23134d	0.15925331
4	0x3c06b9d1	0.008223013
5	0x3e5a842d	0.21339484
6	0x3e88226e	0.26588768
7	0x3ee41811	0.4454961
8	0xbd4e7e77	-0.050413575
9	0xbdfd33c7	-0.12363391
10	0x3e17f38d	0.14839001
11	0xbe0cb966	-0.13742599
12	0x3e166fc6	0.14691076
13	0xbe29caf0	-0.16581321
14	0xbe8eef7a	-0.2791708
15	0x3e32bf07	0.17455684
16	0x3e0677f3	0.13131694
17	0x3e877478	0.26456046
18	0x3e811d44	0.2521764
19	0x3d9b7f9b	0.07592698
20	0xbaf7a8bf	-0.0018894895
21	0xbe1d6d42	-0.1537371
22	0x3d94f8ea	0.07274039
23	0x3e2f2e18	0.17107427
24	0xbea7d539	-0.32779863
25	0x3e6fe5c3	0.23427491
26	0xbdac294f	-0.084063165
27	0xbe0e3cd8	-0.13890398
28	0xbda5112f	-0.08059918
29	0xbe1f3001	-0.15545656
30	0x3e5e1270	0.21686721
31	0x3dacc9d5	0.08436934
32	0x3e8bed55	0.27329507
33	0x3cf418fd	0.029797072
34	0xbd4d6478	-0.050144643
35	0xbe907252	-0.2821222
36	0x3dcafef1	0.099119075
37	0x3e8d23ab	0.27566275
38	0xbe61c6e4	-0.22048527
39	0xbd1ce82b	-0.03830735
40	0xbda8ea3c	-0.08247802
41	0xbe8fb336	-0.28066415
42	0xbe53a2fc	-0.20667642
43	0x3e09fd94	0.13475639
44	0xbd83b160	-0.06430316
45	0x3dfdf49f	0.124001734
46	0xbd2e3a0a	-0.04253582
47	0x3d84794c	0.06468448
48	0xbe4c1daf	-0.19933198
49	0x3dc54788	0.09632784
50	0xbe44d068	-0.19220126
51	0xbea78603	-0.3271943
52	0xbd2c2475	-0.042026956
53	0xbde728f3	-0.11287107
54	0x3dc65ee9	0.096860714
55	0xbe1c3ebf	-0.1525831
56	0xbd96803e	-0.07348679
57	0x3dce78e1	0.100816496
58	0xbca15c45	-0.019697318
59	0x3d1ac3bb	0.03778432
60	0x3dfd6038	0.12371868
61	0x3efe5862	0.49676806
62	0x3eb22d2f	0.34800097
63	0xbd0e8d83	-0.034802925
64	0x3e107db9	0.1411046
65	0x3e88ed9a	0.26743776
66	0xbd813a94	-0.06310001
67	0xbd44d681	-0.04805613
68	0xbe97e737	-0.2966859
69	0xbd956a79	-0.07295699
70	0x3d791b46	0.060817026
71	0x3e115e42	0.14196113
72	0x3d9fb59b	0.0779831
73	0x3c9f77ad	0.019466246
74	0x3e11d75a	0.14242306
75	0x3e84bedc	0.25926864
76	0x3ced2f60	0.028953254
77	0x3e4fc292	0.20289066
78	0xbd9f6381	-0.07782651
79	0xbdf6dd40	-0.12053919
80	0x3dce6ad2	0.10078968
81	0x3ecb7120	0.39734745
82	0x3e4dcf4e	0.20098612
83	0x3cc0856f	0.023501126
84	0x3c6a32d1	0.014294342
85	0xbe1fd47e	-0.15608403
86	0x3ead5c43	0.33859453
87	0xbda90333	-0.08252563
88	0xbdf01b4c	-0.117239565
89	0x3f0ef451	0.5584155
90	0x3e379118	0.17926443
91	0x3e6022f9	0.21888341
92	0x3d9a98ac	0.07548651
93	0xbe9820f3	-0.29712638
94	0x3dd70a7d	0.10500047
95	0xbcd29fc9	-0.025710957
96	0xbd6ed245	-0.058305997
97	0x3de5b4f7	0.11216157
98	0xbe770dc3	-0.24126343
99	0x3e8c6479	0.27420405
100	0x3da64bc7	0.08119922
101	0x3e81792c	0.2528776
102	0xbe33bfb2	-0.17553595
103	0x3b3f0f71	0.002915349
104	0x3df90600	0.121593475
105	0xbe3577ad	-0.17721434
106	0xbeb13942	-0.34613997
107	0xbdc71e49	-0.09722573
108	0x3d6313ce	0.05543881
109	0xbdc7577c	-0.09733483
110	0xbcbf5a61	-0.023358526
111	0x3d69c57c	0.0570731
112	0xbe80094d	-0.25007096
113	0xbdec6ddc	-0.115443915
114	0x3ea3b9d3	0.3197771
115	0xbe49e3b8	-0.19715774
116	0x3ea0303f	0.3128681
117	0x3e242a15	0.16031678
118	0xbc0edf46	-0.008720225
119	0xbd50ff50	-0.051024735
120	0x3d45b32f	0.048266586
121	0x3d58e822	0.052955754
122	0xbe8bc1c3	-0.27296266
123	0x3ea16a25	0.31526294
124	0xbd0b6072	-0.034027524
125	0x3db62e9c	0.08895609
126	0x3e460e3b	0.19341366
127	0xbebd2abe	-0.36946672
128	0x3e496bfc	0.19670099
129	0xbe900f37	-0.28136608
130	0x3db4889c	0.08815119
131	0x3c9fb570	0.019495696
132	0xbcde1081	-0.027107479
133	0xbe744513	-0.23854475
134	0xbe70f9eb	-0.23532836
135	0x3dbf9f29	0.09356529
136	0xbe712952	-0.23550919
137	0xbde596be	-0.112103924
138	0x3ec720f3	0.38892326
139	0xbeb6ae23	-0.3567973
140	0xbdeed6e7	-0.11662083
141	0x3ec4ce70	0.3843875
142	0xbcbbacfc	-0.022909634
143	0x3e24d4d6	0.16096815
144	0xbe7795b8	-0.24178207
145	0x3d09f97d	0.033685196
146	0x3d25b6d4	0.04045756
147	0xbd660069	-0.056152735
148	0xbe4e8c27	-0.20170651
149	0xbe421b46	-0.18955716
150	0x3ebbbe16	0.36668462
151	0x3ec38d05	0.38193527
152	0x3b6b618d	0.00359163
153	0x3ce8d3c2	0.028421286
154	0x3e81cb88	0.25350595
155	0x3c705997	0.014669797
156	0x3de24f77	0.11050313
157	0x3ec72c77	0.3890111
158	0xbe0cf8b1	-0.13766743
159	0x3e449fc3	0.1920157
160	0xbe1670cb	-0.14691465
161	0x3de792b2	0.11307277
162	0x3c521922	0.012823375
163	0x3e8bd7cf	0.27313086
164	0x3dc2b925	0.0950797
165	0xbd6966e1	-0.05698288
166	0xbd9421fb	-0.07233044
167	0xbb97077d	-0.004609047
168	0x3d659397	0.056048956
169	0x3d5bdaf1	0.053675596
170	0x3e140163	0.14453654
171	0xbed4b41b	-0.4154366
172	0x3dd1e623	0.10248973
173	0x3ea13cc3	0.3149167
174	0x3e13f6a7	0.14449559
175	0x3b8636b9	0.004095879
176	0xbdbade94	-0.09124485
177	0xbd376dff	-0.044782635
178	0x3ed965ef	0.42460582
179	0x3eb26ad5	0.3484713
180	0xbe0aee8d	-0.13567562
181	0xbdc6cb90	-0.09706795
182	0x3e3d3b8f	0.18479751
183	0x3def3bc1	0.11681319
184	0x3ed78474	0.4209324
185	0xbe97a390	-0.29616976
186	0x3e51b3a7	0.20478688
187	0x3dca653e	0.09882592
188	0xbe49ab30	-0.19694209
189	0xbeca8991	-0.3955808
190	0xbe73cc34	-0.23808366
191	0xbe6f3b44	-0.23362452
192	0x3da93e2f	0.08263814
193	0x3e013b99	0.12620391
194	0xbdc83135	-0.097750105
195	0x3de6b911	0.11265767
196	0x3c74251c	0.014901426
197	0x3c4cf1cc	0.012508821
198	0x3da0dc8f	0.07854568
199	0xbe3f8417	-0.18702732
200	0xbe3342b1	-0.1750591
201	0x3d6de770	0.058082044
202	0xbe54defc	-0.20788187
203	0xbe8bfcce	-0.27341312
204	0xbe5b8457	-0.21437202
205	0xbc10665d	-0.008813468
206	0xbd7aa97b	-0.061196785
207	0x3e586c3f	0.21135043
208	0xbd6f7c3d	-0.058468092
209	0xbe471245	-0.19440563
210	0x3e583d8d	0.2111723
211	0xbe503382	-0.20332149
212	0xbeac190b	-0.33612856
213	0xbdf6e902	-0.120561615
214	0x3e4666b3	0.19375114
215	0x3e78f896	0.24313578
216	0x3c99a641	0.018756034
217	0x3e6fe6fa	0.23427954
218	0x3d47d70a	0.04878906
219	0xbe8a3ac3	-0.26997957
220	0xbd1d6677	-0.038427796
221	0x3de409c4	0.11134675
222	0x3cb51eb4	0.022109367
223	0x3e502972	0.2032831
224	0x3e15a415	0.14613374
225	0xbeabe214	-0.3357092
226	0xbe251162	-0.16119912
227	0xbe1baff3	-0.15203838
228	0x3d23d50f	0.03999811
229	0x3d12ee02	0.035871513
230	0x3e3683ad	0.17823668
231	0x3de3bcc9	0.11119992
232	0x3caffca3	0.021482771
233	0xbd8c0220	-0.06836343
234	0x3cbbbb34	0.022916414
235	0x3df68ffc	0.120391816
236	0x3a7adaca	0.0009569345
237	0x3d6283ef	0.055301603
238	0x3e9aca7e	0.30232614
239	0x3d0972b6	0.033556662
240	0xbdb7781d	-0.08958457
241	0xbd392480	-0.045200825
242	0x3dd6ed50	0.104944825
243	0x3d3970bf	0.04527354
244	0xbe033c09	-0.1281587
245	0x3d9f489d	0.07777522
246	0xbe2b3766	-0.16720352
247	0x3d90335d	0.07041047
248	0x3edf11de	0.4356832
249	0x3e822600	0.25419617
250	0xbde853da	-0.113441184
251	0xbe6db5ab	-0.23213832
252	0x3d945594	0.07242885
253	0x3dc42a31	0.0957836
254	0xbecd5533	-0.40104064
255	0x3e0d8a05	0.13822182

actor_mlp.mlp.2.bias f4 [128]
0	0xbd3fc54d	-0.04681902
1	0xbca9cc19	-0.020727204
2	0xbe369815	-0.17831452
3	0x3db4de7a	0.088314965
4	0xbc004638	-0.007829241
5	0xbd121429	-0.035663757
6	0xbcfd345b	-0.030908754
7	0xbda29639	-0.07938809
8	0xbe321e29	-0.17394318
9	0x3cecb19a	0.02889328
10	0xbd16f888	-0.03685811
11	0x3dda139d	0.10648272
12	0xbdfd58a3	-0.12370422
13	0xbdb8a0e7	-0.09015065
14	0xbdd2fa79	-0.1030168
15	0x3da29476	0.07938473
16	0x3aa5a606	0.001263798
17	0x3db9ed69	0.090784855
18	0xbe31007a	-0.17285338
19	0xbe0ff12c	-0.14056844
20	0xbd55e70e	-0.052222304
21	0xbdc69e70	-0.09698188
22	0xbd20bafe	-0.03924083
23	0xbd506323	-0.050875794
24	0x3ca33511	0.019922765
25	0xbd2bdefc	-0.0419607
26	0xbd888bfe	-0.066673264
27	0xbe51537d	-0.20442005
28	0xbe4e8ac8	-0.20170128
29	0xbdb87cc9	-0.09008176
30	0xbd147049	-0.036239896
31	0xbc9de154	-0.019272484
32	0xbdbabe6b	-0.091183506
33	0xbdec87f7	-0.11549371
34	0x3cd197c6	0.025585067
35	0x3dedf2d6	0.11618583
36	0xbdc5099c	-0.096209735
37	0xbd9aa08a	-0.07550152
38	0xbd8f810d	-0.07007036
39	0xbc9dd1de	-0.019265112
40	0xbcfe6b97	-0.031057162
41	0xbc64c462	-0.013962837
42	0xbd7755d8	-0.0603846
43	0xbd662f3e	-0.056197397
44	0xbdcb58ed	-0.099290706
45	0xbe3dd374	-0.18537694
46	0xbe2edc15	-0.17076142
47	0xbcfdc26d	-0.030976498
48	0xbd7cea48	-0.061746866
49	0xbd986870	-0.07441795
50	0xbd956b46	-0.072958514
51	0x3dc81cb4	0.097711
52	0x3d3241b8	0.043519706
53	0xbdc01452	-0.09378876
54	0xbe616fd8	-0.22015321
55	0xbd2f6813	-0.042823862
56	0xbe742691	-0.23842837
57	0xbc812163	-0.01576299
58	0xbe031fd8	-0.12805116
59	0xbcad6cdb	-0.02117007
60	0xbe34ab32	-0.17643431
61	0xbdbc9fc5	-0.09210161
62	0xbdaf7ab9	-0.08568329
63	0xbd9b8a74	-0.07594767
64	0x3caa6a00	0.020802498
65	0xbdda2dc4	-0.1065326
66	0xbde6b4f9	-0.112649865
67	0xbde92729	-0.11384422
68	0xbe3fdf5f	-0.18737553
69	0xbe34dc77	-0.17662226
70	0xbdda3c18	-0.10655993
71	0xbd4efa43	-0.050531637
72	0xbda61c82	-0.08110906
73	0xbd7b366a	-0.06133119
74	0xbd377b66	-0.044795416
75	0xbdb2ff69	-0.08740122
76	0xbd74085a	-0.059578277
77	0xbda4bdf9	-0.08044047
78	0xbde7ac44	-0.11312154
79	0xbdcb2412	-0.09918989
80	0xbe2ebaa6	-0.17063388
81	0xbd76ae3b	-0.060224753
82	0x3bb0818c	0.005386537
83	0xbe3dde7e	-0.18541905
84	0xbd2c836a	-0.042117514
85	0xbd6f9d0f	-0.058499392
86	0xbe9854d7	-0.29752228
87	0xbea4255c	-0.32059753
88	0xbd926b99	-0.07149429
89	0x3b3b6d35	0.0028599028
90	0xbdc39680	-0.0955019
91	0xbe323982	-0.1740475
92	0xbe40bf30	-0.18822932
93	0xbe0c624c	-0.13709372
94	0x3d591708	0.05300048
95	0xbe106e7c	-0.14104646
96	0x3d6701ef	0.05639833
97	0xbc18d01c	-0.009326961
98	0xbd512bcb	-0.051067155
99	0xbdea0467	-0.11426621
100	0xbdb9a810	-0.090652585
101	0x3c7c07ab	0.015382688
102	0xbe0335ca	-0.12813488
103	0xbe79aa5f	-0.24381398
104	0x3d00ad32	0.031415172
105	0x3d23e98f	0.04001766
106	0x3ca7f525	0.020502636
107	0xbe0d9478	-0.13826168
108	0x3c8ced89	0.01720311
109	0x3d121160	0.0356611
110	0xbe68c723	-0.22732215
111	0xbde8206b	-0.11334308
112	0xbdefed63	-0.117152
113	0x3dcbe34b	0.09955462
114	0xbddd527d	-0.10806749
115	0xbdd02a1a	-0.1016428
116	0xbe320b5b	-0.17387144
117	0xbc505d1d	-0.012717512
118	0xbda42414	-0.08014694
119	0xbe71a512	-0.23598126
120	0xbdf1c545	-0.11805204
121	0xbe499961	-0.19687416
122	0xbe2772b8	-0.16352355
123	0xbd8b0a36	-0.06789057
124	0x3cf0fc10	0.029417068
125	0xbd0b3c7e	-0.033993237
126	0xbdec3c77	-0.1153497
127	0xbdfd6e2e	-0.12374531

value_mlp.mlp.0.weight f4 [256, 27]
0	0x3d85c564	0.0653179
1	0x3d87d312	0.06632055
2	0x3d9afeb9	0.07568116
3	0xbb3346f1	-0.0027355517
4	0x3ca973c8	0.020685092
5	0xbe84123a	-0.25795156
6	0x3e508adc	0.2036547
7	0xbdff42fa	-0.12463947
8	0x3d627840	0.05529046
9	0x3d0e0138	0.03466913
10	0xbcf7d77e	-0.030254122
11	0xbd22116b	-0.039567392
12	0x3d546767	0.051856425
13	0x3e33fa4b	0.17575948
14	0x3dcd4f46	0.10024886
15	0x3c48ab76	0.012247911
16	0xbd12556c	-0.035725996
17	0x3daacbdf	0.083396666
18	0xbe0e3f26	-0.13891277
19	0x3e0d301d	0.13787885
20	0x3daff410	0.08591473
21	0xbb5d0d77	-0.003372995
22	0xbd8162f4	-0.06317702
23	0xbd90e050	-0.07074034
24	0x3cac2691	0.021014484
25	0xbde38012	-0.11108412
26	0x3d86dfe0	0.065856695
27	0xbdf85446	-0.12125449
28	0xbc459666	-0.012059784
29	0xbdae1955	-0.085009255
30	0x3dd85a82	0.10564138
31	0x3d521af3	0.051295232
32	0x3dcbbf4b	0.099485956
33	0x3d9a01b3	0.07519855
34	0xbcb00c90	-0.021490365
35	0x3e0b2928	0.13589919
36	0x3d9859f5	0.07439033
37	0x3dd8a42d	0.10578189
38	0xbcd99910	-0.026562244
39	0x3a1af2e1	0.00059108256
40	0x3d2f915c	0.042863235
41	0x3c3ad3be	0.011403022
42	0xbdaa23c6	-0.083076045
43	0xbde463ab	-0.11151823
44	0xbb54cce1	-0.003247075
45	0xbb49be7f	-0.003078371
46	0xbc9de721	-0.01927525
47	0x3ca1bcde	0.01974338
48	0x3d4ad8e9	0.049523268
49	0x3d2bca75	0.041941125
50	0xbd977ced	-0.073968746
51	0xbd0988e9	-0.033577833
52	0xbd61c293	-0.0551172
53	0x3d043597	0.03227767
54	0xbe624d10	-0.2209971
55	0x3da5e414	0.08100143
56	0xbe4029ab	-0.18765895
57	0x3e0207a9	0.12698235
58	0xbc1cca22	-0.009569677
59	0xbdf108a3	-0.117692254
60	0xbd75660a	-0.059911765
61	0xbe2bd660	-0.16780996
62	0xbc55d148	-0.013050385
63	0x3df10d27	0.11770087
64	0xbd75e74d	-0.06003504
65	0xbc8dffee	-0.01733395
66	0xbdbb2fef	-0.09140002
67	0x3dcb19e1	0.099170454
68	0x3e318fd8	0.17340028
69	0x3d5df5d8	0.054189533
70	0x3d53c266	0.051699065
71	0xbd285889	-0.04110006
72	0xbdd77f6b	-0.1052235
73	0xbdbee250	-0.093205094
74	0x3de58f49	0.1120897
75	0xbdaf6081	-0.085633285
76	0xbd04d61a	-0.032430746
77	0xbe1e7045	-0.15472515
78	0x3d80b82c	0.06285128
79	0xbdb0f0b4	-0.086396605
80	0x3c134f97	0.008991144
81	0xbd8929a1	-0.06697393
82	0xbe30da7f	-0.1727085
83	0x3e491392	0.19636372
84	0x3d0c003a	0.034179904
85	0xbdbd81f4	-0.09253302
86	0x3dbc5e72	0.091977015
87	0xbe8f2a5f	-0.27962014
88	0xbea6b04a	-0.32556373
89	0xbe4e9bfb	-0.2017669
90	0xbdc15503	-0.09440043
91	0xbdda699c	-0.10664675
92	0xbe2e3638	-0.1701287
93	0x3d385112	0.04499919
94	0x3bb888f5	0.005631561
95	0x3d7aed2e	0.06126135
96	0xbd6683c3	-0.056278
97	0x3d15566f	0.036459383
98	0x3cc80c85	0.024420032
99	0x3c8f03c2	0.017457847
100	0xbd720f55	-0.059096653
101	0xbd634411	-0.055484835
102	0xbc2344d3	-0.009965139
103	0x3d8a36a0	0.067487
104	0x3e5e125f	0.21686696
105	0x3b112485	0.0022147011
106	0xbec21fda	-0.37914926
107	0xbd0e4ee1	-0.034743194
108	0x3d531e0b	0.051542323
109	0x3cfcf40f	0.030878095
110	0x3bbe33a8	0.0058044977
111	0x3cf8952e	0.030344572
112	0x3d87bbdc	0.06627628
113	0xbcdf1a41	-0.027234199
114	0x3d9e1ea7	0.0772069
115	0x3db0213c	0.08600089
116	0x3e79b43c	0.2438516
117	0x3dbfc627	0.093639664
118	0xbd433a9a	-0.04766331
119	0xbe0f0255	-0.13965733
120	0x3da5f9e3	0.08104303
121	0x3df03a04	0.117298156
122	0x3d6457a4	0.055747643
123	0xbd7fdce7	-0.06246653
124	0xbe38ead0	-0.18058324
125	0x3db4fcea	0.08837302
126	0xbc7013be	-0.014653144
127	0x3d2c802e	0.04211443
128	0x3d94637c	0.07245538
129	0x3ceb65f0	0.028735131
130	0xbd5b3c1d	-0.053524125
131	0xbdac901e	-0.08425926
132	0xbc7d13e1	-0.015446634
133	0x3d3d4005	0.046203632
134	0x3d84c32b	0.06482538
135	0x3cb80c8e	0.022466924
136	0x3d8a69ec	0.06758484
137	0x3ea29ef1	0.31761888
138	0x3dd894df	0.1057527
139	0x3c599cdd	0.013282028
140	0x3e804f6a	0.25060588
141	0x3e4964f6	0.1966742
142	0xbe9508f5	-0.29108396
143	0x3e9bb2b1	0.30409768
144	0xbe22e23b	-0.15906613
145	0xbdfb6d5c	-0.12276718
146	0xbe83e039	-0.25757006
147	0xbe6423bf	-0.22279261
148	0xbd25fbd1	-0.040523354
149	0x3d91ef56	0.07125728
150	0xbe611a95	-0.21982796
151	0xbdccffc5	-0.10009722
152	0x3bf58de3	0.007493721
153	0x3cd2c31f	0.025727807
154	0xbcd0f0ee	-0.02550551
155	0x3d3630a1	0.04447997
156	0xbc9210ab	-0.017830214
157	0xbcfbbf5b	-0.030730894
158	0xbd425d72	-0.047452398
159	0x3c81ed7b	0.01586031
160	0xbd567c43	-0.0523646
161	0x3d755094	0.0598913
162	0x3e41fffb	0.18945305
163	0xbe5709fd	-0.20999904
164	0xbd0ddbdc	-0.034633502
165	0x3d08b92f	0.03337973
166	0x3dc33a2d	0.095325805
167	0x3d6d28de	0.057900302
168	0xbe8a8353	-0.27053317
169	0xbd89e143	-0.067324184
170	0x3cfa7fbd	0.030578488
171	0x3e0d09f7	0.13773333
172	0xbc075ded	-0.00826214
173	0x3de40ef8	0.111356676
174	0x3dd096e7	0.10185032
175	0xbd042aca	-0.03226737
176	0x3dc40ab3	0.09572353
177	0xbae349ac	-0.0017340682
178	0x3daa0cf4	0.08303252
179	0x3cd9d585	0.026591072
180	0xbe888dfd	-0.26670828
181	0xbe852f2d	-0.26012555
182	0xbd4cc74e	-0.04999476
183	0xbe0d7e14	-0.13817626
184	0x3c601bd9	0.013678514
185	0xbd9f16c8	-0.07768017
186	0x3e448f44	0.19195276
187	0xbe866ac1	-0.26253322
188	0xbe019d3d	-0.12657638
189	0x3e3b44ea	0.18288007
190	0x3e83b234	0.25721896
191	0xbcf4d932	-0.029888723
192	0xbd16be49	-0.036802564
193	0xbd6bd2fc	-0.057574257
194	0xbeb7d04c	-0.35901105
195	0x3ec7df74	0.3903767
196	0x3d308fea	0.043105997
197	0xbcc6b3b5	-0.024255613
198	0x3e8188b6	0.25299615
199	0x3ea4c10c	0.32178533
200	0xbca4bed8	-0.020110533
201	0x3e5cf363	0.2157722
202	0xbc4e6474	-0.012597192
203	0xbdce6259	-0.10077352
204	0x3d45ea3c	0.048319086
205	0x3c6c2cec	0.014415007
206	0x3e6fafa0	0.2340684
207	0x3cab320c	0.020897888
208	0x3c979d9e	0.018507775
209	0x3db036fd	0.08604238
210	0xbcadb041	-0.021202208
211	0xbcf26b92	-0.02959231
212	0xbe32361b	-0.17403452
213	0xbdaacabd	-0.083394505
214	0xbd7f88b0	-0.062386215
215	0xbd2e6115	-0.042573053
216	0xbe9e3258	-0.30897784
217	0x3e53ea9a	0.20694962
218	0xbcd6fa36	-0.026242357
219	0xbcbd43d2	-0.023103628
220	0xbcd530e7	-0.026024295
221	0x3c7e0317	0.015503666
222	0xbdf48c4a	-0.119408205
223	0xbdb5b851	-0.08873046
224	0xbdae15ad	-0.08500228
225	0x3d34ecc5	0.044171114
226	0x3d9fd077	0.078034334
227	0x3e1487a6	0.14504871
228	0x3e20231a	0.1563839
229	0xbe3064e5	-0.17225988
230	0xbdd9dc13	-0.10637679
231	0xbe41b4e4	-0.1891666
232	0x3d073623	0.033010613
233	0x3cb7bdec	0.022429429
234	0x3ddc448e	0.10755263
235	0x3c012c2c	0.007884067
236	0x3c8fcb50	0.017553002
237	0xbc5e8e96	-0.0135838
238	0x3e2bcaf0	0.16776633
239	0xbe016756	-0.12637076
240	0xbdc38cf7	-0.09548371
241	0xbe3caeca	-0.18426052
242	0xbecc0268	-0.39845586
243	0x3cd207b1	0.025638433
244	0x3e9af5f4	0.30265772
245	0xbea67637	-0.32512066
246	0x3d8993fe	0.067176804
247	0x3d839d3a	0.06426473
248	0xbdf3dc04	-0.11907199
249	0x3e08bb61	0.1335273
250	0xbdb85ad7	-0.09001701
251	0x3e2e5e4e	0.17028162
252	0xbdc10c7d	-0.0942621
253	0x3d939540	0.072062016
254	0x3d175763	0.036948573
255	0xbdddb6af	-0.1082586

value_mlp.mlp.0.bias f4 [256]
0	0xbe6e0799	-0.23245086
1	0xbec0e6bb	-0.37676033
2	0x3e1dceb5	0.15410884
3	0x3f01402e	0.50488555
4	0xbf27f17b	-0.65602845
5	0xbdd72b25	-0.10506276
6	0x3edf6ed8	0.43639255
7	0xbd28820e	-0.041139655
8	0x3f114a2f	0.5675382
9	0x3e5ef125	0.21771677
10	0x3d7cfd1c	0.06176482
11	0xbd96d10e	-0.07364093
12	0xbd2dd65e	-0.042440765
13	0x3edd1444	0.43179524
14	0x3eb169af	0.34650943
15	0x3e237b8d	0.159651
16	0x3e9bcd39	0.3043001
17	0x3e531e86	0.20617113
18	0x3f025974	0.50917745
19	0x3c1f5bd9	0.009726488
20	0x3c3c97dd	0.011510816
21	0x3d3425bb	0.043981295
22	0xbedc88c8	-0.43073106
23	0xbe11d9fe	-0.14243314
24	0xbdd400fd	-0.10351751
25	0xbf00c4ec	-0.5030048
26	0xbe30381e	-0.17208907
27	0xbee68042	-0.45019728
28	0xbe80c995	-0.25153795
29	0x3bcb4917	0.0062037813
30	0x3db74f6c	0.089506954
31	0x3d46f5ec	0.048574373
32	0xbd838736	-0.06422274
33	0x3f12ae88	0.57297564
34	0xbd7bbf32	-0.061461635
35	0xbe38a168	-0.18030322
36	0xbebf7fa9	-0.37402084
37	0x3f0c716b	0.5486056
38	0x3f045496	0.5169157
39	0xbe20e4bd	-0.15712257
40	0xbeab90c5	-0.33508888
41	0x3e9e2406	0.3088686
42	0x3f3e15f8	0.7425227
43	0x3e7b666a	0.24550787
44	0xbdb7a7ef	-0.08967578
45	0x3f21b458	0.6316581
46	0x3cd9408b	0.026520034
47	0xbed40bc5	-0.4141523
48	0xbcc8c018	-0.02450566
49	0xbdb0aec0	-0.08627081
50	0x3de984cc	0.11402282
51	0xbe81b58f	-0.2533383
52	0x3eed5328	0.46352506
53	0x3d3e0e94	0.04640062
54	0xbecd6909	-0.40119198
55	0xbe538e17	-0.20659672
56	0x3d26a88e	0.04068809
57	0xbdf9c54d	-0.12195835
58	0x3ec063d2	0.37576157
59	0x3e490d2a	0.19633928
60	0x3e6ee16e	0.23328182
61	0x3f37a209	0.7173162
62	0xbd4c7686	-0.04991772
63	0xbda90861	-0.08253551
64	0xbe4e7615	-0.20162232
65	0xbde3d571	-0.11124695
66	0xbec9e612	-0.39433342
67	0x3f0b8f08	0.54515123
68	0xbd6dbd89	-0.058042083
69	0x3e0b34d7	0.13594376
70	0xbe09980a	-0.13436905
71	0x3ea2efdb	0.3182362
72	0x3e82922e	0.2550215
73	0xbe53d7c0	-0.20687771
74	0xbe50d1b5	-0.20392497
75	0x3dadb41a	0.08481617
76	0xbe79c8af	-0.24392961
77	0x3f1595a2	0.58431447
78	0x3eb1d1ea	0.34730464
79	0xbd529c98	-0.05141887
80	0x3e75163c	0.23934263
81	0x3d3fa507	0.04678824
82	0xbe0aef25	-0.13567789
83	0xbdc23431	-0.09482611
84	0x3e50a961	0.20377113
85	0xbd85858e	-0.06519614
86	0xbe08188e	-0.13290617
87	0x3eaabb67	0.33346102
88	0xbeca32b0	-0.39491796
89	0xbe9f99ca	-0.3117202
90	0x3db5ae2f	0.088711135
91	0x3d509dfb	0.050931912
92	0xbead2528	-0.3381741
93	0x3e43da8d	0.1912634
94	0xbe0d89cb	-0.13822095
95	0xbe14e2cf	-0.14539646
96	0xbe5f5423	-0.2180944
97	0xbd240a17	-0.040048685
98	0xbe4c2e8b	-0.1993963
99	0xbcba7ffe	-0.02276611
100	0xbe054661	-0.13015129
101	0x3ecef8a8	0.40424085
102	0x3dc3a992	0.09553827
103	0xbeec8fbf	-0.4620342
104	0x3e23f993	0.16013174
105	0xbe0e0ef5	-0.13872893
106	0x3d689724	0.056784764
107	0x3e9f1ff5	0.3107907
108	0x3f2c4be7	0.6730332
109	0xbe937e2d	-0.28807202
110	0xbd90d650	-0.07072127
111	0x3e5113a3	0.20417647
112	0xbedbc363	-0.42922506
113	0x3e0d4ccd	0.13798828
114	0xbe0bf0d0	-0.13666081
115	0xbe958b8c	-0.29208028
116	0xbef45a0e	-0.47724956
117	0xbbf81f7a	-0.0075721117
118	0x3dac221e	0.08404945
119	0xbef6f199	-0.482312
120	0x3e898b41	0.26864055
121	0x3e0278f2	0.1274145
122	0xbe27ddb6	-0.1639317
123	0xbdf94c74	-0.121727854
124	0x3e8b1a62	0.27168566
125	0x3d0f238d	0.034946013
126	0xbe8ac827	-0.2710583
127	0xbf13e3e5	-0.57769614
128	0xbd6ad36e	-0.05733054
129	0xbe616c32	-0.2201393
130	0x3d9cf77f	0.07664394
131	0xbdd8428e	-0.10559569
132	0x3db1788a	0.08665569
133	0x3f0a0dee	0.53927505
134	0xbd94a9ed	-0.07258973
135	0xbe8845d8	-0.26615787
136	0xbd7fb871	-0.062431756
137	0xbc6dc2e0	-0.014511794
138	0xbec6bb83	-0.38814935
139	0x3e9cadd1	0.3060136
140	0x3ee46847	0.44610807
141	0xbd57ac32	-0.052654453
142	0x3e014df8	0.12627399
143	0xbe833745	-0.25628105
144	0xbf01e230	-0.5073576
145	0x3e3ee4c0	0.18641949
146	0x3ddd68cc	0.10811004
147	0x3ea2f118	0.31824565
148	0xbe7befd1	-0.24603201
149	0xbe9025a2	-0.28153712
150	0x3dca5c56	0.09880893
151	0xbdf36347	-0.1188417
152	0xbe32886e	-0.17434856
153	0xbe22b66e	-0.15889904
154	0x3ee80322	0.4531489
155	0x3e910e4f	0.2833123
156	0xbe47446e	-0.19459698
157	0xbc2b5a22	-0.010458501
158	0x3f06a2e2	0.5259229
159	0xbe0eef2f	-0.13958429
160	0xbe855db9	-0.26048067
161	0x3f491830	0.7855253
162	0x3dd979f6	0.10618965
163	0xbd08c467	-0.03339043
164	0xbd611082	-0.054947384
165	0x3f177f7e	0.5917891
166	0x3e1ae1bb	0.15125172
167	0x3e7716b2	0.24129751
168	0xbe0dab1d	-0.13834806
169	0x3e215faf	0.15759157
170	0x3dc8aca4	0.097985536
171	0xbe798c61	-0.24369957
172	0x3e4da282	0.20081523
173	0x3e2c43be	0.16822717
174	0xbd2a2ed2	-0.041548558
175	0x3e3fe7b7	0.18740736
176	0xbe020e04	-0.12700659
177	0xbe67081d	-0.22561689
178	0xbeb4ac2f	-0.35287616
179	0xbbe4b4ac	-0.0069795456
180	0x3f129267	0.5725464
181	0xbf1227b2	-0.5709182
182	0x3df4b3a6	0.11948328
183	0x3da8d5de	0.08243917
184	0xbed3327f	-0.41249463
185	0x3ef5fe30	0.48045492
186	0xbb393af0	-0.002826389
187	0xbe41b06e	-0.18914959
188	0xbe96870c	-0.29399908
189	0xbe71c66a	-0.23610845
190	0xbe8a5001	-0.27014163
191	0x3ccf5ad4	0.025311865
192	0xbdfd8aef	-0.12380015
193	0x3f0518ff	0.51991266
194	0x3db670b6	0.08908217
195	0xbd19332e	-0.037402324
196	0x3c91d116	0.017799895
197	0xbe3aca5c	-0.18241256
198	0xbd53e16d	-0.051728655
199	0xbe159db6	-0.14610943
200	0xbda69e48	-0.081356585
201	0xbea39711	-0.31951192
202	0x3ea70dd9	0.32627752
203	0x3ec46da4	0.383649
204	0xbedccfa6	-0.43127173
205	0xbee06f52	-0.4383493
206	0xbe6f4f18	-0.23370016
207	0xbe05529a	-0.13019791
208	0x3da50367	0.080572896
209	0x3f40b01b	0.75268716
210	0xbe42511a	-0.1897625
211	0x3d700027	0.058593895
212	0x3d1c52e6	0.038164996
213	0xbe624344	-0.22095972
214	0x3eb1f84e	0.34759754
215	0x3ed125bd	0.40849105
216	0xbe621968	-0.22080004
217	0x3e5cf8df	0.21579312
218	0xbe6673dd	-0.22505136
219	0xbe2cc238	-0.16870964
220	0x3e3a4c67	0.18193208
221	0x3f159572	0.5843116
222	0x3f22d777	0.63610023
223	0x3e8db124	0.2767421
224	0x3e611eb5	0.2198437
225	0x3e85ec77	0.2615697
226	0x3d058cdc	0.032605037
227	0x3e87e948	0.26545167
228	0x3e86a623	0.26298627
229	0x3d6bd15a	0.0575727
230	0xbd0ff17a	-0.0351424
231	0x3e8122ba	0.25221807
232	0xbd7749c8	-0.060373098
233	0xbe1da820	-0.15396166
234	0xbe0e338d	-0.13886853
235	0xbe945a5d	-0.28975192
236	0x3e34ed22	0.17668584
237	0xbe37962e	-0.17928383
238	0x3e8fc68b	0.28081164
239	0x3f33c459	0.7022148
240	0x3f0418cf	0.51600355
241	0x3e366d00	0.17815018
242	0xbe3e68c7	-0.18594657
243	0x3e971b64	0.29513085
244	0xbefb2189	-0.49049023
245	0x3e69fefa	0.22851172
246	0xbc0a51da	-0.0084423665
247	0xbd4c2c33	-0.04984684
248	0x3ec63e9c	0.38719642
249	0x3eba3fc9	0.3637679
250	0xbe6e15b8	-0.23250473
251	0xbd920f4f	-0.07131826
252	0xbf15ca42	-0.58511746
253	0x3ed2c1de	0.41163534
254	0xbe930edd	-0.28722277
255	0x3e380c56	0.17973456

value_mlp.mlp.2.weight f4 [128, 256]
0	0xbd7c138c	-0.06154208
1	0xbce72298	-0.028214738
2	0xbbaf20d6	-0.0053444905
3	0xbe4331f5	-0.19062026
4	0x3daaf434	0.08347359
5	0x3dd8b266	0.10580902
6	0x3db6cd4a	0.089258745
7	0x3c256fdd	0.010097471
8	0xbc9da3ad	-0.019243086
9	0xbe0c67de	-0.13711497
10	0x3e16182b	0.14657657
11	0x3caf7a86	0.021420728
12	0xbaa7bdaa	-0.0012797613
13	0xbe02d82a	-0.12777773
14	0xbceb82cf	-0.028748898
15	0xbdd1f82f	-0.102524154
16	0x3bf92c2d	0.007604143
17	0x3dac9163	0.08426168
18	0xbdd047f3	-0.10169973
19	0x3c881398	0.016610906
20	0xbdc80eb1	-0.09768427
21	0x3e331784	0.17489439
22	0x3ce3d54c	0.027811669
23	0xbcb1d24f	-0.021706728
24	0xbdbc407b	-0.09191986
25	0x3dffa0ce	0.12481843
26	0x3e14401a	0.14477578
27	0xbdb4bd99	-0.088252254
28	0xbd270fe8	-0.040786654
29	0xbd4df540	-0.050282717
30	0x3db4d42b	0.0882953
31	0xbdb83de0	-0.08996177
32	0xbda0f1ba	-0.07858606
33	0xbe1d7636	-0.15377125
34	0x3d49ecee	0.04929822
35	0x3da73242	0.08163883
36	0xbdc5facb	-0.096669756
37	0x3de2324b	0.11044749
38	0x3d9008af	0.07032906
39	0x3c6a5018	0.014301322
40	0x3dff665b	0.12470695
41	0xbd7b32c2	-0.061327703
42	0xbe60d2d3	-0.21955423
43	0xbe6611af	-0.22467683
44	0x3d09c984	0.033639446
45	0x3d029451	0.031879727
46	0xbd0732dd	-0.03300749
47	0xbcea6295	-0.02861146
48	0x3e149c6b	0.14512794
49	0xbe45540d	-0.19270344
50	0xbdf80aa9	-0.12111408
51	0x3db3a49a	0.0877163
52	0xbbd3a0af	-0.006458364
53	0x3d9787e9	0.0739897
54	0x3e27df52	0.16393784
55	0xbd2504b8	-0.040287703
56	0x3dae07a6	0.084975526
57	0xbbcb296b	-0.0062000058
58	0xbd682f9d	-0.056686033
59	0xbd6fa2bc	-0.058504805
60	0xbe1e1744	-0.15438563
61	0xbe373245	-0.1789027
62	0x3d12c408	0.03583148
63	0xbcea9a9a	-0.028638173
64	0x3d125361	0.035724048
65	0x3d04d18f	0.032426413
66	0x3e149495	0.14509805
67	0xbe44bdf8	-0.19213092
68	0x3d9f3fb5	0.07775823
69	0xbdc5064e	-0.09620343
70	0xbd961228	-0.07327682
71	0xbd2d6a92	-0.04233796
72	0x3c96302e	0.01833352
73	0xbd6d9457	-0.058002796
74	0x3cb92caf	0.022604315
75	0xbde533af	-0.111914985
76	0x3e1b1f75	0.15148719
77	0xbe392613	-0.1808093
78	0x3d2be6d1	0.04196817
79	0x3d0e1454	0.034687355
80	0xbd9e034f	-0.07715475
81	0xbe26225b	-0.16224043
82	0x3d3866b4	0.04501982
83	0xbdd1fbc1	-0.10253096
84	0xbd970d2f	-0.073755614
85	0xbe0510f3	-0.12994747
86	0xbcb80044	-0.022461064
87	0xbd1c5771	-0.038169328
88	0xbe33ede7	-0.17571221
89	0xbbe399e8	-0.0069458373
90	0xbdb0fb3f	-0.086416714
91	0xbe097517	-0.13423572
92	0x3e90a471	0.2825046
93	0xbd91711b	-0.07101651
94	0x3ce1101e	0.027473506
95	0x3d93544f	0.07193815
96	0xbd25e164	-0.040498152
97	0xbd0f4169	-0.03497449
98	0xbcd35dcc	-0.025801562
99	0xbdfd0d55	-0.123560585
100	0xbc077b7d	-0.008269188
101	0xbdd6259b	-0.104563914
102	0x3e15e682	0.14638713
103	0x3e974a14	0.29548705
104	0x3d1c435a	0.03815017
105	0x3d5aef18	0.053450674
106	0x3df15909	0.1178456
107	0xbd423408	-0.047412902
108	0x3d3f85ae	0.046758346
109	0xbc8441ee	-0.016144719
110	0x3d3d0d7e	0.046155445
111	0xbe25a015	-0.16174348
112	0x3d9f1f5e	0.07769655
113	0x3e46c0bb	0.19409458
114	0x3cfb0725	0.030643055
115	0x3df97976	0.1218137
116	0xbc8d912b	-0.017281136
117	0xbe057473	-0.13032703
118	0xbdb6429a	-0.08899422
119	0x3e1909e4	0.14945179
120	0x3c7ef912	0.015562313
121	0xbd972fbc	-0.073821515
122	0xbdfc28ea	-0.12312491
123	0xbdee98bd	-0.11650226
124	0x3dc5ed7c	0.09664437
125	0x3ce52f2b	0.027976593
126	0x3da66e5e	0.081265196
127	0x3e1d1827	0.15341245
128	0x38f8aff2	0.00011858334
129	0x3da9e779	0.08296103
130	0xbce05d83	-0.02738834
131	0xbe0ff38f	-0.14057754
132	0x3d8d0a42	0.06886722
133	0xbe2491b1	-0.16071202
134	0xbde68f62	-0.11257817
135	0x3d8e066b	0.06934818
136	0xbcdfb14b	-0.02730622
137	0x3d481431	0.04884738
138	0x3d3fb8be	0.046807043
139	0xbe0bb261	-0.13642265
140	0xbe20ff19	-0.15722312
141	0xbcd4d50a	-0.025980491
142	0xbe3567c4	-0.17715365
143	0x3d7f27c4	0.062293783
144	0x3d99f369	0.0751713
145	0xbe93ba2e	-0.2885298
146	0x3ddc0a42	0.10744144
147	0xbe57f342	-0.21088889
148	0x3c915e79	0.017745243
149	0xbd10b4de	-0.03532874
150	0xbc85c972	-0.016331408
151	0xbc052920	-0.008127481
152	0x3c4b03fb	0.012391086
153	0x3d700df8	0.05860707
154	0x3bc346d2	0.00595937
155	0xbd617904	-0.05504705
156	0x3cecf246	0.028924119
157	0xbdf6b594	-0.12046352
158	0xbd854115	-0.06506554
159	0xbda5db70	-0.08098495
160	0xbcf66a14	-0.030079879
161	0xbe14c714	-0.14529067
162	0x3dc9546e	0.09830557
163	0xbd158003	-0.036499035
164	0x3e40b74f	0.18819927
165	0xbd993f14	-0.07482734
166	0xbde55aeb	-0.11198982
167	0xbe08f4a3	-0.13374572
168	0xbda6322c	-0.08115038
169	0xbd2258ed	-0.039635587
170	0xbe6ddeb1	-0.23229481
171	0x3cde623e	0.027146455
172	0xbe075739	-0.13216867
173	0xbcc5dded	-0.024153674
174	0x3e302c58	0.17204416
175	0xbcfe3908	-0.031033054
176	0xbdb0765f	-0.086163275
177	0xbe0ad761	-0.13558723
178	0xbd7cd273	-0.061724138
179	0x3dbef58b	0.09324177
180	0xbe0be5cf	-0.13661884
181	0x3cb79046	0.022407662
182	0x399ec684	0.00030284014
183	0xbe0a2d8a	-0.13493934
184	0x3e6e63f1	0.23280312
185	0xbdbe5903	-0.092943214
186	0x3e06d5fe	0.13167569
187	0xbd9e15e9	-0.07719023
188	0x3c6e750d	0.014554274
189	0x3dd60181	0.104495056
190	0x3a92001b	0.0011138947
191	0x3d70eb3e	0.058818094
192	0xbd608f37	-0.05482408
193	0xbe2720ad	-0.16321059
194	0xbcd6de01	-0.026228907
195	0x3db2d6e1	0.08732391
196	0xbaefc441	-0.0018292741
197	0xbc73fa04	-0.014891151
198	0x3bd6c0ae	0.006553731
199	0x3dad973d	0.08476112
200	0xbe1d8899	-0.15384139
201	0x3d67f25f	0.056627627
202	0x3d6f109f	0.05836546
203	0xbe26c2b7	-0.16285215
204	0x3e01d8b4	0.12680322
205	0x3e089227	0.13337003
206	0xbbc8411b	-0.006111277
207	0xbcf72d5d	-0.030172998
208	0xbd7d0cd2	-0.061779805
209	0xbe81bf9a	-0.25341493
210	0x3d66d98d	0.056359816
211	0x3d5ad59b	0.053426366
212	0xbdd7d429	-0.10538513
213	0xbd5e7fe3	-0.05432118
214	0xbe59227d	-0.21204562
215	0xbc0e81de	-0.008697955
216	0x3bb5ab61	0.0055441116
217	0x3d82fb32	0.06395568
218	0x3e40996f	0.1880853
219	0xbd583500	-0.05278492
220	0xbe4a2fd2	-0.19744805
221	0xbe45ac72	-0.19304064
222	0xbe750077	-0.23925959
223	0xbc036f60	-0.008022159
224	0x3e0d94a0	0.13826227
225	0x3bb4616e	0.0055047786
226	0xbd973969	-0.07383997
227	0xbec2fbce	-0.38082737
228	0xbdb2ee8c	-0.087369055
229	0xbda346e7	-0.07972508
230	0x3e1207f4	0.14260846
231	0xbd3d056b	-0.046147745
232	0xbd977432	-0.07395209
233	0xbca8f3b6	-0.020624023
234	0xbb84badf	-0.004050597
235	0x3d7bdf31	0.06149215
236	0xbe161479	-0.14656247
237	0xbdc31695	-0.095257916
238	0xbe198e93	-0.14995794
239	0x3da361f9	0.07977671
240	0xbdc3ce95	-0.09560887
241	0xbdb32f0c	-0.08749208
242	0xbe30fd1e	-0.17284057
243	0xbd8eadbe	-0.069667324
244	0x3cba004a	0.022705216
245	0xbe97debd	-0.29662123
246	0xbd8277fa	-0.0637054
247	0x3d23b808	0.039970428
248	0xbd764fd3	-0.06013472
249	0xbe28bf3e	-0.16479203
250	0x3de10ccb	0.10988768
251	0x3ceb0fc0	0.028694034
252	0x3dcbc83f	0.09950303
253	0xbe82ea35	-0.2556931
254	0xbd09d02a	-0.033645786
255	0x3d56a212	0.052400656

value_mlp.mlp.2.bias f4 [128]
0	0xbe52eaa9	-0.20597328
1	0xbe7c6db1	-0.24651219
2	0xbdca01b4	-0.09863606
3	0xbdf0013a	-0.11718984
4	0xbd99cebb	-0.07510134
5	0xbe241cdf	-0.16026638
6	0xbe38838c	-0.18018931
7	0xbdb7b665	-0.08970336
8	0xbe26188d	-0.16220303
9	0xbecf281f	-0.40460297
10	0xbdf537fd	-0.119735695
11	0xbe5f0ae8	-0.21781504
12	0xbecc4a28	-0.39900327
13	0xbe12cbae	-0.1433551
14	0xbe3838a9	-0.17990364
15	0xbd6691ec	-0.056291506
16	0xbe2c5ad7	-0.16831528
17	0xbe0a70ca	-0.13519588
18	0xbe7f8a25	-0.24955042
19	0xbda9181f	-0.08256554
20	0xbe45b646	-0.19307813
21	0xbdc12c6f	-0.09432303
22	0xbdb19b3d	-0.086721875
23	0xbdb59cc2	-0.0886779
24	0xbe1f9b99	-0.155867
25	0xbdb0056e	-0.08594786
26	0xbdf4e4cc	-0.11957702
27	0xbe799327	-0.2437254
28	0xbe3cb1f4	-0.18427259
29	0xbde1e0ee	-0.1102923
30	0xbdece0db	-0.11566325
31	0xbe54cc41	-0.20781042
32	0xbea5fb0c	-0.32418096
33	0xbe4469ee	-0.19181034
34	0xbdf7bd6e	-0.12096678
35	0xbdada508	-0.08478743
36	0xbe62c19b	-0.22144167
37	0xbd11c89b	-0.035591703
38	0xbde9e5b8	-0.114207685
39	0xbe0e5318	-0.13898885
40	0xbe2492dc	-0.16071647
41	0xbe0e8d89	-0.13921179
42	0xbe94438b	-0.2895778
43	0xbe5d7c2c	-0.21629399
44	0xbe2a6d59	-0.16643275
45	0xbd49ffef	-0.049316343
46	0xbd838560	-0.06421924
47	0xbe51d461	-0.20491172
48	0xbe5263f0	-0.20545936
49	0xbe71fec1	-0.23632337
50	0xbe229bdf	-0.15879773
51	0xbe148a63	-0.14505915
52	0xbe009831	-0.12558056
53	0xbd452c88	-0.04813817
54	0xbd8a50c5	-0.06753687
55	0xbd5759d2	-0.052575894
56	0xbd872d5f	-0.06600451
57	0xbe84f81b	-0.2597054
58	0xbdb68d2b	-0.089136444
59	0xbd2dcd9e	-0.04243242
60	0xbde0ee1e	-0.10982917
61	0xbe93e7c9	-0.28887776
62	0xbdd2d9c7	-0.10295444
63	0xbda65954	-0.08122507
64	0xbe19e90d	-0.15030308
65	0xbe83fcb7	-0.25778744
66	0xbdb17eac	-0.08666739
67	0xbec17d5d	-0.37790957
68	0xbe6cdf0c	-0.2313196
69	0xbda968f6	-0.08271973
70	0xbe06dd40	-0.13170338
71	0xbe108bb9	-0.141158
72	0xbe4f6d17	-0.20256458
73	0xbe80a618	-0.2512672
74	0xbdcdd81b	-0.100509845
75	0xbeeb388e	-0.45941585
76	0xbe68df44	-0.22741419
77	0xbdfd670f	-0.123731725
78	0xbdb15011	-0.086578496
79	0xbe45bc86	-0.19310197
80	0xbda33e0f	-0.07970821
81	0xbd5be030	-0.0536806
82	0xbd9ed709	-0.077558585
83	0xbe42d5f6	-0.19026932
84	0xbe7f1f68	-0.24914324
85	0xbe36520b	-0.17804734
86	0xbdd5102f	-0.104034774
87	0xbe276918	-0.16348684
88	0xbe09f71a	-0.13473168
89	0xbe81b8de	-0.25336355
90	0xbdf23540	-0.11826563
91	0xbd5e6a71	-0.05430073
92	0xbdfe818b	-0.12427052
93	0xbdb21416	-0.08695237
94	0xbd297788	-0.04137376
95	0xbd85e8e4	-0.06538561
96	0xbe1b1319	-0.15144004
97	0xbd658cde	-0.056042545
98	0xbe3ad579	-0.18245496
99	0xbe0eeab6	-0.13956723
100	0xbdb5c7a6	-0.088759705
101	0xbe6918c1	-0.22763349
102	0xbdb181bd	-0.08667324
103	0xbd9cfa59	-0.076649375
104	0xbd315c61	-0.04330099
105	0xbed1a83e	-0.4094867
106	0xbdaa3224	-0.08310345
107	0xbe85cd3f	-0.26133153
108	0xbe5d8e94	-0.2163642
109	0xbe193b92	-0.1496413
110	0xbd1871b2	-0.037217803
111	0xbe109dfa	-0.14122763
112	0xbe97f19c	-0.2967652
113	0xbdfce04f	-0.12347471
114	0xbe3f19ed	-0.18662234
115	0xbe4604bb	-0.19337742
116	0xbea800b3	-0.32813033
117	0xbe52bf34	-0.2058075
118	0xbd6f7c1f	-0.05846798
119	0xbe3acf02	-0.1824303
120	0xbe7f3503	-0.24922566
121	0xbeab9dfe	-0.33518976
122	0xbe59242e	-0.21205208
123	0xbe51b938	-0.20480812
124	0xbea37da3	-0.3193179
125	0xbe07b4d3	-0.13252573
126	0xbec00b1d	-0.3750848
127	0xbddde499	-0.10834617
