assets/models/trace.pth (torch, 332163 bytes, 25 tensors)

sigma f4 [6]
0	0xbdb3916c	-0.087679714
1	0xbee81e2f	-0.45335528
2	0xbf275a86	-0.653725
3	0xbf5f5d7e	-0.8725203
4	0xc0056d70	-2.0848045
5	0x3d329c89	0.043606315

actor_mlp.mlp.0.weight f4 [256, 27]
0	0x3ea6a2f6	0.32546204
1	0x3d7a6820	0.061134458
2	0xbd887847	-0.06663566
3	0x3d2695c8	0.040670186
4	0x3d997f41	0.07494975
5	0x3e0b8125	0.13623483
6	0xbe859757	-0.26092026
7	0xbe07c5bb	-0.13259022
8	0xbe3448a1	-0.1760583
9	0xbd1359c6	-0.035974286
10	0xbe32447e	-0.1740894
11	0x3e76dd2b	0.24107806
12	0x3b8f20b4	0.004367912
13	0xbd94340a	-0.07236488
14	0xbe2fe70d	-0.17177983
15	0xbe633200	-0.22187042
16	0xbe65dc4b	-0.22447316
17	0x3e8c8aa8	0.27449536
18	0xbd279161	-0.04091013
19	0x3ac1cbcf	0.0014785471
20	0x3e339d48	0.17540467
21	0x3cbcc2f7	0.023042185
22	0x3dbf9db0	0.093562484
23	0xbe8f70dd	-0.28015795
24	0xbe22442e	-0.15846321
25	0x3c94b1ce	0.01815119
26	0x3e990ddf	0.29893395
27	0x3df07985	0.11741928
28	0xbc4258cb	-0.01186199
29	0xbe618a3d	-0.2202539
30	0x3d28d9ed	0.041223455
31	0x3dfb5aea	0.122732
32	0xbd4a61b0	-0.04940957
33	0x3e30c9bd	0.17264457
34	0x3e6e8c7f	0.23295783
35	0x3e1dffbd	0.15429588
36	0x3e8ea9dc	0.27863967
37	0x3d33c664	0.043890372
38	0xbe407960	-0.18796301
39	0xbd037b7d	-0.03210019
40	0xbe01760e	-0.1264269
41	0x3d01b9b4	0.03167124
42	0x3e1a95f8	0.15096271
43	0x3cc13b4e	0.023587849
44	0x3e4f2d19	0.20232047
45	0xbdcad0a4	-0.09903076
46	0xbcb5a862	-0.022175018
47	0x3eaaf87f	0.33392712
48	0x3ea4d981	0.32197192
49	0xbe3a3cab	-0.18187205
50	0x3e57e011	0.21081568
51	0xbee8180e	-0.45330852
52	0xbe5a5417	-0.2132114
53	0xbe6326b3	-0.22182731
54	0x3e11d304	0.14240652
55	0xbcfebbc9	-0.031095402
56	0x3e10a683	0.14126019
57	0xbd8fffc5	-0.07031206
58	0x3eb7e287	0.35915014
59	0x3d47f58b	0.048818152
60	0xbd13a040	-0.0360415
61	0x3f0a266f	0.53964895
62	0xbdd1ea1f	-0.10249733
63	0x3e8d32fb	0.27577958
64	0xbea4d154	-0.32190955
65	0x3c5695f5	0.013097276
66	0xbda21337	-0.07913821
67	0xbe8d65d1	-0.27616742
68	0x3e9a9594	0.30192244
69	0xbde2485a	-0.11048956
70	0xbf0361b8	-0.5132098
71	0xbee8d3c2	-0.45474058
72	0xbe8bd493	-0.2731062
73	0xbe02e6c3	-0.12783341
74	0x3e23dc3a	0.16001979
75	0xbed1bf8c	-0.4096645
76	0xbe622b60	-0.22086859
77	0xbecee197	-0.40406486
78	0x3e1dbff7	0.1540526
79	0xbdc6ad70	-0.09701049
80	0x3d1e06a8	0.038580567
81	0x3b30202a	0.002687464
82	0x3d638d13	0.05555446
83	0xbe847f08	-0.25878167
84	0x3d5baa34	0.053629115
85	0x3c848fc4	0.016181834
86	0xbc734ec4	-0.014850322
87	0x3e0f8ec9	0.14019312
88	0x3da18d23	0.07888248
89	0x3e9fd1b1	0.3121467
90	0x3e741810	0.23837304
91	0x3e071649	0.13192095
92	0xbeb6a818	-0.3567512
93	0xbc0ee594	-0.008721728
94	0xbd23bfa5	-0.03997769
95	0x3cee50c6	0.02909125
96	0x3d07d027	0.033157494
97	0x3d9659fc	0.07341382
98	0xbcf6d6f3	-0.030131793
99	0xbf1e9b81	-0.6195603
100	0x3dbf74ef	0.09348475
101	0x3dd4f29b	0.10397836
102	0x3dd54b65	0.10414771
103	0xbe18f39d	-0.14936681
104	0x3db00b5e	0.08595918
105	0xbf30f940	-0.69130325
106	0xbda5db24	-0.080984384
107	0xbe39f623	-0.181603
108	0xbe10aac0	-0.14127636
109	0x3da2eb50	0.079550385
110	0x3de7498f	0.11293327
111	0xbda55401	-0.08072663
112	0xbdf1ea36	-0.1181225
113	0xbe1a51c7	-0.15070258
114	0x3bf4a360	0.007465765
115	0x3d0799f9	0.033105824
116	0x3cc187fb	0.02362441
117	0xbd092cdc	-0.033490047
118	0xbd5606c6	-0.052252553
119	0x3dfb2406	0.1226273
120	0xbd95ada5	-0.07308511
121	0xb981e29a	-0.0002477363
122	0xbc90b3cc	-0.017663859
123	0x3e863dd8	0.26219058
124	0x3e36d726	0.1785551
125	0xbeb589a2	-0.35456568
126	0x3dc9267a	0.09821792
127	0x3cfd67b7	0.030933244
128	0xbcfb2fba	-0.030662406
129	0x3d866086	0.06561379
130	0x3d9963dd	0.074897505
131	0x3e515bba	0.20445147
132	0x3e88af26	0.26696128
133	0xbdc90fc3	-0.098174594
134	0xbd798c45	-0.060924787
135	0xbe947221	-0.28993323
136	0xbcf96609	-0.030444162
137	0x3cd4aed6	0.025962275
138	0xbd1e1866	-0.038597487
139	0x3ae8cafa	0.0017760687
140	0x3cabdfff	0.020980833
141	0xbd29416a	-0.04132215
142	0xbc7d875a	-0.015474165
143	0xbe4a13e0	-0.19734144
144	0xbd5eab8b	-0.054362815
145	0x3dcc73fe	0.09983061
146	0x3e42707a	0.18988219
147	0x3df627d7	0.120193176
148	0x3dd405aa	0.10352643
149	0x3cdd2957	0.026997251
150	0xbe309dea	-0.1724774
151	0xbe04b43c	-0.12959379
152	0xbe9fe698	-0.31230617
153	0x3eb592a7	0.3546345
154	0xbcb8b46a	-0.022546966
155	0x3be93dc3	0.0071179583
156	0xbe0a5fc9	-0.13513102
157	0xbcff42d6	-0.0311598
158	0xbe054dba	-0.13017932
159	0x3ec3ff11	0.38280538
160	0x3d3ca52f	0.04605597
161	0xbc34a912	-0.011026638
162	0x3e2262f6	0.15858063
163	0x3d39f046	0.04539516
164	0x3dbad96f	0.091235034
165	0x3dc4bde2	0.0960653
166	0x3d586898	0.052834123
167	0x3ba2579d	0.004954292
168	0x3d5cd494	0.053913668
169	0xbe2cedce	-0.1688759
170	0xbd83bdc2	-0.06432678
171	0xbd7e2b90	-0.062053263
172	0xbe9a7ba4	-0.30172455
173	0x3eab3cec	0.33444917
174	0xbdae5441	-0.08512164
175	0xbe069ea2	-0.13146451
176	0xbdd1d56c	-0.10245785
177	0xbca82083	-0.020523315
178	0xbe224fdd	-0.15850778
179	0x3e65383c	0.22384733
180	0x3f03dfbf	0.51513284
181	0xbd38fac0	-0.04516101
182	0x3ea46957	0.32111618
183	0x3ead1e8d	0.3381237
184	0x3e3ea4b5	0.18617518
185	0xbeb4ab1e	-0.35286802
186	0xbe674f01	-0.22588731
187	0xbd49b4f7	-0.049244847
188	0x3e034edc	0.12823051
189	0xbb8b3468	-0.0042481907
190	0xbe4a8cea	-0.19780317
191	0xbd2e68e1	-0.04258049
192	0x3def3605	0.11680225
193	0xbe8455d7	-0.2584674
194	0xbc9da588	-0.01924397
195	0xbe1e42cc	-0.15455168
196	0xbc61a014	-0.013771076
197	0xba938ef8	-0.0011257818
198	0xbef6ae06	-0.48179644
199	0x3e454cc2	0.19267562
200	0x3e15d384	0.14631468
201	0x3dd228c6	0.10261683
202	0xba993b47	-0.001169064
203	0x3d37c2ad	0.04486339
204	0xbe59454d	-0.21217842
205	0xb8ef5d98	-0.00011413841
206	0x3e245ab1	0.16050221
207	0x3eedeae3	0.46468267
208	0xbd2e657f	-0.042577263
209	0xbeb42513	-0.35184535
210	0xbe79a1c6	-0.24378118
211	0xbdafa93e	-0.08577202
212	0xbdf1c15c	-0.118044585
213	0x3e8c07bd	0.27349654
214	0x3e87e00f	0.2653813
215	0x3e3fc9d6	0.18729338
216	0x3db72502	0.089426056
217	0xbc08ac4b	-0.008341859
218	0xbd2ab2b6	-0.04167434
219	0xbc82d1ff	-0.015969275
220	0x3dcc8989	0.0998717
221	0x3c39df11	0.011344687
222	0xbcbcd6fe	-0.023051735
223	0x3db1f36b	0.086890064
224	0x3e190051	0.14941527
225	0xbd778ed4	-0.060438946
226	0xbe081096	-0.13287577
227	0x3e5ad532	0.2137039
228	0xbc3c0549	-0.011475869
229	0x3d658f28	0.056044728
230	0xbbe44ea4	-0.0069673825
231	0x3e5b75a4	0.21431595
232	0xbe369269	-0.17829289
233	0xbdadd61d	-0.084881045
234	0x3f08d612	0.53451645
235	0xbdf38f0b	-0.11892518
236	0x3ec2b9a7	0.38032266
237	0xbcbd89ee	-0.023137059
238	0xbde0a089	-0.1096812
239	0xbe03d704	-0.1287499
240	0xbcfb30d5	-0.030662933
241	0xbe16496a	-0.14676443
242	0x3e36ced5	0.17852338
243	0x3e29c12a	0.16577592
244	0xbe2144f9	-0.15748967
245	0x3da0b9ef	0.07847964
246	0xbda42fcb	-0.08016928
247	0xbd3e4885	-0.04645588
248	0x3db1bcfa	0.086786225
249	0xbe992b5a	-0.29915887
250	0xbca9256d	-0.020647729
251	0xbeaf1794	-0.34197676
252	0xbea4c6eb	-0.32183012
253	0xbdd4b151	-0.10385383
254	0x3e76cdb9	0.24101914
255	0x3d8fe2b8	0.07025665

actor_mlp.mlp.0.bias f4 [256]
0	0xbe8097c0	-0.25115776
1	0xba12acb6	-0.0005595194
2	0xbdc4abd4	-0.09603086
3	0x3db38db0	0.08767259
4	0x3d36e939	0.044656012
5	0x3deaf1d9	0.1147191
6	0x3d33368c	0.04375319
7	0xbe28445c	-0.16432327
8	0x3e4acfb9	0.19805802
9	0xbea1a465	-0.31570736
10	0xbdd0f1d8	-0.10202378
11	0xbde9de6d	-0.114193775
12	0x3dafb6fb	0.08579823
13	0x3c1cdc78	0.009574048
14	0xbb2b723d	-0.002616062
15	0x3e11e603	0.14247899
16	0xbe5bf741	-0.21481039
17	0xbda759e1	-0.0817144
18	0xbd86f7df	-0.065902464
19	0x3e975fcb	0.29565272
20	0x3dfb0046	0.122559115
21	0x3d2d8b99	0.04236946
22	0x3d974c20	0.073875666
23	0xbe5687d9	-0.2095026
24	0xbdac8e7e	-0.08425616
25	0x3dc598db	0.096482955
26	0xbe141002	-0.14459231
27	0xbe63149a	-0.22175828
28	0x3d188735	0.03723832
29	0x3e452ea9	0.1925608
30	0xbe2ac6b3	-0.1667736
31	0xbdb279c4	-0.08714631
32	0xbe08d528	-0.13362563
33	0xbda19e94	-0.078915745
34	0x3da4efbf	0.080535404
35	0xbe2e2082	-0.17004588
36	0xbe7df9ce	-0.24802324
37	0x3de7e913	0.11323752
38	0x3dd56fbe	0.10421704
39	0xbbc6ea08	-0.006070379
40	0x3d7e88ef	0.06214231
41	0xbe13412e	-0.14380333
42	0x3d8ad75c	0.06779358
43	0xbea6b78b	-0.32561907
44	0x3e43b54d	0.1911213
45	0x3c455f6d	0.012046677
46	0xbe2be93d	-0.16788192
47	0xbd0d324c	-0.034471795
48	0x3e0e290e	0.13882849
49	0x3de42f94	0.11141887
50	0xbe131b8c	-0.14365977
51	0xbe9374ad	-0.28799954
52	0xbe3e4912	-0.18582562
53	0xbd81b5a2	-0.06333472
54	0xbe56f158	-0.20990503
55	0x3b998582	0.004685105
56	0xbe3da04d	-0.18518181
57	0xbd2bed6d	-0.041974474
58	0xbe600a61	-0.21878959
59	0xbe1750e0	-0.14776945
60	0x3e0747cc	0.13210982
61	0x3d0f9d95	0.03506239
62	0xbdb9c00b	-0.090698324
63	0xbd5b3e4d	-0.05352621
64	0xbe253346	-0.1613284
65	0xbeac9e2a	-0.3371442
66	0x3df5631d	0.11981795
67	0xbe715462	-0.23567346
68	0xbde8c523	-0.11365726
69	0x3d5a8192	0.053346224
70	0xbe97837d	-0.29592505
71	0x3e9c2217	0.30494758
72	0xbe168c24	-0.14701897
73	0x3e65f88b	0.22458093
74	0x3de140b5	0.1099867
75	0x3e7e7f5b	0.2485327
76	0x3df19cdd	0.117974974
77	0x3abd1bb7	0.0014427815
78	0x3d234b8a	0.03986696
79	0xbe446c9a	-0.19182053
80	0xbd0bdff4	-0.034149125
81	0xbe3d85f8	-0.18508136
82	0x3df541d1	0.11975444
83	0xbe51c904	-0.20486838
84	0x3e02164a	0.12703815
85	0xbdd63ab8	-0.104604185
86	0xbdea636a	-0.11444743
87	0xbdb809b0	-0.08986223
88	0xbec56228	-0.3855145
89	0xbe904e7f	-0.28184888
90	0xbe0061a7	-0.12537251
91	0xbe8cc3d9	-0.2749317
92	0xbc73b122	-0.014873775
93	0xbe607c5c	-0.2192244
94	0xbea91e3c	-0.3303088
95	0xbe427966	-0.18991622
96	0x3eab362e	0.33439773
97	0x3ddacf61	0.10684086
98	0xbd91ad49	-0.0711313
99	0xbe683984	-0.2267819
100	0xbeb2777f	-0.34856793
101	0x3e2b3f78	0.1672343
102	0x3d9bb889	0.07603557
103	0xbdda20e4	-0.10650805
104	0xbe84f57b	-0.25968537
105	0xbe224f82	-0.15850642
106	0x3e01d1f4	0.12677747
107	0xbcecf75d	-0.028926546
108	0x3e5a8f94	0.21343833
109	0xbe7272da	-0.23676625
110	0xbe75953e	-0.23982713
111	0x3e3ed99c	0.18637699
112	0xbd8556a6	-0.065106675
113	0x3e51dcf2	0.2049444
114	0x3dc121da	0.09430285
115	0xbe67ac12	-0.22624233
116	0xbe627ff9	-0.2211913
117	0x3dec19fb	0.11528393
118	0xbeaa816c	-0.33301866
119	0xbe4e79ae	-0.20163605
120	0x3c1a3660	0.009412378
121	0x3c28e2cd	0.01030798
122	0x3b7d1700	0.0038618445
123	0xbb980bc3	-0.004640074
124	0xbe925beb	-0.28585753
125	0xbd30665e	-0.043066375
126	0x3d0fd653	0.035116505
127	0x3e0684ee	0.13136646
128	0xbe280545	-0.1640826
129	0xbe3e1e75	-0.18566306
130	0xbe9e9b6a	-0.30977947
131	0x3ca39fec	0.019973718
132	0xbc8c2ee0	-0.017112195
133	0xbe2875f2	-0.16451243
134	0xbe03f82c	-0.12887639
135	0x3e50526d	0.20343943
136	0xbe3ecf4e	-0.18633768
137	0xbc7d410e	-0.015457405
138	0xbe8147fd	-0.25250235
139	0x3e7bb7e9	0.24581875
140	0xbe460569	-0.19338001
141	0x3e068d29	0.13139786
142	0x3eb29e85	0.34886566
143	0xbd05ea8a	-0.032694377
144	0x3e8d4398	0.27590632
145	0xbddc62ee	-0.10761057
146	0xbf029287	-0.51004833
147	0xbc9ed4b3	-0.019388532
148	0xbe9bf305	-0.30458847
149	0xbe93f1ca	-0.28895408
150	0xbc66d11f	-0.014087944
151	0x3db7fbc1	0.08983565
152	0xbd47d4df	-0.048786994
153	0x3e88d85c	0.2672757
154	0x3d401374	0.046893552
155	0x3dfd4502	0.12366678
156	0x3dcb9333	0.099401854
157	0x3c6e5ea3	0.01454893
158	0xbe9d828e	-0.30763668
159	0xbec2454b	-0.3794349
160	0xbe477b20	-0.19480562
161	0xbe367daa	-0.17821375
162	0xbe4975a1	-0.19673778
163	0xbddd1217	-0.10794466
164	0xbd1ec2fa	-0.038760163
165	0xbe9e3930	-0.30903006
166	0x3e7f2674	0.24917012
167	0x3e3d56b8	0.18490112
168	0xbe5b58e3	-0.21420626
169	0xbe258520	-0.16164064
170	0xbe905771	-0.28191712
171	0xbe72bd88	-0.23705113
172	0xbe02ce0a	-0.1277391
173	0xbe1a33e1	-0.15058853
174	0xbd3a86ab	-0.045538586
175	0x3cdf1bfb	0.027235022
176	0xbe4ba47d	-0.19886966
177	0x3ed4567a	0.41472226
178	0xbe8c5e0f	-0.2741551
179	0xbec75347	-0.38930723
180	0xbe8ad207	-0.27113363
181	0x3e18a9a2	0.1490846
182	0x3e0f2954	0.13980609
183	0xbdaaf94a	-0.08348329
184	0xbe89839d	-0.26858225
185	0xbe1f2364	-0.15540844
186	0xbea89e15	-0.32933107
187	0xbea73a6a	-0.32661754
188	0x3e8a0abd	0.26961318
189	0x3e5a7a2e	0.2133567
190	0xbe31d3da	-0.17365971
191	0xbde727e1	-0.11286903
192	0x3d82dcb7	0.06389754
193	0x3d92c3bc	0.071662396
194	0x3c9b1a8e	0.01893356
195	0x3e817452	0.25284058
196	0x3db41d53	0.08794656
197	0xbe835113	-0.25647792
198	0x3e185e2f	0.14879678
199	0xbcc2bccf	-0.023771672
200	0xbe3bd889	-0.1834432
201	0xbe45b21f	-0.19306229
202	0xbe94ac6c	-0.29037797
203	0xbdb462a8	-0.0880788
204	0x3e9a6d56	0.30161542
205	0x3dd9dd85	0.106379546
206	0xbd9ae25d	-0.075627066
207	0xbe23e47d	-0.1600513
208	0xbd8b0d68	-0.067896664
209	0xbce2b487	-0.027673973
210	0x3dc60f57	0.096708946
211	0xbb834033	-0.004005456
212	0x3d6411be	0.055680983
213	0x3d9e4b6b	0.077292286
214	0xbe697d2d	-0.22801657
215	0x3cdf572f	0.027263252
216	0xbe2f5ed2	-0.17126015
217	0xbe3c6662	-0.18398431
218	0x3e395b2d	0.18101187
219	0xbea8bd25	-0.32956806
220	0x3e20d040	0.15704441
221	0xbe04d535	-0.12971957
222	0xbe1bb0ba	-0.15204135
223	0xbdd1ca36	-0.10243647
224	0xbe92b81d	-0.28656092
225	0x3ca4a487	0.020097984
226	0xbe3e667d	-0.18593784
227	0xbdc48b17	-0.09596842
228	0x3e62aaa4	0.22135407
229	0xbe25a783	-0.16177182
230	0xbe011204	-0.12604529
231	0x3dbba9b4	0.09163228
232	0x3e214eb1	0.15752675
233	0xbe3759e1	-0.1790538
234	0xbd99852d	-0.074961044
235	0x3cf44c99	0.02982168
236	0xbd2603c2	-0.040530927
237	0xbd6cba75	-0.057795007
238	0x3d1bfa2f	0.03808039
239	0x3bbac063	0.005699204
240	0x3e6ddd18	0.23228872
241	0xbe07912d	-0.13238974
242	0xbe5adc1a	-0.21373025
243	0x3e298d38	0.16557777
244	0x3e1a5d1e	0.15074584
245	0x3d08bd87	0.033383872
246	0x3dbde343	0.09271862
247	0xbe078931	-0.13235928
248	0x3e8dbabd	0.27681533
249	0xbe6c269e	-0.23061606
250	0x3e665082	0.22491649
251	0x3e188cf2	0.14897516
252	0x3e93030f	0.2871327
253	0xbdd5ce0e	-0.104396924
254	0xbdefdc5b	-0.11711951
255	0x3dd469d4	0.103717476

actor_mlp.mlp.2.weight f4 [128, 256]
0	0xbdd61fcf	-0.10455286
1	0xbdd18077	-0.10229581
2	0xba8d41c5	-0.0010777047
3	0xbe288ca2	-0.16459897
4	0x3da65096	0.08120839
5	0x3dab931c	0.08377668
6	0xbd7ce50e	-0.06174188
7	0x3e81bf7a	0.25341398
8	0xbde53caf	-0.11193215
9	0x3e3f28df	0.18667935
10	0x3b8c9aa9	0.004290898
11	0xbdfc9b95	-0.123343624
12	0xbf0add19	-0.5424362
13	0xbef7d836	-0.48407143
14	0x3e085d5c	0.13316864
15	0x3d17970b	0.03700928
16	0x3e8fa849	0.2805808
17	0x3d86b1e0	0.06576896
18	0x3e15bc9a	0.14622727
19	0x3d0753a6	0.033038758
20	0xbdd87457	-0.10569065
21	0x3b8db899	0.0043249843
22	0x3d18e707	0.0373297
23	0x3e56deb8	0.20983398
24	0x3bf891ad	0.0075857253
25	0xbd9f2b34	-0.07771912
26	0xbd5532fa	-0.05205057
27	0x3d00e50f	0.031468447
28	0x3cd2c66a	0.025729377
29	0x3e1fbd75	0.15599616
30	0x3e64f37d	0.22358508
31	0xbe8a2708	-0.26982903
32	0x3dcfc0c8	0.10144192
33	0xbde27a68	-0.110585034
34	0xbdf3e0fb	-0.11908146
35	0x3d93b798	0.07212752
36	0xbd4f30ff	-0.050583836
37	0x3dda8558	0.106699646
38	0xbde8b766	-0.113631055
39	0x3d40bec4	0.04705693
40	0x3e9d850c	0.3076557
41	0xbca91868	-0.02064152
42	0x3d86944f	0.06571256
43	0x3cfdd67f	0.030986069
44	0xbe13565d	-0.14388414
45	0x3d52c666	0.05145874
46	0xbe397a21	-0.18112995
47	0xbdebe06d	-0.11517415
48	0xbd4b90ba	-0.04969857
49	0xbe2e17b2	-0.17001227
50	0x3d95d25e	0.07315515
51	0x3e1c552b	0.15266864
52	0x3c9bd284	0.01902128
53	0xbcbc7535	-0.023005107
54	0x3bc03b20	0.0058664232
55	0xbce5b377	-0.028039677
56	0x3e841cfb	0.2580336
57	0xbdf453ed	-0.1193007
58	0x3ea00ba9	0.31258896
59	0x3da49313	0.08035865
60	0xbeb6aadb	-0.35677227
61	0xbd96575c	-0.07340881
62	0xbcd5d9fc	-0.02610492
63	0x3e03ff93	0.12890463
64	0x3e04bf46	0.1296359
65	0xbde15d03	-0.11004069
66	0xbda9f272	-0.08298196
67	0xbd8a1d3e	-0.06743859
68	0x3cb9272d	0.022601688
69	0xbd6edc84	-0.05831577
70	0x3caf6286	0.021409284
71	0x3dcb3d23	0.0992377
72	0xbdfd5104	-0.12368968
73	0x3d991a46	0.074757144
74	0xbe747907	-0.23874293
75	0xbc997851	-0.01873413
76	0xbe210245	-0.15723522
77	0xbdf5379b	-0.119734965
78	0x3da74ca0	0.08168912
79	0xbe4fe493	-0.20302038
80	0x3daf7ee8	0.08569127
81	0x3c62120c	0.013798248
82	0xbe0014c6	-0.12507924
83	0x3d333ced	0.043759275
84	0xbe46312d	-0.19354697
85	0x3e4e7a08	0.20163739
86	0xbe5ffec2	-0.21874526
87	0xbdfa45d7	-0.12220352
88	0x3d82c65a	0.06385489
89	0x3e9902bc	0.298849
90	0x3e5ecf08	0.21758664
91	0x3d6508a5	0.055916447
92	0x3b53c7a0	0.003231503
93	0x3e432be7	0.19059716
94	0x3de8d0ea	0.11367972
95	0x3e1a16a9	0.15047707
96	0x3e758531	0.2397659
97	0x3d64d95f	0.055871364
98	0x3d19ac61	0.03751791
99	0xbdba46c5	-0.090955295
100	0xbd8dbd08	-0.069208205
101	0xbd978871	-0.07399071
102	0xbc05092b	-0.008119862
103	0x3ea4330a	0.3207019
104	0xbd9de9e2	-0.07710625
105	0x3dfcd675	0.12345592
106	0xbe548add	-0.20756097
107	0xbd0bef3d	-0.034163702
108	0xbd1c776b	-0.038199823
109	0x3e90bfb7	0.28271267
110	0xbc3cc2f5	-0.011521091
111	0xbe4a62bf	-0.19764231
112	0x3d18129d	0.037127126
113	0xbe49ecb9	-0.19719209
114	0x3daef4be	0.085427746
115	0x3d760aa3	0.060068738
116	0x3d771ee1	0.060332183
117	0xbe1997f0	-0.14999366
118	0x3c572fc8	0.0131339505
119	0xbe0f56d8	-0.13997972
120	0xbe13f782	-0.14449885
121	0xbc0adae6	-0.008475041
122	0xbe202e16	-0.1564258
123	0xbe9cbb81	-0.30611804
124	0x3e0c4138	0.13696754
125	0x3ca2ce6e	0.019873824
126	0xbdb46b1f	-0.08809494
127	0xbe92ccd6	-0.28671902
128	0xbd0f662d	-0.03500955
129	0x3d712ddf	0.058881637
130	0x3e6e6ec5	0.23284443
131	0xbdc6b0da	-0.097017005
132	0xbddfb1ee	-0.10922609
133	0xbdb3358e	-0.08750449
134	0xbdd766aa	-0.105176285
135	0xbda3191e	-0.07963775
136	0x3dfd53f4	0.123695284
137	0x3cbed475	0.023294667
138	0x3d554858	0.052070946
139	0xbe1c827d	-0.15284152
140	0x3d222e05	0.03959467
141	0xbdef0131	-0.11670149
142	0x3cb823d9	0.022478031
143	0xbca7f2a2	-0.020501439
144	0x3df1088e	0.1176921
145	0xbe048d29	-0.12944473
146	0xbcce5c88	-0.025190607
147	0xbdc7fcad	-0.09764991
148	0x3d918165	0.07104758
149	0x3da759ed	0.08171449
150	0xbe008b48	-0.12553132
151	0x3d1e0014	0.038574293
152	0xbea41d78	-0.32053733
153	0x3b47fd64	0.0030516023
154	0xbe3db5fb	-0.18526451
155	0x3d2a67dd	0.041602958
156	0x3e33ecf7	0.17570864
157	0xbd7af94f	-0.061272915
158	0x3e37e658	0.17958963
159	0x3e1c33ef	0.15254186
160	0xbd5b6135	-0.0535595
161	0x3d874a4a	0.066059664
162	0x3de7d166	0.113192365
163	0x3d9a33b8	0.07529396
164	0xbd6df134	-0.058091357
165	0xbd466820	-0.048439145
166	0xbe0a448c	-0.13502711
167	0xbd964dbf	-0.07339048
168	0xbd9c6402	-0.076362625
169	0xbbf51a64	-0.0074799526
170	0xbdfea9e8	-0.12434751
171	0x3c97e6b1	0.01854262
172	0xbd1e2f2a	-0.038619198
173	0x3d94a563	0.072581075
174	0xbe04d9b6	-0.12973675
175	0x3dbb186f	0.0913552
176	0xbe287408	-0.16450512
177	0xbbe29471	-0.0069146683
178	0xbe7e8136	-0.24853978
179	0xbda38f3d	-0.07986305
180	0xbe48f9c0	-0.19626522
181	0x3d2aca94	0.0416971
182	0x3e15e116	0.14636645
183	0xbe8e109f	-0.27747056
184	0xbe3fa78c	-0.18716258
185	0x3d950894	0.07277027
186	0x3e07df16	0.13268694
187	0x3e2d2d10	0.16911721
188	0xbe707124	-0.2348066
189	0x3daf1ea3	0.08550765
190	0xbddb3f61	-0.10705448
191	0x3b11b157	0.0022230947
192	0x3d994459	0.074837394
193	0xbd9a6dd1	-0.07540477
194	0xbe3b0d52	-0.182668
195	0xbe1fbaeb	-0.15598647
196	0xbe8443f2	-0.25833088
197	0x3eed890a	0.46393615
198	0xbe59fd79	-0.21288098
199	0xbe5d3456	-0.21601996
200	0xbdab6bf9	-0.083702035
201	0xbe953d24	-0.2914821
202	0x3dfebd76	0.124384806
203	0x3d01839f	0.031619664
204	0xbc7cab34	-0.015421677
205	0x3dae5fc6	0.08514361
206	0x3e6012f4	0.2188223
207	0xbd566a84	-0.052347675
208	0xbd67081b	-0.056404214
209	0xbdc2b79b	-0.09507676
210	0x3e5a0a6a	0.21293035
211	0xbd309f98	-0.04312095
212	0x3c099ae2	0.008398743
213	0xbe9afda9	-0.30271652
214	0x3e2b264f	0.16713832
215	0x3e3d1e1f	0.18468522
216	0xbe4749fa	-0.19461814
217	0x3e07b8be	0.13254067
218	0xbdaeea00	-0.08540726
219	0x390035e8	0.00012227113
220	0xbca171c6	-0.019707572
221	0x3e37ead1	0.17960669
222	0x3bcebb5b	0.0063089556
223	0x3e50ee81	0.20403482
224	0x3e162384	0.14661986
225	0xbe8e258b	-0.27763018
226	0x3a75b0f7	0.0009372378
227	0xbe727f0a	-0.23681274
228	0xbd903cbe	-0.07042836
229	0x3ce8a919	0.028400945
230	0xbd8f7580	-0.07004833
231	0x3e2de0da	0.16980305
232	0xbe48a4a6	-0.19594058
233	0x3db45400	0.08805084
234	0xbceedcb7	-0.02915798
235	0xbe142169	-0.1446587
236	0x3d704d53	0.058667492
237	0x3e1282a8	0.14307654
238	0xbd0e70e3	-0.034775626
239	0xbd1a4227	-0.037660744
240	0xbdcdf06c	-0.100556225
241	0xbb8d9a73	-0.0043213903
242	0xbd25fe48	-0.040525705
243	0xbd9e9958	-0.07744092
244	0xbe254746	-0.1614047
245	0x3e2d4fda	0.16924992
246	0xbd254149	-0.040345464
247	0xbe1a97a0	-0.15096903
248	0x3c9ad9ef	0.018902747
249	0x3ca0c2ea	0.019624192
250	0xbd2daa57	-0.042398777
251	0x3dbec8e7	0.09315663
252	0xbe8364a1	-0.2566271
253	0x3d7ead0c	0.06217675
254	0x3dbd7a28	0.09251815
255	0x3d87ab71	0.06624497

actor_mlp.mlp.2.bias f4 [128]
0	0xbe214eac	-0.15752667
1	0x3dbd79a8	0.0925172
2	0xbe16f95b	-0.14743559
3	0xbe384e95	-0.17998727
4	0xbd49d5f0	-0.049276292
5	0x3d857326	0.065161034
6	0x3c2e325d	0.010632125
7	0xbe09df4b	-0.13464086
8	0xbe6d918c	-0.23200053
9	0xbd8330c9	-0.064057894
10	0xbf1bd943	-0.6087839
11	0xbe476a9e	-0.19474265
12	0x3cb11ca5	0.021620104
13	0x3e010a67	0.12601624
14	0x3d755d97	0.059903707
15	0xbedef639	-0.43547228
16	0x3c4b8b45	0.012423341
17	0xbe70820e	-0.23487112
18	0x3e4ef063	0.20208888
19	0xbd98d4af	-0.07462441
20	0x3d620611	0.055181567
21	0xbd1fa44b	-0.03897504
22	0xbe23ae89	-0.15984549
23	0xbd4d3bed	-0.050105978
24	0xbe38031c	-0.17969936
25	0x3cd72b7a	0.026265848
26	0xbd860da8	-0.065455735
27	0xbe0139a9	-0.12619652
28	0xbd7c556d	-0.061604906
29	0x3def3bfe	0.116813645
30	0xbe445c01	-0.19175722
31	0x3e003a90	0.1252234
32	0xbc188ea8	-0.009311356
33	0x3df4cdea	0.119533375
34	0xbeb4e248	-0.3532889
35	0xbc40e8aa	-0.011774221
36	0xbbefc748	-0.0073174573
37	0x3d806568	0.06269342
38	0xbea0c855	-0.3140284
39	0xbe79b9b7	-0.24387251
40	0xbe1dce3a	-0.154107
41	0xbe28f9b5	-0.16501506
42	0xbe199e29	-0.1500174
43	0xbe7c6cf7	-0.24650942
44	0xbe0f3a5f	-0.1398711
45	0xbe579333	-0.21052246
46	0xbdc1cac0	-0.094624996
47	0xbe771e41	-0.24132635
48	0x3cf18f79	0.029487358
49	0x3da7288f	0.08162033
50	0xbdb9e951	-0.09077705
51	0xbcd1c1b6	-0.025605064
52	0xbe7d43d0	-0.247329
53	0xbc6e9680	-0.014562249
54	0xb9f8a7f7	-0.0004742739
55	0xbe681ebd	-0.22667976
56	0xbd0b616e	-0.034028463
57	0xbe6c92a9	-0.23102821
58	0xbeb6c5d9	-0.3569782
59	0xbe3fdb5b	-0.18736021
60	0xbe279bf5	-0.16368087
61	0x3dd88311	0.10571874
62	0xbd95926c	-0.073033184
63	0x3cbb389d	0.022854144
64	0xbdc655ae	-0.09684311
65	0xbe028f39	-0.12749948
66	0xbcfd7795	-0.03094081
67	0x3d356d97	0.044293966
68	0xbe0df486	-0.1386281
69	0x3de89f92	0.113585606
70	0xbe82d218	-0.25550914
71	0x3e08783d	0.13327117
72	0xbe8f5563	-0.27994832
73	0xbd475660	-0.048666358
74	0xbd5d79b5	-0.054071147
75	0x3e272d30	0.16325831
76	0xbe0c8a02	-0.13724521
77	0xbdc17f25	-0.09448079
78	0xbb140c98	-0.0022590514
79	0xbe994e37	-0.29942486
80	0xbcf1a60d	-0.029498124
81	0xbe84adf2	-0.2591396
82	0x3dac56a6	0.084149644
83	0xbe415262	-0.18879083
84	0xbe9338a4	-0.2875415
85	0x3e075117	0.13214527
86	0x3d66bdae	0.056333236
87	0x3d82fa31	0.063953765
88	0xbe1b0d1b	-0.15141718
89	0xbafa32fa	-0.0019088679
90	0xbe3d9b64	-0.18516308
91	0xbe0dbd17	-0.13841663
92	0x3d9fb94c	0.077990144
93	0xbe755703	-0.23958974
94	0xbe966b46	-0.29378718
95	0xbe0f4568	-0.1399132
96	0xbe07c64c	-0.13259238
97	0xbea27f42	-0.31737715
98	0xbda28fd8	-0.07937592
99	0xbe82d697	-0.25554344
100	0x3dcb81ac	0.09936842
101	0xbdf90d10	-0.121606946
102	0xbe81da38	-0.253618
103	0x3e0cc0d1	0.13745429
104	0xbddc8329	-0.10767204
105	0xbcaa0355	-0.020753542
106	0xbdbad405	-0.09122471
107	0x3d596c24	0.053081647
108	0xbe04dded	-0.12975283
109	0xbe646fa3	-0.22308211
110	0xbdf10643	-0.117687725
111	0xbe4dc255	-0.20093663
112	0xbe200553	-0.15627031
113	0x3e628c9f	0.22123955
114	0xbdb7ad5a	-0.08968611
115	0xbd80960d	-0.0627862
116	0x3a9f8d33	0.0012172818
117	0xbe9103cd	-0.28323212
118	0x3d82da14	0.06389251
119	0xbd4d2d76	-0.050092183
120	0xbea67e8a	-0.32518417
121	0xbe430dd5	-0.19048245
122	0xbe6c62e8	-0.23084605
123	0xbe321003	-0.1738892
124	0xbe786698	-0.24257886
125	0xbe796e05	-0.24358375
126	0xbe92f73a	-0.28704244
127	0xbe182beb	-0.14860503

value_mlp.mlp.0.weight f4 [256, 27]
0	0xbb86265e	-0.004093929
1	0x3d888628	0.06666213
2	0xbd157c42	-0.036495455
3	0xbd5b1b77	-0.05349299
4	0x3d81dc06	0.06340794
5	0xbdd04b6d	-0.10170636
6	0xbe0ac25b	-0.13550703
7	0xbdaff0b1	-0.0859083
8	0xbdbdbaa0	-0.092641115
9	0xbdba25b9	-0.09089226
10	0x3c9f99a9	0.01948245
11	0x3e027d1a	0.12743035
12	0x3d0c1e12	0.034208365
13	0x3c1492ed	0.009068233
14	0x3c97dd7b	0.018538227
15	0xbe47465d	-0.19460435
16	0x3df0d777	0.11759847
17	0xbcf5f1c8	-0.030022517
18	0xbb807cea	-0.003921141
19	0x3d830ee1	0.06399322
20	0xbd925394	-0.071448475
21	0xbdfb0e5a	-0.12258597
22	0xbdf4de2a	-0.11956437
23	0x3be7520b	0.007059341
24	0xbd86f9de	-0.06590627
25	0xbcf5cead	-0.030005777
26	0x3ccd4cff	0.025061129
27	0x3d1e58a3	0.03865875
28	0x3d7ff8b8	0.062493056
29	0x3d670899	0.056404684
30	0xbd562e0c	-0.052290007
31	0x3d323f76	0.043517552
32	0x3d22fefa	0.039793946
33	0xbc6f7bd7	-0.014616928
34	0xbda4420a	-0.080204085
35	0x3d8d1d2a	0.06890328
36	0x3d503498	0.050831407
37	0x3e005ede	0.12536189
38	0xbdaa3982	-0.0831175
39	0xbd70eccc	-0.058819577
40	0xbdc5fe6d	-0.096676685
41	0x3dc31960	0.09526324
42	0x3c4a9e33	0.012366819
43	0x3e133a6b	0.14377753
44	0x3d6ce705	0.057837505
45	0x3db82c10	0.08992779
46	0x3c8c9f98	0.017165944
47	0x3d8876c1	0.066632755
48	0x3e7bb6f9	0.24581517
49	0x3d433346	0.04765632
50	0xbd2526ef	-0.040320333
51	0x3d1ce02b	0.03829972
52	0x3d99f60b	0.07517632
53	0xbdbc1c32	-0.09185065
54	0x3ccc7aeb	0.024960956
55	0xbddc24c1	-0.10749198
56	0xbd4cfcf5	-0.050045926
57	0x3dc2387a	0.09483428
58	0xbd23e046	-0.040008806
59	0xbb4db84b	-0.0031390365
60	0xbd42e5a7	-0.047582295
61	0xbb54c129	-0.0032463765
62	0xbd3b8822	-0.045784123
63	0x3d5c8a79	0.053842995
64	0x3c2540df	0.010086267
65	0x3dae21c9	0.08502538
66	0x3dada9ae	0.084796295
67	0x3cbbe8be	0.022938129
68	0xbd2765da	-0.040868618
69	0xbd8095f1	-0.06278599
70	0xbdc5f807	-0.09666448
71	0x3d9f89c1	0.07789946
72	0xbd2e0df5	-0.04249378
73	0xbd8e0b0f	-0.06935703
74	0x3d6a4946	0.057198785
75	0xbd263a18	-0.040582746
76	0x3c6665cd	0.014062357
77	0xbd42bf6c	-0.047545835
78	0xbce6b079	-0.02816032
79	0xbd2b747b	-0.04185913
80	0x3d25b9df	0.040460464
81	0xbcd4231f	-0.025895653
82	0x3c67c8a7	0.01414696
83	0xbdfc53f7	-0.123207025
84	0xbd46a28e	-0.048494868
85	0xbc9f6344	-0.019456513
86	0xbe3a3888	-0.18185627
87	0x3c52fdd7	0.012877903
88	0xbdffc394	-0.124884754
89	0xbe7e687c	-0.24844545
90	0xbd974811	-0.073867925
91	0xbcc41a14	-0.023938216
92	0x3e5b0f98	0.21392667
93	0xbd27b040	-0.04093957
94	0x3d14865e	0.036260955
95	0x3cc594b7	0.024118764
96	0x3d275536	0.040852748
97	0x3d0817cd	0.033225823
98	0x3de4a3ef	0.1116408
99	0xbdbe3070	-0.092865825
100	0xbdc6310a	-0.09677322
101	0x3e097aad	0.13425703
102	0x3d7f4f65	0.062331576
103	0xbd80ad59	-0.062830634
104	0xbe26f2b3	-0.1630352
105	0xbcbbb196	-0.022911828
106	0x3e0b4900	0.13602066
107	0x3da7d375	0.08194629
108	0xbd96c442	-0.07361652
109	0x3d871207	0.06595235
110	0x3d896024	0.067077905
111	0xba8782b4	-0.0010338635
112	0x3dc21df9	0.09478373
113	0xbd64d6f6	-0.055869065
114	0x3e94c8d7	0.2905948
115	0x3de1f8e3	0.110337995
116	0x3d8185fe	0.06324385
117	0xbdb3dd1b	-0.08782407
118	0x3c4ba144	0.012428585
119	0xbde7ddae	-0.11321579
120	0x3c9fb028	0.019493178
121	0x3d19a281	0.03750849
122	0x3e100df8	0.14067829
123	0x3dfe9e1d	0.124325015
124	0xbd49fe14	-0.049314573
125	0xbbe6b513	-0.0070406287
126	0x3ba2a3a4	0.004963355
127	0x3dcee9e4	0.10103205
128	0x3e07ce7c	0.13262361
129	0x3dd854b7	0.10563033
130	0x3dd30c57	0.10305088
131	0xbdb725f8	-0.08942789
132	0xbe205bec	-0.15660065
133	0x3e4f4a91	0.20243289
134	0x3dc600b3	0.09668102
135	0xbe3925cc	-0.18080825
136	0x3da48ddb	0.08034869
137	0xbd9df33f	-0.07712411
138	0x3da5e35c	0.08100006
139	0xbc62abe5	-0.013834928
140	0xbdd37612	-0.103252545
141	0x3e4b9be0	0.1988368
142	0x3daf34b7	0.085549764
143	0x3d535d87	0.051602867
144	0x3d8528f0	0.06501949
145	0xbdfbe535	-0.12299577
146	0x3dcb6d40	0.09932947
147	0xbc50095b	-0.012697543
148	0xbd2a0ee3	-0.041518103
149	0x3e09446e	0.1340501
150	0xbdccc4e6	-0.09998493
151	0xbd8d9fee	-0.0691527
152	0x3d2be4dc	0.041966304
153	0x3b4988c5	0.0030751687
154	0xbd488857	-0.04895815
155	0x3e3651af	0.17804597
156	0xbe7c97e2	-0.24667314
157	0xbca5d9cd	-0.020245457
158	0x3db4df1a	0.08831616
159	0x3e05571f	0.13021515
160	0x3ba3dcb9	0.0050006774
161	0x3d5488e4	0.05188836
162	0xbd28a364	-0.041171446
163	0x3d509fe6	0.05093374
164	0x3d61568e	0.055014186
165	0xbd12d984	-0.03585197
166	0xbe101c90	-0.14073396
167	0xbde1df4f	-0.11028921
168	0x3e14868f	0.14504455
169	0x3e08e6a3	0.13369231
170	0x3dca1741	0.098677166
171	0x3d1bdfee	0.038055353
172	0xbc0b864c	-0.008515906
173	0x3cc41d2f	0.023939697
174	0xbe6b6d29	-0.2299086
175	0x3e2732ac	0.16327924
176	0x3e5df707	0.21676265
177	0x3d36c150	0.04461795
178	0x3d9dfbd9	0.07714052
179	0x3d67c56c	0.05658476
180	0x3d87413f	0.066042416
181	0xbcf3bb80	-0.029752493
182	0xbda29345	-0.07938246
183	0xbd947bfe	-0.07250212
184	0x3e04fc48	0.12986863
185	0x3e04f37e	0.1298351
186	0x3d0dfdd7	0.03466591
187	0xbe1c6568	-0.15273058
188	0xbd615382	-0.05501128
189	0xbcddf9e1	-0.02709669
190	0xbcc290ae	-0.02375063
191	0x3d646044	0.05575587
192	0xbd672071	-0.056427423
193	0xbd2e3767	-0.042533305
194	0x3d760728	0.06006542
195	0xbccad0f5	-0.024757842
196	0xbd55c0c6	-0.052185796
197	0x3d89d628	0.067303
198	0xbd0f4a41	-0.034982923
199	0x3cdf9545	0.027292857
200	0x3bdb580a	0.0066938447
201	0xbd2de31a	-0.04245291
202	0xbd44f1ca	-0.04808215
203	0xbe27ca51	-0.16385771
204	0xbd1a7655	-0.037710506
205	0x3e19a263	0.15003352
206	0xbd8ff40c	-0.0702897
207	0xbdbbd3eb	-0.091712795
208	0x3d8b373d	0.06797645
209	0xbd0c83e6	-0.034305476
210	0xbd2b18e3	-0.04177178
211	0xbc3f5e00	-0.011680126
212	0x3d229403	0.039691936
213	0xbd852a9f	-0.0650227
214	0xbd97a040	-0.07403612
215	0xbe1e699e	-0.15469977
216	0xbcb1c673	-0.021701073
217	0x3c78c9c6	0.015184825
218	0xbdbc3f17	-0.09191721
219	0x3cdfd0f9	0.027321326
220	0xbd457e3e	-0.048216097
221	0xbd04c2e4	-0.032412425
222	0xbe3f43c3	-0.18678193
223	0x3d8553fd	0.0651016
224	0xbde63542	-0.11240627
225	0xbaeff56b	-0.0018307393
226	0x3e234d31	0.15947415
227	0xbe033c4b	-0.12815969
228	0xbd934ebd	-0.071927525
229	0x3d5b51f1	0.053544942
230	0xbd0f2673	-0.034948777
231	0xbd8d7149	-0.06906373
232	0x3d3c7850	0.046013176
233	0x3c8a6d8e	0.016897943
234	0xbd1fe625	-0.039037842
235	0xbc611f68	-0.013740398
236	0x3e590407	0.21192943
237	0xbd77b559	-0.06047568
238	0x3d3cf319	0.046130273
239	0x3e0bffab	0.13671748
240	0x3e15b373	0.14619236
241	0x3c0e6047	0.0086899465
242	0xbb87f372	-0.004148894
243	0x3c9471d7	0.01812069
244	0x3e7ae398	0.24500883
245	0xbdafbbbb	-0.085807286
246	0x3c5f52a3	0.013630542
247	0xbd5d7be3	-0.054073226
248	0xbd38a784	-0.04508163
249	0x3d8198a6	0.063279435
250	0xbbdcb6b0	-0.0067356452
251	0x3beb1212	0.007173785
252	0xbd96577f	-0.07340907
253	0xbdebb34d	-0.11508808
254	0xbde8a055	-0.11358706
255	0x3e5814d5	0.21101697

value_mlp.mlp.0.bias f4 [256]
0	0xbe4654e1	-0.19368316
1	0x3e39dca0	0.18150568
2	0xbe0f5b15	-0.13999589
3	0xbd01e3ac	-0.031711265
4	0x3d96ddfa	0.073665574
5	0x3e007a92	0.12546757
6	0x3e39e820	0.18154955
7	0x3cf6e922	0.030140463
8	0xbd19cca9	-0.037548695
9	0xbd9a10fb	-0.0752277
10	0xbd7d30ed	-0.061814237
11	0xbd9ff74f	-0.07810842
12	0xbe639e44	-0.22228342
13	0x3c900246	0.017579209
14	0xbcd7739c	-0.026300244
15	0x3d3644b7	0.044499125
16	0x3d063c16	0.032772146
17	0x3cddfef3	0.027099108
18	0xbd40e56a	-0.047093786
19	0x3d33df65	0.043914218
20	0x3e1f2eec	0.15545243
21	0xbe8ae70b	-0.27129397
22	0xbd977765	-0.073958196
23	0x3c8b3b32	0.016996
24	0x3da38272	0.07983865
25	0xbdb27e80	-0.08715534
26	0xbabb1db5	-0.0014275821
27	0x3cb0fe08	0.021605507
28	0xbd163102	-0.03666783
29	0xbdd36ab1	-0.10323084
30	0x3dcfb5d1	0.101421006
31	0xbe0a9f29	-0.13537277
32	0xbc2ec92a	-0.010668078
33	0x3d229ffa	0.039703347
34	0x3de09cf8	0.109674394
35	0xbd46d23a	-0.04854033
36	0x3d55e320	0.052218556
37	0xbd3cc968	-0.046090513
38	0xbdf45b80	-0.11931515
39	0x3cfb6f6d	0.03069278
40	0x3e49ca47	0.19706069
41	0xbe21691b	-0.15762751
42	0x3d2dc35e	0.042422645
43	0x3e4b0b69	0.19828571
44	0x3d2cf142	0.04222227
45	0xbe7ed597	-0.24886166
46	0xbcf0431d	-0.029328877
47	0x3e83ab91	0.25716832
48	0x3e624648	0.22097123
49	0xbc833c8d	-0.016020084
50	0xbd45fa06	-0.048334144
51	0x3c372ce4	0.011180136
52	0xbd7f88c2	-0.06238628
53	0xbc9cae8c	-0.0191262
54	0xbbded3a2	-0.006800131
55	0xbd8f8279	-0.070073076
56	0x3dc9561a	0.09830876
57	0xbe19e10c	-0.15027255
58	0xbdf35095	-0.11880604
59	0x3d55cc7d	0.05219697
60	0xbdbf69ff	-0.09346389
61	0xbe44ebdc	-0.19230598
62	0x3ded44ef	0.11585414
63	0xbe5ca3e4	-0.21546894
64	0x3d8d1ecd	0.068906404
65	0xbd663fb9	-0.056213114
66	0x3c93d7e5	0.018047282
67	0xbc8bc70a	-0.017062683
68	0x3dee90b5	0.116486944
69	0xbd30d6f9	-0.043173764
70	0x3baa07ac	0.005188903
71	0x3db81e15	0.08990113
72	0x3e134862	0.1438308
73	0xbe3117c7	-0.17294227
74	0x3e0002f9	0.12501134
75	0x3e114d34	0.14189607
76	0xbd6071c7	-0.054796007
77	0x3bf31130	0.0074178204
78	0x3d59e0a7	0.05319276
79	0x3d9f1de9	0.07769377
80	0x3d902df0	0.07040012
81	0x3e57e7f4	0.21084577
82	0x3ca3278b	0.019916316
83	0xbbe4ce29	-0.006982584
84	0x3c97db9b	0.018537333
85	0xbe15dc08	-0.14634717
86	0xbd443cc2	-0.047909506
87	0xbe3aa4e5	-0.18226965
88	0xbd59d115	-0.05317791
89	0xbd8cd573	-0.0687665
90	0xbd33294b	-0.043740552
91	0xbe04779c	-0.12936252
92	0x3e03adba	0.1285924
93	0xbd5d9651	-0.05409843
94	0x3e385a73	0.18003254
95	0xbd43a62f	-0.047765907
96	0x3c95efab	0.01830276
97	0xbe08afdd	-0.13348337
98	0x3e0647e9	0.13113369
99	0xbd1a0ce4	-0.03760995
100	0x3a89aff8	0.0010504713
101	0xbdf38089	-0.118897505
102	0xbcd263ae	-0.025682297
103	0x3d52d3ba	0.05147145
104	0x3dee6556	0.11640422
105	0xbd878304	-0.06616786
106	0xbd1e0188	-0.03857568
107	0x3ddabd40	0.10680628
108	0x3d6121ab	0.05496375
109	0x3d5a1de1	0.05325115
110	0x3db6e635	0.08930627
111	0x3e122054	0.14270145
112	0xbd02eb94	-0.031962946
113	0x3d7b7443	0.061390173
114	0xbdf3f5a6	-0.11912088
115	0xbe3f580b	-0.1868593
116	0xbd8bbc89	-0.068230696
117	0x3cd1dcd8	0.025618002
118	0x3e115f0b	0.14196412
119	0xbe571949	-0.2100574
120	0xbcaf59ae	-0.021405067
121	0x3d8a3cbb	0.06749865
122	0xbca7da0b	-0.020489713
123	0xbd5ff6db	-0.05467878
124	0x3e346e8b	0.17620294
125	0xbe281e8b	-0.16417901
126	0xbd3f5d81	-0.04672003
127	0x3d22be57	0.039732303
128	0x3d2fac91	0.04288918
129	0xbdc68a03	-0.096942924
130	0xbd8466e9	-0.06464941
131	0xbd87a6c6	-0.066236064
132	0x3b32dec6	0.0027293428
133	0x3e3db745	0.18526943
134	0x3d829a98	0.06377143
135	0x3e494348	0.19654572
136	0x3cf0b411	0.029382737
137	0x3c8d6118	0.017258212
138	0x3d4a4c1b	0.049388986
139	0xbeac1e29	-0.3361676
140	0xbdd047b7	-0.101699285
141	0x3db4fe4e	0.08837567
142	0x3dc7630a	0.09735687
143	0x3a37ba52	0.000700866
144	0xbae06c02	-0.0017122033
145	0xbdc18bd9	-0.09450502
146	0x3d952d08	0.0728398
147	0x3c643751	0.013929204
148	0x3d4fba8a	0.050715007
149	0xbdac7b9d	-0.08422015
150	0x3ab2df30	0.0013646837
151	0xbd03083f	-0.031990286
152	0xbdf8bdb5	-0.12145559
153	0xbe2847a7	-0.16433583
154	0xbd4670db	-0.04844747
155	0x3e1b3860	0.15158224
156	0x3cd81a16	0.026379626
157	0x3d6a9f06	0.057280563
158	0xbe3df325	-0.18549784
159	0x3e33ccc4	0.1755858
160	0xbcbd70b3	-0.023125028
161	0xbda1da89	-0.079030104
162	0x3cddb53b	0.027063956
163	0x3dc8737f	0.09787654
164	0x3d30a60a	0.043127097
165	0xbe55b114	-0.20868331
166	0x3d088150	0.033326447
167	0x3ddf068e	0.10889922
168	0xbd9816c3	-0.074262165
169	0xbd832ff9	-0.064056344
170	0x3ded3ce5	0.1158388
171	0xbd47d99c	-0.048791513
172	0xbe281aa8	-0.16416419
173	0x3d9b8bb5	0.075950064
174	0x3c8647af	0.016391603
175	0xbc0c56ef	-0.008565648
176	0x3d81d40a	0.06339271
177	0xbd3212fc	-0.043475136
178	0x3be727dc	0.007054312
179	0xbe410e31	-0.1885307
180	0xbe369e07	-0.1783372
181	0xbd8a221b	-0.06744786
182	0xbccb43de	-0.024812635
183	0x3d5c89a4	0.0538422
184	0x3dd8dac9	0.10588605
185	0x3e32d0b4	0.17462426
186	0xbd337405	-0.043811817
187	0xbdecb126	-0.11557226
188	0xbe5302c8	-0.2060653
189	0x3d62afad	0.05534332
190	0xbcd403f3	-0.02588079
191	0xbe034d64	-0.12822491
192	0x3e00e582	0.1258755
193	0x3d90766d	0.07053838
194	0xbe47f2c8	-0.19526207
195	0x3cf09a1f	0.029370366
196	0xbc237b5c	-0.009978142
197	0x3e511639	0.20418634
198	0x3e3cebd7	0.18449341
199	0xbb38b09e	-0.0028181444
200	0xbc12c7c3	-0.00895876
201	0x3d05aaae	0.032633476
202	0xbdcd8993	-0.10036006
203	0x3e5da843	0.21646218
204	0x3d0db728	0.0345985
205	0x3d1526d1	0.03641397
206	0xbda9a510	-0.08283436
207	0xbdc25ab1	-0.09489954
208	0xbce69045	-0.028144965
209	0x3e08198d	0.13290997
210	0x3b06dcde	0.0020578424
211	0xbe6a9b6a	-0.22910848
212	0x3cf1676f	0.029468266
213	0x3c980cb9	0.018560754
214	0x3d6383ad	0.055545498
215	0xbdf9ac52	-0.121910706
216	0x3db115a3	0.08646705
217	0x3d97dd6d	0.074152805
218	0x3cc80e1f	0.024420796
219	0xbd5fbe6e	-0.054624967
220	0xbcacc429	-0.02108963
221	0xbd1bbc84	-0.03802158
222	0xbdee12ac	-0.11624655
223	0x3d1ed9d3	0.038781952
224	0xbeb1047f	-0.34573743
225	0x3dea17a7	0.114302926
226	0x3e482eb2	0.19549063
227	0xbe3c0505	-0.1836129
228	0x3d0db3ec	0.034595415
229	0xbb8c951b	-0.0042902357
230	0x3e8a1947	0.2697241
231	0x3e8d88b1	0.2764335
232	0x3d2a8829	0.04163376
233	0xbc49b373	-0.01231085
234	0x3e46aa00	0.19400787
235	0xbc2efa57	-0.010679803
236	0x3dce2efb	0.100675546
237	0xbdec152a	-0.11527474
238	0xbd1296ff	-0.035788532
239	0x3a02ec42	0.00049943116
240	0xbd840da5	-0.06447915
241	0x3e0c27db	0.13687079
242	0xbc8acc2e	-0.016943064
243	0x3c8c706e	0.017143454
244	0x3e40ffbd	0.18847556
245	0xbcfa2bcb	-0.03053846
246	0xbe16f002	-0.14739993
247	0xbe7d8f38	-0.24761665
248	0x3cad7f12	0.021178756
249	0x3c87a899	0.016559886
250	0x3e0c5369	0.13703693
251	0x3e3f0350	0.18653607
252	0xbe1f6fe1	-0.15570022
253	0x3dd087fb	0.10182186
254	0x3cc732a0	0.024316132
255	0xbe509c76	-0.20372185

value_mlp.mlp.2.weight f4 [128, 256]
0	0xbd9590af	-0.07302987
1	0xb9c2028d	-0.00037004464
2	0x3db7b28a	0.089696005
3	0xbbd22f74	-0.0064143483
4	0x3dcaff20	0.099119425
5	0x3dbcde0d	0.0922204
6	0xbdc39796	-0.09550397
7	0xbe52e270	-0.20594192
8	0xbd8bfd70	-0.06835449
9	0xbd17d31a	-0.037066557
10	0xbc8f5bab	-0.017499765
11	0xbd4897e3	-0.048972975
12	0x3dd90755	0.105971016
13	0xbe40475b	-0.1877722
14	0xbe0f5ed2	-0.14001015
15	0x3d9c9df2	0.07647313
16	0xbcc94ed3	-0.02457372
17	0x3d75c013	0.05999763
18	0xbcc510f0	-0.024055928
19	0xbe05fb0f	-0.13084053
20	0xbd79ecc7	-0.061016824
21	0xbe456fc0	-0.1928091
22	0x3d0d71a6	0.03453221
23	0x3e072cbd	0.1320066
24	0x3d80169d	0.06254313
25	0x3d6f9189	0.058488403
26	0xbdf32077	-0.118714266
27	0xbe0581ec	-0.13037843
28	0xbd26c011	-0.040710513
29	0x3cfe2223	0.031022137
30	0x3b8481f1	0.0040438105
31	0x3d456210	0.048189223
32	0x39a137f2	0.00030749995
33	0x3dfce31d	0.12348006
34	0x3d73df9c	0.059539422
35	0x3c9d8d97	0.019232554
36	0x3d8b94f4	0.0681552
37	0x3c7c7ca9	0.015410581
38	0x3cc919ee	0.024548497
39	0xbc5ed7af	-0.013601228
40	0x3b10f591	0.0022119025
41	0xbbb3c8c3	-0.005486579
42	0xbd736207	-0.059419658
43	0x3daf2ec0	0.08553839
44	0x3cf68441	0.03009236
45	0xbcebee97	-0.028800292
46	0x3e425c8b	0.18980615
47	0x3d8a8029	0.06762726
48	0xbd72d075	-0.05928083
49	0x3de79a58	0.113087356
50	0x3ded57e1	0.11589027
51	0xbc941279	-0.018075215
52	0xbe43de41	-0.19127752
53	0x3d4ee063	0.05050696
54	0xbd2c68e9	-0.042092238
55	0x3d83a176	0.064272806
56	0x3d83b687	0.06431299
57	0x3e1897cd	0.14901657
58	0xbdded33c	-0.108801335
59	0xbdb749de	-0.08949636
60	0x3c81497a	0.015782107
61	0x3c7649d7	0.015032253
62	0x3cdf81ff	0.027283667
63	0x3ceac1fe	0.028656956
64	0xb99d9509	-0.00030056413
65	0x3d282680	0.04105234
66	0x3ded4c35	0.11586801
67	0x3df84187	0.12121873
68	0xbb10c3db	-0.0022089395
69	0x3da4227c	0.0801439
70	0xbe2e6957	-0.17032371
71	0xbe103de0	-0.14086103
72	0xbccdc443	-0.025117999
73	0x3d8d1474	0.06888667
74	0xbe21f3ad	-0.15815611
75	0x3cea380d	0.02859118
76	0x3c0cd70f	0.008596196
77	0x3d8bdbf9	0.06829066
78	0xbc833363	-0.016015714
79	0xbdad016a	-0.08447535
80	0xbe17567e	-0.14779088
81	0xbd8faf0e	-0.07015811
82	0xbd492abd	-0.049113024
83	0x3ac07c32	0.0014685451
84	0x3df58475	0.11988155
85	0x3da4edc1	0.080531605
86	0xbd472382	-0.048617847
87	0xbd8a6b44	-0.067587405
88	0xbded65a5	-0.11591653
89	0x3e2b9383	0.1675549
90	0x3dba428c	0.09094724
91	0xbc316ccf	-0.010829165
92	0x3d641c68	0.055691153
93	0xbd467a0a	-0.04845623
94	0xbd2aba26	-0.04168143
95	0xbd98cc11	-0.074607976
96	0x3d17d417	0.0370675
97	0x3ba73ea8	0.0051039048
98	0x3d00035e	0.03125321
99	0xbe2b6cce	-0.16740724
100	0x3d00a18d	0.031404067
101	0x3d9321a7	0.07184153
102	0x3e55de7a	0.2088565
103	0x3e0ae9b1	0.13565709
104	0xbc41fe64	-0.011840437
105	0x3bc9b0ee	0.006155125
106	0x3cc12cae	0.023580875
107	0xbdbfe42b	-0.093696915
108	0x3e31124d	0.17292137
109	0x3df1d543	0.118082546
110	0x3d71fc88	0.059078723
111	0x3c72663b	0.014794881
112	0x3d620f3d	0.055190314
113	0xbdbda20f	-0.09259426
114	0x3ba4eaf0	0.0050328895
115	0xbe24d848	-0.1609813
116	0xbd9f6275	-0.07782451
117	0x3d39b3f8	0.045337647
118	0xbb36168b	-0.0027784433
119	0x3d69b475	0.057056863
120	0x3d807739	0.0627274
121	0x3e09a8da	0.13443318
122	0x3da1a32c	0.07892451
123	0xbd6ae629	-0.057348404
124	0xbe938048	-0.28808808
125	0x3c7530ab	0.014965217
126	0xbdcec313	-0.10095801
127	0xbd559b14	-0.052149847
128	0xbd7db976	-0.061944447
129	0xbdabd4df	-0.08390211
130	0x3d6ddbb5	0.058070857
131	0x3b3235c7	0.0027192698
132	0x3d542445	0.0517924
133	0xbd44ddbb	-0.04806302
134	0xbd56d1c8	-0.052446157
135	0xba9c333f	-0.0011917128
136	0xbdbe6c4b	-0.09297999
137	0xbdd22b7c	-0.102622
138	0x3cb5f53d	0.022211665
139	0xbc8b0407	-0.016969694
140	0xbcb70471	-0.022340985
141	0xbd4270b3	-0.04747076
142	0xbd61ed24	-0.055157796
143	0xbe1a871d	-0.15090604
144	0xbcf7c74a	-0.030246396
145	0xbc06b4fe	-0.008221863
146	0xbd24fd2f	-0.040280517
147	0x3e395168	0.1809746
148	0xbd32ebf4	-0.043682054
149	0x3be32b54	0.0069326553
150	0xbe181f8a	-0.14855781
151	0x3cb57a3b	0.02215301
152	0x3d65bd03	0.05608846
153	0x3d6f4bc5	0.05842187
154	0xbbd86a15	-0.006604443
155	0x3d805491	0.0626613
156	0x3dd631ba	0.10458703
157	0x3cdecc40	0.027197003
158	0x3e38783a	0.18014613
159	0x3d18566d	0.037191797
160	0x3cb675b2	0.022272918
161	0xbcc37789	-0.02386071
162	0xbd2c7d8c	-0.04211192
163	0x3dd74fab	0.10513242
164	0x3d56a839	0.052406523
165	0xbc2b8ead	-0.010471028
166	0xbce87467	-0.028375817
167	0x3dc81597	0.09769743
168	0x3d927faa	0.07153256
169	0x3daffdb4	0.08593312
170	0x3e68cce2	0.22734407
171	0xbe0473c0	-0.1293478
172	0x3c0df253	0.008663732
173	0xbd577792	-0.052604266
174	0x3c23d21b	0.0099988235
175	0x3c9828bd	0.018574113
176	0x3b2897d7	0.002572527
177	0xbd5a9a2b	-0.053369682
178	0xbd93f5ef	-0.072246425
179	0x3d869504	0.06571391
180	0xbde7876e	-0.11305128
181	0xbdd9f903	-0.10643198
182	0x3dee432e	0.11633907
183	0xbd19e5f8	-0.03757283
184	0x3e705419	0.2346958
185	0x3d428db3	0.047498416
186	0xbd299773	-0.0414042
187	0x3df2c2be	0.118535504
188	0x3b2164f3	0.002462682
189	0xbcf32485	-0.0296805
190	0xbcfced1e	-0.030874785
191	0x3db178f3	0.08665647
192	0xbda56edb	-0.08077785
193	0x3dccf710	0.10008061
194	0x3c93013d	0.017944926
195	0xbdf2fc30	-0.11864507
196	0x3dafca1b	0.085834704
197	0x3dc51ad7	0.0962426
198	0xbd8b1af1	-0.06792248
199	0xbcce021f	-0.025147496
200	0x3b6fd477	0.0036595145
201	0x3d5197c5	0.05117013
202	0x3d9ae323	0.07562854
203	0xbd64bbb2	-0.055843063
204	0xbc4ab439	-0.01237207
205	0xbe0201c8	-0.12695992
206	0xbdc200a8	-0.094727814
207	0xbe06c25e	-0.13160083
208	0x3d8f917f	0.07010173
209	0xbb930774	-0.0044869725
210	0x3c0b47ac	0.008500975
211	0x3e069c53	0.1314557
212	0x3d214310	0.039370596
213	0x3d7dcb51	0.061961476
214	0xbde2f4a9	-0.110818215
215	0x3dae5b46	0.08513503
216	0xbe3d935a	-0.18513241
217	0x3cda1654	0.026621975
218	0xbd8ca0fa	-0.06866641
219	0x3cb871de	0.022515234
220	0xbc470f56	-0.0121496525
221	0x3e4b1a46	0.19834241
222	0x3d1c603f	0.038177725
223	0x3dcc4314	0.09973732
224	0x3cec1510	0.028818637
225	0xbd6ae149	-0.057343755
226	0xbe5c68c3	-0.21524338
227	0xbda36eb7	-0.079801016
228	0x3d5fe5a1	0.05466235
229	0x3dac232a	0.084051445
230	0xbd2969b0	-0.041360557
231	0xbdfe3403	-0.12412264
232	0xbda0b3bc	-0.078467816
233	0xbd5e47a1	-0.05426753
234	0x3dbf9de3	0.093562864
235	0xbc16a233	-0.009193945
236	0x3e206c62	0.15666345
237	0xbe208565	-0.15675886
238	0x3dd24505	0.10267071
239	0xbe009b53	-0.12559251
240	0x3c9e4055	0.019317785
241	0x3ce71ce0	0.02821201
242	0x3cad503f	0.021156428
243	0xbcc175b7	-0.023615701
244	0xbd1df375	-0.038562257
245	0xbdf21613	-0.118206166
246	0x3d902946	0.07039122
247	0xbd9e1deb	-0.0772055
248	0x3da716fc	0.08158681
249	0x3c9e427c	0.019318812
250	0xbb877cf5	-0.004134769
251	0xbda03294	-0.07822147
252	0x3e02b2ac	0.1276347
253	0xbbf8a786	-0.0075883297
254	0x3cf8c12b	0.030365547
255	0xbd3230d6	-0.043503605

value_mlp.mlp.2.bias f4 [128]
0	0x3d519c1c	0.051174268
1	0xbd57f3f3	-0.052722882
2	0x3d51f974	0.051263288
3	0x3cc74e39	0.024329292
4	0xbdbdebf2	-0.092735186
5	0xbda66054	-0.08123842
6	0xbd3f433e	-0.046694987
7	0xbd242df6	-0.040082894
8	0x3d9e3beb	0.07726272
9	0xbe175c2c	-0.14781255
10	0xbdb7fd5a	-0.0898387
11	0xbd26a19d	-0.04068147
12	0x3d43e9f5	0.04783054
13	0xbd39708d	-0.045273352
14	0xbd8bec28	-0.068321526
15	0xbab63fd2	-0.0013904518
16	0xbe214ac2	-0.15751174
17	0xbe433d47	-0.19066344
18	0xbdbcf561	-0.0922649
19	0xbda0d867	-0.078537755
20	0x3d82ecb1	0.063928016
21	0xbca0d935	-0.019634822
22	0xbd8052d2	-0.06265797
23	0xbac613cf	-0.0015112105
24	0xbceae678	-0.02867435
25	0xbb582f2e	-0.0032987106
26	0x3d97d5d4	0.07413831
27	0x3b1bd7b9	0.0023779704
28	0xbd9ed848	-0.07756096
29	0xbd9dde4c	-0.077084154
30	0xbd41a577	-0.04727694
31	0xbdc21c03	-0.09477999
32	0x3d0a9dbf	0.033841845
33	0xbd806a76	-0.06270306
34	0x3d5789f1	0.052621786
35	0xbdc67e86	-0.09692101
36	0xbe0b4289	-0.135996
37	0xbcc34295	-0.02383546
38	0x3cdf4246	0.027253281
39	0xbe7f3095	-0.24920876
40	0xbd15a1d8	-0.0365313
41	0xbd65b764	-0.056083098
42	0xbe775754	-0.24154407
43	0xbc30cf66	-0.010791635
44	0x3d55c651	0.052191082
45	0xbcb11e8a	-0.021621007
46	0xbc6994c8	-0.014256664
47	0xbe60d45b	-0.21956007
48	0x3c832320	0.01600796
49	0xbdf5b6ea	-0.11997779
50	0x3d36996f	0.04457992
51	0xbe062bc0	-0.13102627
52	0xbd73acdd	-0.059491027
53	0xbcdf73f5	-0.027276972
54	0xbd3cab7f	-0.04606199
55	0xbdf113d3	-0.11771359
56	0x3d2ddaa6	0.042444848
57	0xbd15c870	-0.036568105
58	0x3d3d99ef	0.04628938
59	0xbdde49bf	-0.1085391
60	0xbda11e9a	-0.07867165
61	0xbda1ec70	-0.07906425
62	0x3b9c3209	0.004766707
63	0x3d652849	0.055946622
64	0xbcaa4ab7	-0.02078758
65	0xbd2a29ca	-0.04154376
66	0xbc58dd8f	-0.013236417
67	0xbc95c2ee	-0.018281426
68	0x3c8fa8e8	0.017536595
69	0x3d74c791	0.059760634
70	0xbe4d9d3a	-0.20079508
71	0xbaf6a9f0	-0.0018818956
72	0xbdd0f4ad	-0.10202918
73	0x3da157ea	0.078780964
74	0x3d570113	0.05249126
75	0x3bbe059c	0.0057990085
76	0x3d87cfff	0.06631469
77	0xbd76548b	-0.06013922
78	0x3c3f934b	0.011692832
79	0xbd7d93a4	-0.06190838
80	0xbc985004	-0.018592842
81	0xbba61877	-0.0050688344
82	0xbe08d3dd	-0.1336207
83	0xbe14ed94	-0.14543754
84	0xbd44daef	-0.048060354
85	0xbb38c0da	-0.002819112
86	0xbd9a1160	-0.07522845
87	0xbdf3c2aa	-0.119023636
88	0x3d6104ae	0.054936104
89	0x3d647917	0.055779543
90	0xbd212a57	-0.03934702
91	0xbda7a648	-0.081860125
92	0x3d973ec3	0.07385018
93	0xbd08292c	-0.03324239
94	0xbd8cce1d	-0.068752505
95	0xbd58969e	-0.052878015
96	0xbd859a75	-0.06523601
97	0x3d197c1e	0.037471883
98	0xbd46d07d	-0.048538674
99	0x3ca1995e	0.019726451
100	0xbe035278	-0.12824428
101	0xbd9a2aad	-0.07527671
102	0xbc50bf0e	-0.0127408635
103	0xbe0ac1f1	-0.13550545
104	0x3d00778c	0.03136401
105	0x3c3273c2	0.010891857
106	0x3ceb31d4	0.028710283
107	0xbda69fcd	-0.08135948
108	0xbdca6cc5	-0.098840274
109	0xbda81fe6	-0.08209209
110	0xbe047c4d	-0.12938042
111	0x3d419e67	0.047270205
112	0xbd5641cc	-0.052308843
113	0xbd90909e	-0.070588335
114	0xbd995d62	-0.074885145
115	0x3d765730	0.060141742
116	0x3cad4ac5	0.021153817
117	0xbd603789	-0.054740462
118	0xbdc90063	-0.09814527
119	0xbd1cdb22	-0.03829492
120	0xbd04438f	-0.03229099
121	0xbdcac47f	-0.0990076
122	0x3d6a8944	0.057259813
123	0x3d823fea	0.06359847
124	0xbca3e7a0	-0.020007908
125	0xbcb1c491	-0.021700175
126	0xbc8ee8f1	-0.01744506
127	0xbd44a03d	-0.048004378
