assets/models/trace.pth (torch, 332209 bytes, 25 tensors)

sigma f4 [6]
0	0x3cdb51e1	0.026772441
1	0x3d94351d	0.07236693
2	0xbc38dad8	-0.011282645
3	0x3db1a08c	0.086732
4	0x3e2dd370	0.16975188
5	0xbf0d955e	-0.5530604

actor_mlp.mlp.0.weight f4 [256, 27]
0	0xbe1dfef2	-0.15429285
1	0x3e6b04f0	0.22951102
2	0xbcc160a1	-0.023605647
3	0x3dfb09fb	0.12257763
4	0x3d4141ce	0.047181897
5	0x3e1305cd	0.14357682
6	0xbcbbfd08	-0.022947803
7	0x3e87ef6d	0.26549855
8	0x3dcdf9d5	0.10057417
9	0xbd541bba	-0.051784255
10	0xbe903418	-0.28164744
11	0xbe13a5f9	-0.14418782
12	0xbe8904d5	-0.267615
13	0x3e6ecb48	0.23319733
14	0xbc844ee1	-0.016150894
15	0xbe2b28d8	-0.167148
16	0xbe30fc23	-0.17283683
17	0xbd3fa404	-0.046787277
18	0xbdbd1836	-0.092331335
19	0xbed84427	-0.42239496
20	0x3ee94043	0.4555684
21	0x3e180880	0.14846992
22	0xbdd16aea	-0.1022547
23	0xbce2b2a4	-0.027673073
24	0xbea45197	-0.32093498
25	0xbdefab8e	-0.11702643
26	0x3df0f349	0.11765153
27	0x3c58cd5e	0.013232557
28	0x3d992457	0.074776344
29	0xbd817d19	-0.063226886
30	0x3ec6f0a9	0.38855484
31	0xbe64adb0	-0.22331882
32	0x3e9dfb74	0.30855906
33	0xbe9e6868	-0.3093903
34	0xbe1ad689	-0.15120901
35	0x3eb2c946	0.34919184
36	0xbdde005d	-0.10839913
37	0x3e4179a6	0.18894061
38	0x3d9cd13a	0.07657094
39	0x3ddfbf02	0.10925104
40	0x3e85eed0	0.26158762
41	0x3de98092	0.11401476
42	0xbd798724	-0.060919896
43	0x3e83f03b	0.2576922
44	0xbe169a3e	-0.14707276
45	0xbdb8bfac	-0.090209335
46	0xbe5dd75f	-0.21664189
47	0x3eb9c8d7	0.3628604
48	0xbd9fe109	-0.07806594
49	0x3e2a159e	0.16609809
50	0xbda6c4bb	-0.08142992
51	0x3ebd2597	0.3694274
52	0x3e318db4	0.17339212
53	0x3e5afc25	0.21385248
54	0xbe922031	-0.28540185
55	0x3ebb3e4d	0.3657097
56	0xbe6381dd	-0.22217508
57	0x3e0edfec	0.13952607
58	0x3d79acc2	0.06095577
59	0xbe67b95d	-0.22629304
60	0x3bf4901e	0.007463469
61	0x3e982ff6	0.2972409
62	0xbd38ceaf	-0.045118984
63	0x3d2a3adb	0.041560035
64	0xbe8b3513	-0.2718893
65	0xbd8b1564	-0.06791189
66	0xbd1865fb	-0.03720663
67	0xbc3cbb48	-0.011519261
68	0xbe524708	-0.20534909
69	0x3cad0797	0.021121783
70	0x3dfd031a	0.12354107
71	0xbe4f926c	-0.202707
72	0x3ecf2d5b	0.4046429
73	0xbc48e107	-0.012260682
74	0xbdddbdc5	-0.10827211
75	0x3de15d42	0.11004116
76	0xbe4f470e	-0.20241949
77	0xbd5de8c5	-0.054177064
78	0xbe70ca85	-0.23514755
79	0x3e31c7d4	0.17361385
80	0xbe330294	-0.17481452
81	0x3ed60d72	0.41807133
82	0xbd4bd732	-0.049765773
83	0xbe30956b	-0.17244498
84	0xbc307726	-0.010770595
85	0xbe2562ee	-0.1615102
86	0xbdaa495e	-0.08314775
87	0xbd0f2389	-0.034946
88	0xbdd4304e	-0.10360776
89	0xbdeab225	-0.114597596
90	0x3d3fd494	0.04683359
91	0x3dcaadbf	0.09896421
92	0x3e07ffc2	0.13281158
93	0x3e98ada7	0.29819986
94	0x3d0bba1e	0.034113042
95	0xbe4cdf73	-0.20007114
96	0x3d576378	0.052585095
97	0x3e6dbbfb	0.2321624
98	0x3eca3301	0.39492038
99	0xbeaf17cf	-0.34197852
100	0x3ddaeeba	0.10690065
101	0xbea0142b	-0.31265387
102	0xbe88a246	-0.26686305
103	0x3d4f2041	0.05056787
104	0x39c4d68a	0.00037543877
105	0xbd3a866f	-0.045538362
106	0xbd669429	-0.05629364
107	0x3e2eff3d	0.17089553
108	0x3e92b056	0.2865016
109	0xbdf71d38	-0.1206612
110	0xbef24d3d	-0.47324553
111	0xbe8c2f31	-0.27379754
112	0x3d841373	0.06449022
113	0xbd5d69c1	-0.054055933
114	0xbd3e2d0e	-0.046429686
115	0x3bff0fa6	0.007783848
116	0xbe491782	-0.19637874
117	0xbbc6253b	-0.0060469187
118	0x3d6ccbc1	0.057811502
119	0x3d40853f	0.047002073
120	0x3e6c26ef	0.23061727
121	0xbdb698dd	-0.08915875
122	0xbb436213	-0.0029813095
123	0xbea046f9	-0.31304148
124	0xbdb20dd7	-0.08694046
125	0x3edd7bf4	0.4325863
126	0x3da59011	0.08084119
127	0x3e9092b5	0.2823693
128	0xbee56c34	-0.44809115
129	0xbe0ab12c	-0.13544148
130	0xbe41bfa3	-0.1892076
131	0xbdc41462	-0.095742
132	0xbe40b8ba	-0.18820468
133	0x3d9250f1	0.071443446
134	0xbd2ddcbd	-0.04244684
135	0xbc7fea74	-0.015619863
136	0xbe11fdd7	-0.14256988
137	0x3d1db30f	0.03850084
138	0x3de3369b	0.110943995
139	0xbdfeac68	-0.12435228
140	0xbdf4741d	-0.11936209
141	0xbe046c15	-0.12931855
142	0xbd6b3840	-0.05742669
143	0xbd118ab3	-0.035532665
144	0x3e12e9e2	0.14347032
145	0xbc6cd5f8	-0.014455311
146	0xbd2f7315	-0.04283436
147	0x3de0b96d	0.10972867
148	0xbd36dfe6	-0.04464712
149	0xbe36826f	-0.17823194
150	0xbe049869	-0.12948765
151	0x3e6e7393	0.23286276
152	0x3cd7ac1c	0.026327185
153	0xbee9d259	-0.45668295
154	0xbea74fb1	-0.32677987
155	0xbe1c7dc0	-0.15282345
156	0xbd9ac99e	-0.07557987
157	0x3e0d792d	0.13815756
158	0x3e0d948d	0.13826199
159	0xbe380659	-0.17971171
160	0xbe08844d	-0.13331719
161	0x38cb3b69	9.69086e-05
162	0x3eaa7194	0.33289778
163	0xbdcb8578	-0.099375665
164	0xbe0b5a15	-0.13608582
165	0x3dc6fc26	0.09716062
166	0xbcba5132	-0.022743795
167	0xbdf296ee	-0.11845194
168	0xbdde945c	-0.10868141
169	0xbe5bcf05	-0.2146569
170	0xbe123b90	-0.14280534
171	0xbd7c2026	-0.061554097
172	0x3e102064	0.14074856
173	0x3da5aa27	0.080890946
174	0xbbc710ab	-0.006074985
175	0xbde52eb3	-0.11190548
176	0x3dfdcc28	0.12392455
177	0xbeb6bd14	-0.3569113
178	0xbd4cf3cf	-0.0500372
179	0x3de978b0	0.113999724
180	0xbedc9be6	-0.4308769
181	0xbe2a2e53	-0.16619234
182	0xbdf4c047	-0.119507365
183	0xbd97ee9f	-0.0741856
184	0xbd5c0e9a	-0.053724863
185	0xbe3e239e	-0.18568274
186	0xbeeb3be2	-0.45944124
187	0xbdd8c97c	-0.10585305
188	0xbdcd63f5	-0.10028831
189	0x3f0ddb53	0.5541279
190	0x3dca3df3	0.09875097
191	0xbe6f7ed8	-0.23388231
192	0x3e9be63e	0.30449098
193	0xbe37c6dd	-0.17946954
194	0x3d651f2a	0.055937923
195	0xbe328a95	-0.17435677
196	0xbe270f3c	-0.16314405
197	0xbe42133f	-0.18952654
198	0x3dae1c5f	0.08501505
199	0x3ddc58f6	0.107591555
200	0xbe280c1f	-0.16410874
201	0x3d6c7b08	0.05773452
202	0x3e584268	0.21119082
203	0x3e27032e	0.16309807
204	0xbe8e18dc	-0.2775334
205	0x3d400657	0.046881046
206	0x3bbc53f0	0.005747311
207	0xbe88daaa	-0.26729327
208	0x3db85a10	0.09001553
209	0xbdb48dee	-0.088161334
210	0xbb905c5e	-0.0044055423
211	0xbd5c2f33	-0.05375595
212	0xbde077b8	-0.109603345
213	0xbe27f912	-0.16403607
214	0xbe17ef77	-0.14837442
215	0x3cafefd7	0.02147667
216	0x3e302ca7	0.17204534
217	0xbe9ebe21	-0.31004432
218	0xbe6c9cf8	-0.23106754
219	0x3e5252ba	0.2053937
220	0xbe1e1821	-0.15438892
221	0x3e35a67a	0.17739287
222	0xbd45d984	-0.048303142
223	0xbd86e1ed	-0.06586061
224	0x3caa42fd	0.020783896
225	0xbdc53976	-0.096301004
226	0x3e595253	0.2122281
227	0xbd0b44f7	-0.034001317
228	0x3dc7dc65	0.09758834
229	0x3e97f90c	0.29682195
230	0x3e249232	0.16071394
231	0xbdb83743	-0.08994915
232	0x3d911508	0.070840895
233	0x3c0e23ab	0.008675496
234	0xbeaa6d4d	-0.33286515
235	0xbe1f6fce	-0.15569994
236	0xbdb95fad	-0.09051452
237	0xbeb04b55	-0.34432474
238	0x3da94589	0.08265216
239	0xbcb608d7	-0.022221012
240	0x3e8c5ea6	0.2741596
241	0x3ea519f4	0.32246363
242	0xbc9b887b	-0.018985977
243	0xbcfaa300	-0.030595303
244	0x3e2e5722	0.17025426
245	0x3edab608	0.42717004
246	0x3e4f46d6	0.20241866
247	0x3d6326d7	0.055456962
248	0x3d71e571	0.059056703
249	0x3e3e642d	0.18592902
250	0x3cf0fea3	0.029418295
251	0x3e3cafb1	0.18426396
252	0xbc05a87f	-0.008157848
253	0x3e0deb69	0.13859333
254	0xbe6c9a7c	-0.23105806
255	0xbe1333cf	-0.14375232

actor_mlp.mlp.0.bias f4 [256]
0	0x3e563e5b	0.20922224
1	0xbdf8d559	-0.12150068
2	0xbc1a71fc	-0.00942659
3	0x3a493e9e	0.0007676872
4	0xbce2d407	-0.027688993
5	0xbe88021a	-0.26564103
6	0xbdd9d559	-0.10636396
7	0xbd9ec428	-0.077522576
8	0xbe84d643	-0.2594472
9	0x3e1cd3b3	0.15315132
10	0xbe458fc4	-0.19293123
11	0xbe3aa40d	-0.18226643
12	0xbdfd6b12	-0.12373938
13	0xbdfc75b4	-0.123271376
14	0x3e3f9aae	0.1871135
15	0x3b899832	0.0041990513
16	0xbdc5e6a8	-0.09663135
17	0x3d50bbf8	0.05096051
18	0xbbca7b27	-0.0061792317
19	0xbec77bc4	-0.38961613
20	0xba839118	-0.0010037748
21	0xbe434ac8	-0.19071496
22	0xbe02c01a	-0.12768593
23	0x3ca1ef48	0.019767419
24	0xbe5eb2ab	-0.21747844
25	0x3cbd3e1a	0.023100901
26	0xbe08b663	-0.13350825
27	0x3e4e14f8	0.20125186
28	0xbd7586ba	-0.05994294
29	0xbc31de5a	-0.010856235
30	0x3e115d35	0.14195712
31	0x3d115466	0.03548088
32	0xbe0d579b	-0.1380295
33	0x3e138503	0.14406209
34	0xbe339ea0	-0.1754098
35	0xbdee0618	-0.11622256
36	0xbe1bcf7d	-0.15215869
37	0xbde693a5	-0.1125863
38	0xbd514f25	-0.05110087
39	0xbe373518	-0.17891347
40	0x3cd8efcf	0.026481537
41	0xbde8ca35	-0.11366693
42	0xbd2149e3	-0.039377104
43	0x3de4999f	0.111621134
44	0x3d1471f8	0.0362415
45	0xbe6abfab	-0.22924678
46	0x3d17c6c9	0.03705481
47	0x3e9db458	0.30801654
48	0xbdb1c215	-0.08679596
49	0xbb62c4d6	-0.0034602187
50	0xbe2afbba	-0.16697589
51	0xbdb902b0	-0.09033716
52	0xbcaba891	-0.020954402
53	0xbd7c5eb3	-0.06161375
54	0xbd1b1cff	-0.03786945
55	0x3d2cde72	0.042204328
56	0xbe7530c7	-0.23944388
57	0x3d5b949f	0.053608533
58	0x3e64d5fa	0.2234725
59	0xbd0a0934	-0.033700183
60	0xbde60af7	-0.1123256
61	0x3d431f9b	0.047637563
62	0xbe614f3f	-0.22002886
63	0x3d4d1da0	0.05007708
64	0xbdd106d4	-0.102063805
65	0xbd954c85	-0.072899856
66	0xbd6a441e	-0.057193868
67	0xbdc54515	-0.09632317
68	0x3b3b7f5e	0.0028609852
69	0x3db566a5	0.088574685
70	0xbe4cb57b	-0.19991104
71	0xbd1b67d3	-0.03794081
72	0xbe282021	-0.16418506
73	0xbd8584ec	-0.065194935
74	0xbea9df06	-0.33177966
75	0xbe3a6452	-0.18202332
76	0x3cecfecd	0.028930092
77	0xbd2c6463	-0.042087924
78	0xbe91c573	-0.28470954
79	0x3d877b06	0.06615262
80	0xbeacd27b	-0.33754334
81	0x3c2fa920	0.010721475
82	0x3e04365c	0.12911361
83	0xbd9b58c6	-0.075852916
84	0x3cb91ed4	0.022597708
85	0xbdece231	-0.1156658
86	0xbe4c1987	-0.19931613
87	0xbe4d8a4a	-0.20072284
88	0x3e157209	0.14594282
89	0xbaf6f823	-0.0018842261
90	0x3de5912c	0.1120933
91	0xbda8a1b3	-0.08233967
92	0x3e06cf70	0.13165069
93	0xbea4a1dc	-0.3215474
94	0x3da263f3	0.0792922
95	0xbe1e9760	-0.15487432
96	0xbe18d6e8	-0.1492573
97	0x3dc49e4f	0.096005075
98	0x3d11f6ad	0.03563564
99	0xbda9bf5d	-0.08288453
100	0x3e0833b5	0.13300975
101	0xbdcfb17f	-0.101412766
102	0x3d9c010d	0.07617388
103	0xbe272e00	-0.16326141
104	0x3c829e52	0.015944634
105	0x3e04602b	0.1292731
106	0x3d90f58a	0.07078083
107	0xbd03c04e	-0.032165818
108	0xbe560529	-0.20900406
109	0xb9b63e53	-0.0003476018
110	0xbe1451dc	-0.14484352
111	0xbdaacc2e	-0.083397254
112	0x3a39e407	0.00070911687
113	0x3cd97b02	0.026547913
114	0xbd69c870	-0.057075918
115	0x3e1a7605	0.15084083
116	0xbdb534d9	-0.088479705
117	0xbe509086	-0.20367631
118	0x3dbc9341	0.09207774
119	0xbe508d6d	-0.2036645
120	0xbdb0fb96	-0.08641736
121	0x3d408664	0.047003165
122	0x3e0d115a	0.1377615
123	0xbe2bb078	-0.16766536
124	0x3e7cf6f1	0.24703576
125	0xbd3ac707	-0.045599964
126	0x3dadaba6	0.08480005
127	0xbdc03081	-0.093842514
128	0x3dbe422b	0.09289964
129	0x3d9787a1	0.07398916
130	0xbc5dbd43	-0.013533893
131	0xbdf4bc7a	-0.119500116
132	0x3e169f72	0.14709261
133	0xbe30105b	-0.17193739
134	0x3dedc6da	0.116101936
135	0x3e77da6c	0.24204415
136	0xbd6f066e	-0.05835574
137	0x3e3a6f03	0.1820641
138	0x3d4cdb92	0.050014086
139	0xbe32c3ee	-0.17457554
140	0xbe2e1900	-0.17001724
141	0xbdea0860	-0.11427379
142	0x3dc4f32f	0.09616696
143	0x3d6e6eb6	0.05821105
144	0x3d553c1f	0.05205929
145	0xbe6331c1	-0.22186948
146	0x3d3a6fea	0.045516886
147	0x3e0283e9	0.12745632
148	0x3dccb788	0.09995943
149	0xbe2573ce	-0.16157457
150	0x3dd8814d	0.10571537
151	0x3d64cc9a	0.055859186
152	0xbdee2815	-0.11628739
153	0x3e648c54	0.22319156
154	0x3e0296dd	0.12752862
155	0xbe3e0e38	-0.18560112
156	0x3ea6b023	0.32556257
157	0x3dc6cb5d	0.09706757
158	0x3e2a1141	0.16608144
159	0xbdd3d642	-0.10343601
160	0xbe243772	-0.16036776
161	0x3c8efbb8	0.017454013
162	0xbdad2efb	-0.084562264
163	0xbced93d1	-0.029001148
164	0xbd8e46dd	-0.0694711
165	0xbe8b513d	-0.27210417
166	0x3e1504f7	0.14552675
167	0x3e02ff19	0.12792625
168	0x3e0d5878	0.1380328
169	0xbe60e249	-0.21961321
170	0xbe206008	-0.15661633
171	0xbd71cda2	-0.059033997
172	0xbdda1047	-0.10647636
173	0xbdfb857a	-0.12281318
174	0x3d5c626b	0.053804796
175	0x3e05a856	0.13052496
176	0x3e16710d	0.14691563
177	0x3bc9b1ff	0.006155252
178	0xbdaca2f9	-0.08429522
179	0xbdffa5c9	-0.12482793
180	0xbe5732d0	-0.21015477
181	0xbe07c89f	-0.13260125
182	0xbe54917d	-0.20758624
183	0xbe3c9e03	-0.18419652
184	0xbd87cecb	-0.066312395
185	0xbe97a4d4	-0.2961794
186	0x3d8191a5	0.063266076
187	0x3da87a79	0.08226485
188	0x3ea5645b	0.32303128
189	0x3de5c762	0.1121967
190	0x3d230d7b	0.039807778
191	0x3d975595	0.0738937
192	0x3d22f194	0.039781168
193	0x3e41c5ba	0.18923083
194	0x3de04574	0.10950747
195	0xbd7c5ad5	-0.06161006
196	0x3e9353e9	0.28774956
197	0x3d7a6dcf	0.061139878
198	0xbda9a59c	-0.082835406
199	0x3df319a7	0.11870127
200	0x3d40eea1	0.047102574
201	0xbe13f8e5	-0.14450414
202	0xbe93a9c0	-0.28840446
203	0xbd295a1a	-0.041345693
204	0x3dececad	0.1156858
205	0x3dbcb978	0.09215063
206	0xbd622c18	-0.055217832
207	0x3dac1c34	0.08403817
208	0xbe70def1	-0.23522545
209	0xbe6d7c37	-0.23191915
210	0x3dfdddaf	0.123957984
211	0xbd9309dc	-0.07179615
212	0x3e8172a2	0.2528277
213	0xbcf4679a	-0.029834557
214	0xbd84359f	-0.0645554
215	0xbdf8bdb4	-0.12145558
216	0x3b573431	0.0032837505
217	0x3c7ab772	0.015302526
218	0xbe2aee0c	-0.1669237
219	0x3dd2922e	0.10281788
220	0xbdc572b4	-0.096410185
221	0x3e0b24ed	0.13588305
222	0xbe95f58c	-0.292889
223	0x3e8a2a63	0.26985464
224	0x3e1f574c	0.15560645
225	0x3e37c1e8	0.17945063
226	0x3dfed504	0.12442973
227	0x3ce8a274	0.028397776
228	0xbe12a152	-0.14319351
229	0xbd078e44	-0.03309466
230	0xbda2cb4c	-0.07948932
231	0x3e122d2f	0.14275049
232	0x3de325ac	0.1109117
233	0xbe243d7a	-0.16039076
234	0xbe3718de	-0.1788058
235	0xbe288c52	-0.16459778
236	0xbea59568	-0.3234055
237	0x3e2d3c33	0.16917495
238	0x3da8e7ea	0.08247359
239	0x3d37fa72	0.044916578
240	0x3d061255	0.032732327
241	0xbe4eb743	-0.20187096
242	0x3db8169e	0.08988689
243	0x3e839247	0.25697538
244	0xbd204078	-0.039123982
245	0xbe4a7ad5	-0.19773419
246	0xbdb2871f	-0.087171786
247	0x3ddab2f2	0.10678662
248	0x3d309fb3	0.04312105
249	0xbcee85e8	-0.029116586
250	0x3df831b1	0.12118853
251	0x3d1d5c23	0.038417947
252	0x3dbef45a	0.0932395
253	0xbe08ed25	-0.13371713
254	0x3e9c918d	0.30579796
255	0xbd40086b	-0.046883028

actor_mlp.mlp.2.weight f4 [128, 256]
0	0xbd49584a	-0.049156465
1	0xbd4e0c5c	-0.050304756
2	0x3e80d0e0	0.2515936
3	0xbdcfa419	-0.10138721
4	0xbd800c49	-0.06252343
5	0x3deb2544	0.11481717
6	0xbd978a24	-0.07399395
7	0xbdef32cd	-0.11679611
8	0xbd90e497	-0.0707485
9	0xbe21835a	-0.15772763
10	0xbc6087f1	-0.013704286
11	0xbe6f1a7a	-0.23349944
12	0x3cd7f0a3	0.026359862
13	0xbdda3b48	-0.10655838
14	0xbc79222a	-0.015205899
15	0x3e19a078	0.1500262
16	0x3c9dc091	0.019256862
17	0xbd87f46a	-0.06638415
18	0xbe106348	-0.14100373
19	0xbd2b069b	-0.041754346
20	0x3c66c2fc	0.014084574
21	0x3d8bfcbd	0.068353154
22	0xbe1b5ad9	-0.15171374
23	0x3e26c6fb	0.16286843
24	0xbde0b0e6	-0.10971241
25	0xbe0e06d4	-0.13869792
26	0x3dea95e8	0.114543736
27	0xbe19ce7a	-0.15020171
28	0x3e5f98cd	0.21835633
29	0x3dc3deb3	0.09563961
30	0xbe12f48a	-0.14351097
31	0x3e441f11	0.19152476
32	0x3cd43c4a	0.025907654
33	0xbc3ea37c	-0.011635657
34	0xbd92d17c	-0.07168862
35	0xbc366949	-0.0111335
36	0xbe299a0c	-0.1656267
37	0xbe4ffa04	-0.20310217
38	0xbd109f7f	-0.035308357
39	0x3e82a1cb	0.25514063
40	0x3d54f396	0.051990114
41	0xbd9f9fc3	-0.07794144
42	0xbdac0370	-0.08399093
43	0x3c8ec0dc	0.017425947
44	0xbe17e68e	-0.14834043
45	0x3e1c6cc5	0.15275867
46	0xbd73bdf1	-0.059507314
47	0xbcde056b	-0.027102193
48	0x3d5f3c40	0.05450082
49	0x3d26343f	0.04057717
50	0x3dafaaec	0.08577523
51	0x3e35d0eb	0.17755477
52	0x3c87b370	0.016565055
53	0xbc2f077e	-0.010682939
54	0x3e5a4cdc	0.21318382
55	0xbb4c1e51	-0.0031146
56	0x3d97f150	0.074190736
57	0xbe667f9b	-0.22509615
58	0xbdd8f5fe	-0.10593794
59	0x3dba517f	0.090975754
60	0xbdddb438	-0.108253896
61	0xbe38d12a	-0.1804854
62	0xbba00900	-0.0048838854
63	0xbe90051e	-0.28128904
64	0xbe9357db	-0.28777966
65	0x3d0b5a3b	0.034021597
66	0x3d7cdff4	0.061737016
67	0xbe4e66a5	-0.20156343
68	0x3e19b47b	0.15010254
69	0x3df2e8a2	0.118607774
70	0x3d2ba683	0.041906845
71	0xbda08cc7	-0.07839351
72	0x3d472641	0.048620466
73	0xbd064199	-0.032777403
74	0x3c40fdc5	0.011779253
75	0x3d0a7dab	0.033811253
76	0x3b0423e6	0.0020162999
77	0x3e212d2a	0.15739885
78	0xbdec6ba6	-0.1154397
79	0x3e2eab29	0.1705748
80	0x3d2c3a0c	0.042047545
81	0x3daa3e4e	0.08312665
82	0xbd301b2f	-0.042994674
83	0xbc3c848a	-0.011506209
84	0x3e6a3add	0.22874017
85	0x3e0b001a	0.13574257
86	0xbe7dd37a	-0.24787703
87	0x3db9b164	0.09067038
88	0xbd391670	-0.045187414
89	0x3c80f4d1	0.015741738
90	0xbe79f472	-0.24409655
91	0x3d5fc6cf	0.054632958
92	0xbb8fd27d	-0.004389106
93	0xbcc09139	-0.023506748
94	0x3d46e429	0.048557434
95	0xbdcf8089	-0.10131938
96	0x3caae7a2	0.020862404
97	0xbdbb9c01	-0.09160615
98	0xbca1e2e6	-0.019761514
99	0x3e6cda3d	0.23130126
100	0x3e2677d2	0.16256645
101	0x3d49fbb8	0.049312323
102	0xbd87dd1f	-0.066339724
103	0xbcf1d4d4	-0.02952043
104	0x3e31b5c0	0.17354488
105	0x3d2f3592	0.042775698
106	0x3deaf6d2	0.114728585
107	0x3de66fa4	0.112517625
108	0xbe4681db	-0.19385473
109	0x3c37afb0	0.011211321
110	0x3e0406c2	0.12893203
111	0x3e7c4041	0.24633886
112	0xbe0eae70	-0.1393373
113	0xbdfc8436	-0.12329905
114	0x3d0cef97	0.03440818
115	0x3d391aa1	0.04519141
116	0xbda32a8d	-0.079671
117	0x3d0d5dbf	0.03451323
118	0xbaecbf65	-0.0018062411
119	0x3e14896c	0.14505547
120	0x3dd0fd29	0.102045365
121	0xbeb45d84	-0.35227597
122	0x3cee542a	0.029092867
123	0xbe59689a	-0.21231309
124	0x3e760f02	0.24029163
125	0xbdf065f6	-0.117381975
126	0xbd899da0	-0.06719518
127	0x3e23cc6e	0.15995952
128	0x3d876d3e	0.06612633
129	0xbd60ec99	-0.054913137
130	0x3dcd432f	0.1002258
131	0x3b913a71	0.0044320156
132	0xbe43669e	-0.19082114
133	0x3d1361a1	0.035981778
134	0x3e2bd2f0	0.16779685
135	0x3e30fdfd	0.17284389
136	0xbde289ea	-0.11061461
137	0xbd0400e8	-0.032227427
138	0x3d6a1a17	0.057153787
139	0x3e09fd6e	0.13475582
140	0xbd6968b4	-0.05698462
141	0xbdca8386	-0.09888367
142	0x3d74cd30	0.059765995
143	0xbdecd951	-0.11564887
144	0x3e2000c8	0.15625298
145	0xbc555eb4	-0.013023067
146	0xbd2c1aa5	-0.042017598
147	0xbc9e441a	-0.019319583
148	0x3e224f64	0.15850598
149	0xbcaf7332	-0.021417234
150	0x3d8b62d9	0.06805963
151	0x3d0f0671	0.034918252
152	0x399a6404	0.00029447686
153	0x3e140b42	0.1445742
154	0x3df9bf33	0.121946715
155	0xbbf9d3e6	-0.007624137
156	0xbd67d2e3	-0.0565976
157	0x3c382c57	0.01124104
158	0x3e484d5c	0.1956076
159	0xbcea0826	-0.028568339
160	0x3cccc9c4	0.024998553
161	0xbcf30ffa	-0.029670704
162	0x3d0636a3	0.03276695
163	0xbe3171e3	-0.173286
164	0xbe3d3e0d	-0.18480702
165	0x3d8c1f88	0.068419516
166	0x3d69a71f	0.057044145
167	0x3dc855dd	0.09782002
168	0xbe044fbf	-0.12921046
169	0x3dc7707c	0.097382516
170	0x3e2c141e	0.16804549
171	0x3de55f64	0.11199835
172	0xbe2a5540	-0.16634083
173	0x3b28d297	0.0025760287
174	0x3cc8dfc4	0.024520762
175	0x3de387d9	0.11109895
176	0x3c17cbc9	0.009264895
177	0xbcd3e1a6	-0.025864433
178	0xbd7214a9	-0.059101734
179	0x3d34d0a6	0.044144295
180	0xbe08c782	-0.13357356
181	0x3e0ed5bb	0.13948719
182	0xbc3b5276	-0.011433234
183	0x3bb4a3a0	0.0055126697
184	0xbb37df73	-0.002805677
185	0x3dbafc01	0.09130097
186	0xbe407d08	-0.18797696
187	0xbd989b7f	-0.074515335
188	0x3dda7d68	0.106684506
189	0x3da17afb	0.07884785
190	0x3dd7c405	0.10535435
191	0x3d403612	0.046926565
192	0x3da918f8	0.082567155
193	0x3d8b974f	0.06815969
194	0x3e578804	0.2104798
195	0x3e684995	0.2268432
196	0xbc3fd58d	-0.011708629
197	0xbe3a50a6	-0.18194827
198	0x3d959519	0.07303829
199	0xbdd6abf9	-0.1048202
200	0xbccef592	-0.025263581
201	0xbdcc28e9	-0.099687405
202	0xbe2d7f29	-0.16943039
203	0xbd0b728c	-0.034044787
204	0x3c4a8a8e	0.012362136
205	0x3e163390	0.14668107
206	0x3d20d461	0.03926504
207	0xbe3c68db	-0.18399374
208	0xbd54d46e	-0.0519604
209	0x3b88b6ce	0.0041721826
210	0x3e87713c	0.26453578
211	0x3dddef9d	0.10836718
212	0x3cb0f4a0	0.021601021
213	0xbceb70dd	-0.02874034
214	0x3daa90cf	0.08328401
215	0xbd71ecf1	-0.059063856
216	0x3de0a10c	0.10968217
217	0x3c5d6552	0.013512926
218	0xbddcb049	-0.10775811
219	0xbd2ef0fc	-0.04271029
220	0x3e14138e	0.14460585
221	0xbc8dbea3	-0.017302817
222	0x3de730b5	0.11288587
223	0x3d85215e	0.06500505
224	0xbe0cae9d	-0.13738485
225	0x3dbdfff8	0.09277338
226	0xbd356ec0	-0.044295073
227	0x3d98224c	0.074284166
228	0xbbadbb9f	-0.005301907
229	0xbac52019	-0.0015039473
230	0xbda977eb	-0.08274826
231	0x3dd647fa	0.10462947
232	0x3c00fa84	0.007872228
233	0xbdaddb3d	-0.08489082
234	0x3e40452c	0.18776387
235	0xbda7f41c	-0.08200857
236	0x3df410ca	0.11917265
237	0xbd7e268e	-0.062048487
238	0xbe2b903b	-0.16754238
239	0x3de9b318	0.114111125
240	0x3bd89f6e	0.0066108024
241	0x3d34df6f	0.044158395
242	0x3cf57fc5	0.029968152
243	0x3e22b817	0.15890537
244	0x3d9a2f9d	0.07528613
245	0xbd0e3a65	-0.034723658
246	0xbe729de1	-0.23693039
247	0xbc69533d	-0.014241037
248	0xbd1b19df	-0.03786647
249	0xbdaf4fec	-0.08560166
250	0x3d92488c	0.071427435
251	0xbcd8d3b7	-0.026468141
252	0xbd9f429a	-0.07776375
253	0xbd94c707	-0.07264524
254	0xbdccdab2	-0.1000265
255	0xbdcd5bce	-0.10027276

actor_mlp.mlp.2.bias f4 [128]
0	0xb8aa5785	-8.1225335e-05
1	0x3e2dd391	0.16975237
2	0xbd09b99c	-0.033624277
3	0xbe0b2e49	-0.13591875
4	0xbddbcdf0	-0.10732639
5	0xbe66f79b	-0.22555391
6	0xbc638895	-0.013887544
7	0xbdd46e20	-0.10372567
8	0xbe767a89	-0.24070181
9	0xbe3ee7fe	-0.18643185
10	0xbe65a656	-0.22426733
11	0xbe1f7f93	-0.1557601
12	0xbde090b8	-0.10965103
13	0xbe04fce2	-0.12987092
14	0xbd8f2fff	-0.069915764
15	0xbdf4b7f9	-0.119491525
16	0xbda0acd3	-0.078454636
17	0xbd7ef8be	-0.062248938
18	0xbdf5b54d	-0.11997471
19	0x3d36d8f1	0.044640485
20	0xbe0b8470	-0.1362474
21	0xbd513eb7	-0.0510852
22	0xbd8268f8	-0.063676775
23	0x3cce1b96	0.025159638
24	0xbdb0d45e	-0.08634256
25	0xbd9311d7	-0.07181137
26	0x3d2ab3d4	0.041675404
27	0xbc78991e	-0.015173225
28	0xbe1bdc64	-0.15220791
29	0xbe297f72	-0.16552523
30	0xbe09cbc1	-0.13456632
31	0xbdedce40	-0.11611605
32	0xbe277748	-0.16354096
33	0xbe5eb510	-0.21748757
34	0xbe144084	-0.14477736
35	0xbdaaf268	-0.083470166
36	0xbd8825df	-0.06647848
37	0xbe19c9fb	-0.15018456
38	0xbebdfda1	-0.37107566
39	0xbd489d44	-0.048978105
40	0x3e311607	0.17293559
41	0x3d59e45b	0.053196292
42	0xbd7d0b06	-0.06177809
43	0xbd51a22b	-0.051180046
44	0xbd5ebbec	-0.054378435
45	0xbe1f1f29	-0.1553923
46	0xbe889457	-0.26675674
47	0xbe8e76e3	-0.27825078
48	0x3e36f0f4	0.17865354
49	0xbeae4383	-0.34035882
50	0xbe765d39	-0.24058999
51	0xbe534c6a	-0.20634618
52	0xbe0bd3d1	-0.1365502
53	0x3d8ccda9	0.06875164
54	0x3da510db	0.080598556
55	0xbe9fe5e2	-0.31230074
56	0xbd87f2ff	-0.06638145
57	0xbe427f6d	-0.18993922
58	0x3dcfc7b3	0.101455115
59	0xbdc6c760	-0.097059965
60	0xbd3d2ad1	-0.04618341
61	0xbcb8b6ae	-0.022548046
62	0xbe97b4ea	-0.29630214
63	0xbe1bd4f8	-0.1521796
64	0xbe13abce	-0.14421007
65	0xbe5ed689	-0.21761526
66	0xbcb43282	-0.02199674
67	0xbd36d17e	-0.04463338
68	0xbdeb9530	-0.11503065
69	0xbdea1364	-0.1142948
70	0xbe883151	-0.26600125
71	0xbdc17ebd	-0.094480015
72	0xbe5de7df	-0.21670483
73	0x3df6b95c	0.12047073
74	0xbd249d89	-0.0401893
75	0xbdd73e25	-0.105099
76	0x3e18c0f6	0.14917359
77	0xbd329d67	-0.04360714
78	0xbde19796	-0.11015241
79	0x3da1880e	0.078872785
80	0xbe3bf619	-0.18355598
81	0xbe4f3549	-0.2023517
82	0xbe5a64d0	-0.2132752
83	0xbd9d4ed8	-0.07681054
84	0xbe28449a	-0.1643242
85	0xbc5ed491	-0.0136004845
86	0x3d5ca902	0.053872116
87	0xbe8accb2	-0.27109295
88	0xbc30f7c0	-0.010801256
89	0xbe1a57f8	-0.1507262
90	0x3da51356	0.08060329
91	0xbd9a5d2a	-0.07537301
92	0xbe471693	-0.19442205
93	0xbdabb1a8	-0.083834946
94	0xbe416723	-0.18887
95	0xbdd2c593	-0.102915905
96	0xbdacd6f5	-0.08439437
97	0xbd9eeab4	-0.0775961
98	0xbe0adfbe	-0.13561913
99	0xbdeae528	-0.11469489
100	0xbc402f27	-0.011729992
101	0xbe16e506	-0.14735803
102	0xbd571733	-0.05251236
103	0xbda306eb	-0.07960304
104	0xbe1bce59	-0.15215434
105	0xbd1aac58	-0.037762016
106	0xbd6e80d6	-0.058228336
107	0xbdba2dd3	-0.090907715
108	0x3d30ebe0	0.043193698
109	0xbe19f83a	-0.15036097
110	0xbe1846c0	-0.14870739
111	0xbe4f4820	-0.20242357
112	0xbe71bab9	-0.23606385
113	0xbe009ce1	-0.12559845
114	0xbddd6328	-0.10809928
115	0xbe4d6f37	-0.20061956
116	0xbd633449	-0.055469785
117	0xbdec84ff	-0.115488045
118	0x3d525225	0.05134787
119	0xbd446a48	-0.04795292
120	0x3e2e03e0	0.16993666
121	0xbd1349f4	-0.0359592
122	0xbddea951	-0.10872138
123	0xbb7567a1	-0.00374458
124	0xbe6ebb88	-0.23313725
125	0x3cc2d476	0.02378295
126	0xbcf40233	-0.029786205
127	0xbe07dd4c	-0.13268012

value_mlp.mlp.0.weight f4 [256, 27]
0	0x3e633f97	0.22192226
1	0x3e55c2b5	0.20875056
2	0x3c880954	0.01660601
3	0x3d7d075c	0.061774597
4	0x3cc6fa6f	0.024289338
5	0x3dcf092d	0.10109172
6	0xbda8421f	-0.082157366
7	0xbd6665c8	-0.05624941
8	0xbd0fd0c4	-0.035111204
9	0x3d8e5828	0.06950408
10	0xbe1c10bf	-0.15240763
11	0xbe04a87d	-0.12954898
12	0xbda30d2d	-0.079614975
13	0x3cf1302e	0.02944192
14	0xbd0171dd	-0.03160273
15	0xbcc7ccd2	-0.024389658
16	0x3e6ed22c	0.23322362
17	0x3ced90aa	0.028999645
18	0xbc99191d	-0.018688733
19	0x3c76818b	0.015045534
20	0xbe0a6d3e	-0.13518235
21	0xbd4f9cfe	-0.05068683
22	0x3c9ba9fd	0.019001955
23	0xbe9a0cd1	-0.30087903
24	0x3e29e2ac	0.16590375
25	0xbd8600a5	-0.06543092
26	0x3dd7709b	0.10519525
27	0xbde7c9be	-0.11317776
28	0xbef76112	-0.48316246
29	0xbe29c78c	-0.16580027
30	0x3ca20fb1	0.019782873
31	0x3e07d002	0.13262942
32	0x3cb1a29a	0.02168398
33	0x3d40d68d	0.04707961
34	0x3da6f939	0.08153004
35	0xbd93497f	-0.07191753
36	0xbe555a3e	-0.20835206
37	0x3d8eed76	0.06978886
38	0xbdd757d7	-0.10514801
39	0x3e50e181	0.20398523
40	0xbdb9e5ff	-0.090770714
41	0x3dd59aff	0.10429954
42	0xbdc09685	-0.09403709
43	0xbdc87250	-0.097874284
44	0x3d624b5a	0.055247642
45	0x3c47c19b	0.012192155
46	0xbd504b0c	-0.05085282
47	0x3bdf66b9	0.0068176654
48	0x3cc3a3e3	0.023881858
49	0x3b2593f0	0.002526518
50	0xbd0b6c43	-0.034038793
51	0xbc0b96ae	-0.008519812
52	0x3dc3c9e9	0.09559996
53	0xbd057bdb	-0.03258882
54	0xbe05a7dd	-0.13052316
55	0xbe2b0c26	-0.16703853
56	0x3bcdad7a	0.0062767835
57	0xbd4a83a0	-0.049441934
58	0xbbe0a732	-0.0068558687
59	0x3b6658c7	0.003514813
60	0xbc493e0a	-0.012282858
61	0x3d93c546	0.07215361
62	0x3d0984f5	0.033574063
63	0xbe3450cf	-0.17608951
64	0xbe05c7e2	-0.1306453
65	0x3db76fbf	0.08956861
66	0x3e128519	0.14308585
67	0xbe411ea2	-0.18859342
68	0x3bebb635	0.0071933516
69	0xb98e430a	-0.000271343
70	0xbe67c969	-0.22635426
71	0x3d5ac8e0	0.053414226
72	0x3d26d3d0	0.040729344
73	0x3d509746	0.050925516
74	0x3d3a51a2	0.045488007
75	0x3b0ed781	0.002179593
76	0xbc9a32ef	-0.018823115
77	0x3de3284e	0.11091672
78	0x3c2513f8	0.010075562
79	0xbd3edea1	-0.046599034
80	0x3c990306	0.0186782
81	0x3d54de2e	0.0519697
82	0x3dc04c43	0.09389546
83	0x3e15975a	0.14608517
84	0xbd2a1b59	-0.041529987
85	0xbd3e237c	-0.04642056
86	0xbe236e89	-0.15960135
87	0x3d83d3b0	0.064368606
88	0xbc89b9d7	-0.016812248
89	0x3e020e30	0.12700725
90	0x3e4ecc08	0.20195019
91	0xbdaab634	-0.08335534
92	0x3e0a3444	0.134965
93	0x3b6d52aa	0.0036212602
94	0xbd936840	-0.071976185
95	0x3dc5ee2a	0.09664567
96	0xbda437e0	-0.0801847
97	0x3c5827c2	0.013193073
98	0x3ca918e1	0.020641746
99	0x3cc0d91a	0.023541022
100	0x3db57150	0.08859503
101	0x3e658d5a	0.22417203
102	0x3e108e08	0.1411668
103	0xbc9e7d66	-0.019346904
104	0xbe1bf3ca	-0.15229717
105	0x3da45de0	0.08025718
106	0x3e5ee0d0	0.21765447
107	0xbd8c2fa6	-0.06845026
108	0xbd99a753	-0.07502618
109	0x3c852707	0.016253961
110	0x3da19f4a	0.0789171
111	0x3dcd184b	0.10014399
112	0xbe2d7883	-0.16940503
113	0x3ddc74a8	0.10764438
114	0x3e41868d	0.18898983
115	0xbb76f485	-0.0037682366
116	0xbd189397	-0.037250128
117	0x3dfd4c08	0.123680174
118	0x3d0d21e9	0.034456167
119	0xbc7bda35	-0.015371849
120	0xb9b90d7d	-0.00035296
121	0x3e82de6d	0.25560322
122	0x3d559e8f	0.052153166
123	0x3d4355e2	0.047689326
124	0xbd3723d9	-0.04471192
125	0xbd965367	-0.073401265
126	0xbd440331	-0.047854606
127	0x3dd5bc53	0.104363106
128	0xbc272ccb	-0.010203551
129	0x3dddd0e4	0.10830858
130	0x3c0476ba	0.008084947
131	0x3d5317bc	0.051536307
132	0xbcbf491a	-0.023350287
133	0xbd3cc47e	-0.046085827
134	0x3cb5929a	0.022164632
135	0x3a4ba700	0.00077687204
136	0x3eec81cb	0.46192774
137	0xbdca565e	-0.098797545
138	0x3db0a39c	0.08624956
139	0xbc7ecfe1	-0.015552492
140	0xbd90534a	-0.07047136
141	0x3e86ff5a	0.26366693
142	0xbd19449f	-0.037418958
143	0x3d7aedc5	0.06126191
144	0x3e5311f2	0.20612314
145	0x3e857e59	0.26072958
146	0x3de51901	0.1118641
147	0xbdc75112	-0.0973226
148	0x3e1f4cee	0.1555669
149	0xbd9fd788	-0.07804781
150	0x3d64bdc8	0.055845052
151	0xbda57442	-0.08078815
152	0xbdfdb1f6	-0.12387459
153	0xbbf7b8c1	-0.007559866
154	0xbd4b00c5	-0.04956128
155	0x3de84c5d	0.1134269
156	0x3d7b216e	0.061311178
157	0xbd5b8bdc	-0.053600177
158	0xbaec6c6a	-0.0018037681
159	0x3ce05bb1	0.027387472
160	0xbd8a4056	-0.06750552
161	0xbdd54b1c	-0.104147166
162	0x3cf995aa	0.030466873
163	0x3d68606e	0.056732588
164	0xbdea3e28	-0.114376366
165	0xbd8473c1	-0.06467391
166	0x3dacf7a7	0.084456734
167	0xbe01361e	-0.126183
168	0xbd87a3eb	-0.06623062
169	0x3ccb6f31	0.024833294
170	0x3d3eb14c	0.046555802
171	0xbe1021d0	-0.14075398
172	0xbb87a5d9	-0.0041396436
173	0x3dcbfbf3	0.09960165
174	0xbe179fe9	-0.14807095
175	0xbdafac0e	-0.08577739
176	0xbe2361b1	-0.15955235
177	0x3e0dfd15	0.13866074
178	0x3cc8c6dd	0.024508888
179	0x3c93844e	0.018007424
180	0xbe0f200e	-0.13977072
181	0x3d3c6974	0.045999005
182	0xbd8cf7c2	-0.068831936
183	0x3d5e3d12	0.05425746
184	0xbdeaad17	-0.114587955
185	0xbd5897ba	-0.052879073
186	0x3daa84f3	0.08326139
187	0x3e052376	0.13001809
188	0x3c936e6b	0.017996987
189	0x3e23aaa4	0.15983063
190	0x3e234308	0.15943539
191	0x3d722ec6	0.059126638
192	0x3d36b664	0.044607535
193	0xbdcc4442	-0.09973957
194	0xbbc639f1	-0.0060493876
195	0x3dd6837a	0.10474296
196	0x3ccab9ca	0.024746794
197	0x3d0f7d20	0.035031438
198	0xbd44ee26	-0.04807868
199	0xbb953a73	-0.004554087
200	0xbdc42c72	-0.0957879
201	0xbe33d5a8	-0.17561972
202	0x3cc23eae	0.023711529
203	0x3e2d3d88	0.16918004
204	0x3d7dabb9	0.061931346
205	0xbc64b67d	-0.013959524
206	0xbd836759	-0.064161964
207	0x3d5e6f66	0.054305457
208	0x3dcce791	0.10005105
209	0xbc5727e0	-0.013132066
210	0x3e030472	0.12794665
211	0x3cc8f80b	0.024532339
212	0x3b8d68a1	0.0043154513
213	0x3d192efc	0.037398323
214	0xbc93a5da	-0.01802342
215	0x3de2da3d	0.11076782
216	0xbd5a5a75	-0.053308923
217	0xbb926c9c	-0.0044685137
218	0xbd9e2f22	-0.077238336
219	0x3c87696d	0.016529763
220	0xbde25ad2	-0.11052479
221	0xbe2cb2b3	-0.16865043
222	0x3dbb12e2	0.09134461
223	0x3d929caf	0.07158791
224	0xbd4ef405	-0.050525684
225	0x3dfb920a	0.12283714
226	0x3e2cc282	0.16871074
227	0xbcc05539	-0.023478137
228	0xbc7bd218	-0.0153699145
229	0x3d8d5714	0.069013745
230	0x3d019a32	0.031641193
231	0x3d17a039	0.037018035
232	0x3e0ffc78	0.14061153
233	0xbd5ce499	-0.053928945
234	0x3d62bdf7	0.055356946
235	0x3dcd4bd6	0.1002423
236	0xbe01bb74	-0.12669164
237	0xbc8faca7	-0.017538382
238	0xbccf6f55	-0.025321642
239	0x3e103a13	0.14084654
240	0x3ddb4efd	0.10708425
241	0xbe325b77	-0.17417704
242	0xbd97edad	-0.0741838
243	0x3ad91cfd	0.0016564425
244	0x3eaeb554	0.34122717
245	0xbd2aea49	-0.041727338
246	0xbd91d143	-0.07119992
247	0xbe14c4b3	-0.1452816
248	0x3d684d18	0.056714147
249	0x3ea919ef	0.33027598
250	0xbdc9b307	-0.098486
251	0x3dd54805	0.10414127
252	0x3db2192e	0.08696209
253	0xbd45ac64	-0.048260108
254	0x3e08fd15	0.13377793
255	0xbd16495b	-0.03669105

value_mlp.mlp.0.bias f4 [256]
0	0x3d9feb59	0.07808561
1	0xbe5e3df5	-0.21703322
2	0xbe3dff25	-0.18554361
3	0x3e10303a	0.14080897
4	0xbd8e1988	-0.069384634
5	0x3d9a4603	0.07532885
6	0x3dca034d	0.09863911
7	0xbdf94b4e	-0.12172566
8	0x3cb76a61	0.022389593
9	0x3df4f993	0.11961665
10	0x3e81f2c4	0.25380528
11	0xbece5d50	-0.40305567
12	0xbeadf91f	-0.33979127
13	0x3da2ebe5	0.079551496
14	0x3de6396d	0.11241422
15	0xbe71e265	-0.23621519
16	0x3e1dde6c	0.15416878
17	0x3e323c55	0.17405827
18	0x3d1e1f4c	0.038604066
19	0xbe560aec	-0.20902604
20	0xbdcb2e1e	-0.099209055
21	0x3ecbf103	0.39832315
22	0x3e89692d	0.26838055
23	0x3da8486e	0.0821694
24	0xbdf35202	-0.11880876
25	0x3b9fb275	0.0048735687
26	0xbdde3088	-0.108491
27	0xbe852db5	-0.26011434
28	0x3e1739de	0.14768168
29	0xbd75e4e1	-0.06003273
30	0xbe0d52a1	-0.13801052
31	0x3e191f30	0.14953303
32	0xbd6e9da7	-0.058255818
33	0x3e2f5ceb	0.17125289
34	0xbe707e83	-0.2348576
35	0x3d81b095	0.063325085
36	0xbe530ccb	-0.20610349
37	0x3d10b90c	0.035332724
38	0xbe386fe1	-0.18011428
39	0xbe02ae0e	-0.12761709
40	0x3e005eae	0.12536117
41	0x3e0971ac	0.13422269
42	0x3da9b1c1	0.08285857
43	0x3d785f63	0.060637843
44	0xbe2f5682	-0.17122844
45	0xbe685471	-0.22688462
46	0xbe2062c9	-0.15662684
47	0x3d7a472d	0.061103035
48	0xbdfcb631	-0.12339438
49	0xbe43025e	-0.19043872
50	0x3e89915a	0.26868707
51	0xbb541875	-0.003236321
52	0xbda62be6	-0.08113842
53	0xbdfcd6fb	-0.12345692
54	0xbe210beb	-0.15727203
55	0xbe620107	-0.22070704
56	0xbe4cba23	-0.1999288
57	0xbdd38e20	-0.103298426
58	0x3e22fd20	0.15916872
59	0xbdb3712f	-0.087618224
60	0x3e43beac	0.19115704
61	0x3e29b606	0.16573343
62	0x3e116f50	0.14202619
63	0xbe529499	-0.20564498
64	0x3c33e39e	0.010979561
65	0x3dc5ae48	0.09652382
66	0xbe380f18	-0.17974508
67	0xbe3592a8	-0.17731726
68	0xbd1f04ea	-0.038823046
69	0xbe2fb449	-0.17158617
70	0x3e7115d1	0.23543479
71	0x3e9942a7	0.29933664
72	0x3e855517	0.2604148
73	0xbd6627e3	-0.056190383
74	0x3ddb6c02	0.1071396
75	0x3e5012b9	0.20319642
76	0x3e6c659e	0.23085639
77	0x3e8ccaca	0.27498466
78	0x3e8ff560	0.28116894
79	0x3db52ba2	0.08846213
80	0x3e9ad695	0.30241838
81	0x3ea58613	0.32328853
82	0x3e106156	0.1409963
83	0xbe5e8d5f	-0.21733616
84	0x3d83e875	0.06440822
85	0xbe09f6d9	-0.13473071
86	0x3cc7ddbb	0.024397722
87	0xbd50b27b	-0.050951462
88	0x3e6638ab	0.22482555
89	0x3e9e305f	0.3089628
90	0xbdd37e12	-0.103267804
91	0xbd9a28e5	-0.07527331
92	0x3dadba43	0.08482792
93	0xbe196b02	-0.14982226
94	0x3e95c100	0.2924881
95	0xbd244557	-0.04010519
96	0xbe43a21a	-0.19104806
97	0xbd917353	-0.071020745
98	0x3e7c4863	0.24636988
99	0x3dd1918d	0.1023284
100	0x3ea962db	0.33083233
101	0xbe569ff0	-0.20959449
102	0x3e73c1e6	0.23804435
103	0x3e346ec3	0.17620377
104	0xbc92f8a5	-0.017940829
105	0x3e17c602	0.14821628
106	0x3e6d1c03	0.23155217
107	0xbe15961f	-0.14608048
108	0x3e657c02	0.22410586
109	0xbdfc01b0	-0.12305009
110	0x3dc814ac	0.09769568
111	0xbd94efc1	-0.07272292
112	0xbdc8c3ce	-0.09802972
113	0x3e10102e	0.14068672
114	0x3da2d40e	0.079506025
115	0xbe1eaed4	-0.15496379
116	0xbe10bf89	-0.14135565
117	0x3e1e9fa3	0.15490584
118	0x3d0097f7	0.031394925
119	0xbbdb38c9	-0.006690119
120	0x3e959b32	0.29219967
121	0x3e62adc7	0.22136603
122	0x3dfa0918	0.12208766
123	0xbe81d11e	-0.25354856
124	0xbd94b61e	-0.072612986
125	0x3a960491	0.0011445453
126	0xbe9b54d9	-0.3033817
127	0xbe188065	-0.14892729
128	0xbdbce356	-0.092230484
129	0xbe50cd4f	-0.20390819
130	0x3dd5fc99	0.1044857
131	0xbe77f6a8	-0.24215186
132	0xbe0dfcb3	-0.13865928
133	0x3e14d43f	0.1453409
134	0x3d75ff89	0.06005815
135	0x3db703da	0.089362815
136	0xbe39f501	-0.18159868
137	0x3d46a0d2	0.048493214
138	0xbe2d9e3c	-0.16954893
139	0x3dfd870b	0.12379273
140	0xbc320250	-0.010864809
141	0x3da732e7	0.08164006
142	0x3e2ed46c	0.1707322
143	0xbd0b872b	-0.034064453
144	0xbd811065	-0.06301955
145	0xbdb26515	-0.08710686
146	0x3e4b0350	0.19825482
147	0x3e34bf31	0.17651059
148	0x3e5cc029	0.21557678
149	0xbd8a0496	-0.06739156
150	0x3e01d694	0.12679511
151	0x3e1c51af	0.15265535
152	0x3e76c267	0.24097596
153	0xbe4a368a	-0.19747368
154	0xbb746f79	-0.0037297888
155	0xbd8ed589	-0.06974322
156	0x3e580754	0.21096545
157	0x3e0a495f	0.13504551
158	0xbdb1b9c9	-0.08678014
159	0x3e4863bf	0.195693
160	0xbdbd6f5d	-0.092497565
161	0xbe9a712c	-0.30164468
162	0x3d4e6913	0.050393175
163	0x3dd0a593	0.10187831
164	0xbe4406c0	-0.191432
165	0xbe224e1a	-0.15850106
166	0x3e10da54	0.14145786
167	0xbd4ea976	-0.05045458
168	0x3d853d88	0.06505877
169	0x3e58739c	0.21137851
170	0xbe3dba52	-0.18528107
171	0x3d9d8ac0	0.0769248
172	0xbd0d373b	-0.0344765
173	0xbd0896c4	-0.033346906
174	0x3e30a436	0.17250142
175	0xbe24a13c	-0.16077131
176	0xbe9ab9fb	-0.30220017
177	0xbe48ea13	-0.19620542
178	0x3ddc8bea	0.10768874
179	0x3dc04513	0.09388175
180	0xbdba30c0	-0.090913296
181	0xbe09634d	-0.13416786
182	0x3d76148c	0.06007819
183	0xbdefefb7	-0.11715644
184	0x3e4e90fe	0.20172498
185	0xbe8555dd	-0.2604207
186	0xbe758dd6	-0.23979887
187	0x3d364648	0.04450062
188	0x3dce7b6f	0.10082137
189	0x3d5b910c	0.053605124
190	0x3e4e8b0f	0.20170234
191	0xbdaadb47	-0.08342605
192	0xbd726f2e	-0.05918806
193	0x3e6ff8b7	0.23434721
194	0xbd08e41b	-0.033420663
195	0x3dcac9a3	0.099017404
196	0xbe3e95d9	-0.1861185
197	0xbe6dc205	-0.23218544
198	0x3d11ca62	0.035593398
199	0xbe3d1d97	-0.18468319
200	0x3e4b4d13	0.1985362
201	0xbe69b92c	-0.22824544
202	0x3df2b7f7	0.11851495
203	0x3e00d0bf	0.1257963
204	0x3c0304f2	0.0079967845
205	0x3cc75fed	0.024337733
206	0xbc17796e	-0.00924526
207	0xbe09774c	-0.13424414
208	0x3eab28bf	0.33429524
209	0xbc3660fc	-0.011131521
210	0x3e56ec78	0.20988643
211	0x3e20cd3f	0.15703295
212	0x3d29ad91	0.04142529
213	0x3c908d97	0.01764564
214	0x3d3a8617	0.045538034
215	0x3e1a3692	0.1505988
216	0x3e3dd5d5	0.18538602
217	0x3e1669dd	0.14688821
218	0xbe6d4e58	-0.23174417
219	0xbdc9f841	-0.09861804
220	0x3dd95436	0.10611765
221	0x3e36dc58	0.17857492
222	0x3d48ea48	0.049051553
223	0x3e0018c2	0.12509444
224	0xbe7d48fb	-0.24734871
225	0xbdf0bb11	-0.1175443
226	0xbe55a0ae	-0.20862076
227	0x3e24c9ee	0.16092655
228	0xbd6c9714	-0.057761267
229	0xbe4937ba	-0.19650164
230	0xbd20ab02	-0.039225586
231	0x3d7267b6	0.059180938
232	0x3daaa978	0.08333105
233	0xbd9daa51	-0.07698501
234	0xbe023b47	-0.12717925
235	0x3e4f0fa5	0.20220812
236	0x3e75967e	0.2398319
237	0x3e39811d	0.18115659
238	0x3e20fac6	0.15720662
239	0xbe11f260	-0.14252615
240	0xbdb06ac3	-0.08614113
241	0x3e8666cc	0.26250303
242	0xbdc534a5	-0.09629182
243	0xbe001106	-0.12506494
244	0xbdc81eb9	-0.09771485
245	0x3e6ee1d7	0.23328339
246	0xbe23bae9	-0.1598927
247	0xbd91617d	-0.070986725
248	0xbb940d5d	-0.0045181946
249	0x3e802489	0.25027874
250	0xbe223d80	-0.15843773
251	0x3d9ff983	0.078112625
252	0xbe5035bd	-0.20333
253	0x3e9e3074	0.30896342
254	0xbe4ea182	-0.20178798
255	0xbe13189a	-0.14364854

value_mlp.mlp.2.weight f4 [128, 256]
0	0xbdd17aa6	-0.102284715
1	0xbe0f141c	-0.13972515
2	0xbe27c675	-0.16384299
3	0x3cb96863	0.022632783
4	0xbd609535	-0.054829795
5	0xbdb2e4c8	-0.08735043
6	0xbd80b21c	-0.06283972
7	0x3d203162	0.039109595
8	0x3cbac967	0.022801114
9	0x3ba4729d	0.005018546
10	0xbe051e6f	-0.1299989
11	0x3d9e6bd2	0.07735409
12	0x3d828710	0.063734174
13	0xbd432c54	-0.047649696
14	0xbe035d35	-0.12828524
15	0xbc242b56	-0.010020098
16	0xbdcaf479	-0.09909911
17	0xbd272755	-0.040808994
18	0xbe2f83fb	-0.1714019
19	0xbe106b75	-0.14103492
20	0x3dfc9d14	0.12334648
21	0x3c18a49b	0.009316589
22	0xbe6f3322	-0.2335935
23	0x3c850047	0.016235484
24	0x3e340464	0.175798
25	0x3dc4a983	0.09602644
26	0x3cbb4ea1	0.022864642
27	0xbcc3ae6a	-0.023886878
28	0x3c2697bb	0.010168011
29	0x3ea48874	0.32135355
30	0x3c46b3e5	0.012127851
31	0xbc3ec722	-0.011644157
32	0xbcadbfb5	-0.021209577
33	0x3cb71a7e	0.0223515
34	0xbce5a5c7	-0.02803315
35	0x3d2fa592	0.04288251
36	0x3e2d9efd	0.1695518
37	0x3e08fbe0	0.13377333
38	0xbd689d6d	-0.056790758
39	0x3e352f9c	0.17693943
40	0xbc81380d	-0.015773797
41	0xbd6fd63e	-0.058553927
42	0x3d184b25	0.03718104
43	0xbd12c77b	-0.03583477
44	0xbd58ebb4	-0.05295916
45	0x3dde271e	0.10847305
46	0x3d948581	0.07252026
47	0x3dfe5cab	0.12420019
48	0xbd01f3ae	-0.03172653
49	0x3d6ac37c	0.057315335
50	0xbd50f7af	-0.05101746
51	0xbc664c4a	-0.014056275
52	0x3ce57546	0.028010022
53	0x3b7c448a	0.0038493
54	0xbda8edd2	-0.082484856
55	0xbd689b25	-0.056788582
56	0x3db50e90	0.08840668
57	0xbdd026c3	-0.10163643
58	0xbbdcded6	-0.0067404313
59	0xbbca3ca0	-0.006171778
60	0x3d7b2d90	0.06132275
61	0xbe265a2d	-0.16245337
62	0x3de1de76	0.11028759
63	0x3e57bf7f	0.21069144
64	0x3d4aa6f7	0.049475636
65	0xbd4d022e	-0.050050907
66	0x3d3468f7	0.044045415
67	0x3db7ab3d	0.08968208
68	0x3e81ef32	0.25377804
69	0xbcc181ba	-0.023621429
70	0x3df3c072	0.119019404
71	0xbd9ad15b	-0.07559463
72	0x3da973b1	0.082740195
73	0xbd937816	-0.07200639
74	0xbd4eb5ac	-0.050466225
75	0xbe67ed04	-0.22649008
76	0x3c866042	0.016403321
77	0xbdc0d616	-0.09415834
78	0xbd126f50	-0.035750687
79	0xbd9bb398	-0.07602614
80	0xbd9c2d4d	-0.07625828
81	0x3d81f3dd	0.06345341
82	0xbc908af1	-0.017644377
83	0xbd44a307	-0.048007037
84	0x3e27c9fc	0.16385645
85	0xbd94ebe7	-0.07271557
86	0xbe1fb4d8	-0.1559633
87	0xbc0b8e89	-0.00851787
88	0xbd856950	-0.065142274
89	0x3c86f52f	0.016474335
90	0x3cedb39c	0.029016308
91	0xbc624a66	-0.013811683
92	0x3c45dff7	0.012077323
93	0xbd33ecc4	-0.04392697
94	0xbb4386db	-0.0029835019
95	0x3c86f46b	0.01647397
96	0xbdaf9055	-0.08572451
97	0xbb7ee4f2	-0.0038893786
98	0xbd4f5d97	-0.050626364
99	0x3dfbedac	0.12301192
100	0xbe1807c8	-0.14846718
101	0x3dd8a247	0.10577827
102	0xbc858b85	-0.01630188
103	0x3c8d4754	0.017245926
104	0x3cdbd3e1	0.02683443
105	0xbdbf0f26	-0.09329061
106	0xbe193017	-0.14959751
107	0xbb44f8c9	-0.0030055514
108	0x3da050b4	0.07827893
109	0xbc6c15d5	-0.014409502
110	0xbe182781	-0.1485882
111	0x3c53071f	0.012880116
112	0x3c6c864a	0.014436314
113	0xbdd6250e	-0.10456286
114	0xbcaf0774	-0.021365859
115	0x3d943505	0.07236675
116	0xbdfb7743	-0.12278607
117	0x3e050d82	0.12993434
118	0xbd05105a	-0.032486297
119	0xbd29a8a9	-0.041420612
120	0x3d702fd4	0.058639362
121	0x3e5c77bb	0.21530049
122	0xbe3477f7	-0.17623888
123	0xbd93b897	-0.07212942
124	0x3d3a9182	0.045548923
125	0xbd3da88d	-0.04630332
126	0x3dc5c9eb	0.096576534
127	0x3cb613d4	0.022226252
128	0xbcd65959	-0.026165651
129	0x3d0d8150	0.03454715
130	0x3c066201	0.008202077
131	0xbd8598cc	-0.06523284
132	0xbce0095f	-0.027348218
133	0x3dd0f61d	0.102031924
134	0x3e4522f6	0.19251618
135	0x3d3c3f81	0.045959
136	0x3d1ffa30	0.039056957
137	0x3cd3a06e	0.025833335
138	0x3d33c157	0.043885555
139	0xbdd40de5	-0.10354213
140	0x3d863340	0.06552744
141	0xbe29bb55	-0.16575368
142	0xbd2f7f3c	-0.04284595
143	0xbe38446c	-0.17994851
144	0x3ca14144	0.019684441
145	0x3e0b6dc3	0.1361609
146	0xbdc3bb6c	-0.09557232
147	0xbbd83393	-0.006597945
148	0xbdaf9616	-0.085735485
149	0x3e035e55	0.12828954
150	0xbcc4a626	-0.024005007
151	0xbd21dea7	-0.03951898
152	0xbe390dff	-0.18071745
153	0x3d2d0d2e	0.042248897
154	0xbd6f0628	-0.05835548
155	0x3cc4f295	0.024041453
156	0xbd99b633	-0.07505455
157	0xbe049524	-0.12947518
158	0x3dfba654	0.12287584
159	0xbdf55c67	-0.11980515
160	0xbdd56c9f	-0.104211085
161	0x3ce0bbbc	0.027433269
162	0xbcd738ee	-0.026272263
163	0x3dd842ff	0.105596535
164	0x3d6e5a32	0.058191486
165	0x3e287de5	0.16454275
166	0xb8040adb	-3.1481362e-05
167	0x3c299697	0.010350845
168	0xbe1f9c5f	-0.15586995
169	0xbde5aab3	-0.11214199
170	0xbdca83a9	-0.098883934
171	0xbd96ab0d	-0.07356844
172	0xbe15c106	-0.14624414
173	0x3d20b7d9	0.03923783
174	0xbe3103e4	-0.1728664
175	0xbd2097ae	-0.039207153
176	0x3dc4f2fb	0.09616657
177	0xbbd74aaf	-0.0065701823
178	0x3c47734a	0.012173483
179	0xbd9b1884	-0.07573035
180	0x3dbbdcf0	0.09173
181	0x3e04566b	0.12923591
182	0xbd530764	-0.05152072
183	0x3d502538	0.050816745
184	0xbd8adcf3	-0.06780424
185	0x3d2955c9	0.041341577
186	0x3d92be0e	0.07165156
187	0xbe1b18e3	-0.15146212
188	0x3da19349	0.078894205
189	0xbdb1ab94	-0.08675304
190	0x3ca20c9f	0.019781409
191	0xbdd01a15	-0.10161225
192	0xbc7d0708	-0.015443571
193	0xbe47e282	-0.1952
194	0xbd1b785d	-0.037956584
195	0x3cea67e7	0.028613998
196	0x3bdb1a90	0.006686516
197	0xbe1b182f	-0.15145944
198	0xbd601fdf	-0.054717895
199	0x3dadbede	0.08483671
200	0x3d5cab04	0.05387403
201	0x3d2a3b87	0.041560676
202	0xbd1dffe3	-0.03857411
203	0xbe08f681	-0.13375284
204	0xbd8a2f16	-0.06747262
205	0xbd8e9abf	-0.06963109
206	0x3d828e67	0.06374817
207	0x3d88a277	0.06671613
208	0xbb8ed30b	-0.0043586544
209	0x3e38f3cd	0.18061753
210	0x3d132b19	0.035929773
211	0x3d91dece	0.07122575
212	0x3d1df2f0	0.03856176
213	0xbccd3bfd	-0.025053019
214	0xbd5bd8dc	-0.05367361
215	0xbe34dfc6	-0.17663488
216	0x3ca090b0	0.019600242
217	0xbd61754a	-0.055043496
218	0xbd2c5828	-0.04207626
219	0xbd9f860c	-0.07789239
220	0xbd6ba8e7	-0.057534125
221	0xbd4c4960	-0.049874663
222	0xbda407d3	-0.08009305
223	0x3d087486	0.03331425
224	0xbc1ff5d6	-0.009763202
225	0x3d1ec409	0.038761172
226	0x3e038e60	0.1284728
227	0xbc4af316	-0.012387058
228	0xbe30c263	-0.17261653
229	0x3d1913e1	0.037372474
230	0x3de41c89	0.11138255
231	0xbdb65fd3	-0.08904996
232	0xbe2e73f4	-0.1703642
233	0xbce271c6	-0.027642142
234	0x3e01fb38	0.12693489
235	0x3d4a3bfa	0.049373604
236	0xbe449d1b	-0.19200556
237	0x3dbfb9cb	0.09361609
238	0xbe04add4	-0.12956935
239	0xbc122145	-0.008919065
240	0x3d8b20a3	0.06793334
241	0x3c2c5851	0.010519103
242	0xbdb29b94	-0.087210804
243	0x3ca1b803	0.019741064
244	0xbdcae35b	-0.09906646
245	0xbd1bdc5e	-0.038051955
246	0x3c2d8524	0.010590825
247	0xbdef4ac2	-0.11684181
248	0x3dd6e48e	0.10492812
249	0xbde53f1b	-0.11193677
250	0xbd0c79d8	-0.034295887
251	0xbd29d5aa	-0.04146353
252	0x3d2a7334	0.041613773
253	0xbcd1d160	-0.025612533
254	0x3e46e19a	0.19421998
255	0xbd8229ef	-0.063556544

value_mlp.mlp.2.bias f4 [128]
0	0x3d82132d	0.06351314
1	0x3dd8587b	0.10563751
2	0x3d11adcd	0.03556614
3	0x3db57c1a	0.08861561
4	0xbe970a0a	-0.29499847
5	0xbe00996c	-0.12558526
6	0x3dbe2260	0.092839
7	0xbdef9930	-0.1169914
8	0xbe6d74c8	-0.2318908
9	0xbea3b205	-0.31971756
10	0xbd961935	-0.073290266
11	0xbd13282a	-0.035926975
12	0x3df423d6	0.11920898
13	0x3d4c88b4	0.049935058
14	0xbd6be977	-0.057595696
15	0x3c59c280	0.013291001
16	0xbb1d146a	-0.0023968467
17	0xbe1744b0	-0.14772296
18	0xbcaf8dd7	-0.02142994
19	0xbe06e2e0	-0.13172483
20	0xbc9f3beb	-0.01943775
21	0xbe9f8a4b	-0.31160197
22	0xbe3432f1	-0.17597558
23	0x3ce2ae67	0.027671052
24	0xbe4d2687	-0.20034228
25	0xbdbd6c42	-0.09249164
26	0xbcb87d6b	-0.022520741
27	0xbe18a24c	-0.14905661
28	0x3d5ae927	0.053445008
29	0x3dde6f55	0.10861079
30	0xbe12f1e7	-0.14350091
31	0x3d16bc4e	0.036800675
32	0x3cfb4f3e	0.030677434
33	0xbecdbdd5	-0.40183893
34	0xbdf592fb	-0.11990925
35	0xbe54d5e0	-0.20784712
36	0xbdd18419	-0.10230274
37	0xbde5d9a7	-0.112231545
38	0xbe1d7ca6	-0.15379581
39	0xbe749335	-0.2388428
40	0x3dad6335	0.08466188
41	0x3dcdcfd7	0.10049408
42	0xbda86a48	-0.082233965
43	0x3d1b49ed	0.037912298
44	0xbdafd4fa	-0.08585544
45	0xbe2627df	-0.16226147
46	0xbe1f4799	-0.15554656
47	0x3dd05fcb	0.10174521
48	0xbde1c211	-0.11023343
49	0x3d149951	0.036279026
50	0xbe018763	-0.12649302
51	0xbc9718c5	-0.018444428
52	0xbc9c31ff	-0.019066809
53	0xbdf703dc	-0.12061283
54	0xbe836eba	-0.25670415
55	0xbb5e2f51	-0.0033902714
56	0xbe03b479	-0.12861814
57	0xbe2a5a65	-0.16636045
58	0xbe1e6e04	-0.15471655
59	0xbe2d16aa	-0.16903177
60	0xbe13ad57	-0.14421593
61	0xbdbdaa6e	-0.092610225
62	0x3d48ba77	0.04900595
63	0xbdb34891	-0.08754075
64	0x3d55d2c6	0.052202962
65	0xbe0d16d8	-0.13778245
66	0xbe1ea0bb	-0.15491001
67	0x3dd408f4	0.1035327
68	0xbc8d19c5	-0.017224202
69	0x3de8aa62	0.11360623
70	0xbc9f7966	-0.019467067
71	0xbec8f9a6	-0.39252967
72	0x3d824abb	0.0636191
73	0xbdf8acb2	-0.12142314
74	0xbd9bcbfb	-0.076072656
75	0xbe00c115	-0.12573655
76	0xbe6722c2	-0.22571853
77	0xbe1e92e9	-0.1548573
78	0x3c6fe565	0.014642094
79	0xbe12a7e3	-0.14321856
80	0xbe502be9	-0.2032925
81	0xbc629cd6	-0.013831338
82	0xbde0c0a3	-0.109742425
83	0xbe51e1d2	-0.204963
84	0x3d239ff5	0.03994747
85	0xbef78185	-0.48341003
86	0xbda8c709	-0.08241088
87	0x3d7fe614	0.06247528
88	0xb9b13138	-0.00033796742
89	0xbe7c1e81	-0.24621011
90	0x3db8efb8	0.09030098
91	0xbde6f0c2	-0.1127639
92	0xbe18f163	-0.14935832
93	0xbe367427	-0.17817746
94	0xbe135a05	-0.14389808
95	0xbddd8578	-0.10816473
96	0xbe2afde1	-0.1669841
97	0xbd90da78	-0.070729196
98	0xbe047822	-0.12936452
99	0x3d52af8e	0.051436953
100	0xbe33eec2	-0.17571548
101	0x3c19012a	0.009338656
102	0x3d3c1078	0.045914143
103	0xbd890d1a	-0.06691952
104	0xbd8c6deb	-0.06856903
105	0xbe045bbf	-0.12925623
106	0x3dfbaa13	0.122882985
107	0xbe08b76c	-0.1335122
108	0x3dcb1b1f	0.09917282
109	0xbe3c15a7	-0.18367635
110	0xbe80bcba	-0.25143987
111	0xbd69acf6	-0.057049714
112	0x3ce5ed9b	0.0280674
113	0x3de85f56	0.11346309
114	0x3d8c44aa	0.06849034
115	0x3d0c0652	0.034185715
116	0x3d83fbbb	0.06444498
117	0xbd93ae38	-0.07210964
118	0x3d7ef741	0.06224752
119	0xbe054567	-0.13014756
120	0xbe3a5b61	-0.18198921
121	0xbe035434	-0.1282509
122	0xbeaf07ef	-0.3418574
123	0xbe0ef6f8	-0.13961399
124	0x3de6fef2	0.11279096
125	0xbe88c74e	-0.26714557
126	0xbdf0bbb0	-0.117545485
127	0xbeb344ef	-0.3501353
