assets/models/trace.pth (torch, 332140 bytes, 25 tensors)

sigma f4 [6]
0	0xbeba8eb8	-0.3643701
1	0xbfa8ea64	-1.319653
2	0xbecbe159	-0.39820364
3	0xbf0c5af7	-0.548263
4	0xbf831fb0	-1.0244045
5	0xbf12a845	-0.5728801

actor_mlp.mlp.0.weight f4 [256, 27]
0	0x3e764510	0.24049783
1	0x3d8c230b	0.068426214
2	0xbd9ac145	-0.075563945
3	0x3d424cb5	0.047436435
4	0x3e9c4851	0.30523923
5	0x3d857f82	0.06518461
6	0x3e7b99d8	0.24570405
7	0x3e602995	0.21890862
8	0xbe42ba3a	-0.19016352
9	0xbd4bf432	-0.04979343
10	0xbe139ff0	-0.1441648
11	0xbee014d5	-0.43765894
12	0x3cd12308	0.0255294
13	0x3d1dd6f5	0.038535077
14	0xbd824413	-0.063606404
15	0xbdd29ebe	-0.10284184
16	0xbd7b3fc4	-0.06134011
17	0xbdd7242b	-0.10504945
18	0x3d63bab3	0.055597972
19	0x3c60b603	0.01371527
20	0x3d52c0e9	0.051453505
21	0xbf2684ee	-0.65046585
22	0xbe8ff3e8	-0.28115773
23	0x3e6eeadf	0.23331784
24	0x3ea59c2b	0.3234571
25	0x3bf8beab	0.007591089
26	0xbda7aea7	-0.08187609
27	0x3e3a26b9	0.18178834
28	0xbeaed50b	-0.34146914
29	0x3d88e1e7	0.066837125
30	0xbd278a44	-0.040903345
31	0x3e69fd9a	0.22850648
32	0xbd90e482	-0.070748344
33	0xbd9a175a	-0.07523985
34	0x3e18b69f	0.14913414
35	0xbe8e7acf	-0.2782807
36	0xbca4d241	-0.020119788
37	0x3d242dda	0.04008279
38	0x3c1dd3df	0.009633034
39	0xbe1a4ebe	-0.150691
40	0xbbca0efa	-0.006166336
41	0x3b9396f1	0.0045040776
42	0xbe8314b4	-0.25601733
43	0xbe473b71	-0.19456269
44	0xbe403a78	-0.18772304
45	0xbe64b175	-0.2233332
46	0xbd23315d	-0.039842
47	0xbd945a80	-0.07243824
48	0x3dd78d9d	0.105250575
49	0xbe45742c	-0.19282597
50	0x3e6f8f99	0.23394622
51	0xbe6d046e	-0.23146221
52	0x3e47c8b8	0.19510162
53	0x3d66f71c	0.056388006
54	0x3d608334	0.054812625
55	0xbe5ba079	-0.21447934
56	0x3dbf3e59	0.09338064
57	0xbea93e11	-0.33055165
58	0x3eceab5a	0.40365106
59	0xbe17829f	-0.14795922
60	0xbdf8243c	-0.12116286
61	0x3e937e73	0.2880741
62	0x3db2e538	0.08735126
63	0x3de4e382	0.11176206
64	0xbd83a24e	-0.064274415
65	0xbeae0457	-0.33987686
66	0xbde2edac	-0.110804886
67	0x3d69368d	0.05693679
68	0xbd0d3d76	-0.03448244
69	0xbd22c1e1	-0.03973568
70	0xbe093e13	-0.13402586
71	0xbe6b69f3	-0.22989635
72	0xbea9966c	-0.33122575
73	0xbe27decb	-0.16393583
74	0x3ccf0d50	0.025274903
75	0xbea031f2	-0.31288105
76	0x3e2c2aaa	0.1681315
77	0x3cdd71d1	0.027031811
78	0x3cc6a2fa	0.024247635
79	0xbe57c12c	-0.21069783
80	0x3e7cddc6	0.24693975
81	0x3d400b00	0.04688549
82	0xbe8b1584	-0.27164853
83	0xbe38dfe8	-0.18054163
84	0xbd2ecce8	-0.042675883
85	0xbe16e0cc	-0.1473419
86	0x3dcc5d09	0.099786825
87	0xbdb31d12	-0.08745779
88	0xbdd3b0d5	-0.103364624
89	0xbce8541a	-0.028360415
90	0xbe88b6c2	-0.26701933
91	0xbd7f2f7a	-0.062301137
92	0x3e4c5e97	0.19957958
93	0xbe212db1	-0.15740086
94	0x3ce1675e	0.02751511
95	0x3c8f6293	0.017503059
96	0xbb94d6aa	-0.0045421915
97	0xbd68d4c8	-0.05684355
98	0x3dbfa07c	0.09356782
99	0xbc99672c	-0.018725954
100	0x3dd5c4ad	0.104379036
101	0xbe27c7ae	-0.16384766
102	0x3eee253a	0.46512777
103	0x3e7f0050	0.24902463
104	0xbedf9a7f	-0.4367256
105	0xbd8f9778	-0.07011312
106	0xbea26495	-0.31717363
107	0x3e400c08	0.1875459
108	0xbe105b45	-0.14097317
109	0xbda2a29a	-0.0794117
110	0xbe01bbb7	-0.12669264
111	0xbd6714b2	-0.05641622
112	0xbdedaf4f	-0.11605703
113	0xbe7ffd30	-0.24998927
114	0x3e8a592e	0.27021164
115	0xbe651493	-0.2237113
116	0xba542885	-0.0008093196
117	0x3d732ae3	0.05936707
118	0x3e523db8	0.20531356
119	0x3d1fe7ee	0.039039545
120	0x3e3558b3	0.17709617
121	0x3e968987	0.294018
122	0x3d135bb8	0.03597614
123	0x3dc509e8	0.0962103
124	0x3e97b40e	0.29629558
125	0xbce94f49	-0.028480189
126	0x3ee177c7	0.44036695
127	0x3eb7dbb6	0.35909814
128	0x3e08d86c	0.13363808
129	0x3b3b1c59	0.0028550832
130	0x3e3c72fc	0.18403238
131	0xbdb2da92	-0.08733095
132	0x3e8ed204	0.27894604
133	0xbed54b09	-0.4165881
134	0xbd64145a	-0.05568347
135	0x3e1482a8	0.14502966
136	0xbe13e157	-0.14441429
137	0xbd74ac6b	-0.059734743
138	0x3c852e88	0.01625754
139	0x3dcec062	0.10095288
140	0x3e4ce7ca	0.20010296
141	0xbe3a76de	-0.18209407
142	0xbc494155	-0.012283643
143	0xbd855f63	-0.06512334
144	0xbdcc5030	-0.09976232
145	0xbe8834a0	-0.2660265
146	0xbbec841b	-0.0072178966
147	0xbe3c37e7	-0.183807
148	0x3c0eac5d	0.008708087
149	0xbde212af	-0.1103872
150	0xbcd714dd	-0.026255066
151	0xbedeed67	-0.435405
152	0x3dcedd51	0.101008065
153	0xbd6975c9	-0.056997094
154	0xbe63a4a8	-0.2223078
155	0xbe05e531	-0.13075711
156	0x3e0138c1	0.12619306
157	0xbea215cc	-0.31657255
158	0x3e199c75	0.1500109
159	0x3b1d3005	0.002398492
160	0x3ea6d47a	0.32583982
161	0xbd3d272c	-0.046179935
162	0x3b9806b5	0.0046394714
163	0xbe05d39f	-0.13069008
164	0xbe54535f	-0.20734929
165	0xbe0beaaf	-0.13663743
166	0xbe7b0b2a	-0.24515978
167	0x3e7f741e	0.24946639
168	0xbe71e31e	-0.23621795
169	0xbd115fec	-0.03549187
170	0xbdeac7d3	-0.11463895
171	0xbdd07321	-0.10178209
172	0x3d653266	0.055956267
173	0x3ed5ab3c	0.41732204
174	0xbdab5e81	-0.083676346
175	0xbda4b291	-0.08041871
176	0xbc7515b8	-0.014958791
177	0xbdb971d1	-0.09054912
178	0xbd51a1fe	-0.05117988
179	0xbdb4e1de	-0.08832143
180	0x3e6aeba4	0.22941452
181	0xbc8f8dfd	-0.01752376
182	0x3c296386	0.01033867
183	0x3ebb2d4d	0.36558
184	0xbe0b3a05	-0.13596351
185	0xbc9bfe74	-0.019042231
186	0x3cd0f125	0.025505612
187	0x3c79784f	0.015226438
188	0x3cb97139	0.022636997
189	0x3b25bfc8	0.0025291312
190	0xbe601143	-0.21881585
191	0xbe6bbe1c	-0.2302174
192	0xbdbbc73e	-0.09168862
193	0x3d431691	0.047628943
194	0xbdd3a390	-0.103339314
195	0xbcc1691f	-0.023609696
196	0xbc54062f	-0.012940927
197	0xbe824126	-0.2544033
198	0xbe9aa5f3	-0.30204734
199	0xbc3b1bce	-0.011420203
200	0x3e9a4b1f	0.30135438
201	0xbe265071	-0.16241623
202	0x3da0262e	0.07819782
203	0x3c140b72	0.009035932
204	0xbe692943	-0.22769646
205	0xbeca519c	-0.39515388
206	0x3e34b2fd	0.17646404
207	0xbd95bec0	-0.07311773
208	0xbda8a2dd	-0.08234189
209	0x3e2df7a0	0.16988993
210	0x3ef679f5	0.4813992
211	0xbd865341	-0.06558848
212	0xbe85a12e	-0.26099533
213	0xbe37f759	-0.1796545
214	0x3e7d88b0	0.24759173
215	0xbdb0376c	-0.08604321
216	0xbe48f9d7	-0.19626556
217	0xbe70b888	-0.23507893
218	0xbd18dd03	-0.03732015
219	0xbe893482	-0.26797873
220	0x3e8bd699	0.27312163
221	0xbdfc121b	-0.12308141
222	0xbcc3cfff	-0.023902891
223	0x3e10936b	0.14118735
224	0xbcbce7f8	-0.02305983
225	0xbe690397	-0.22755276
226	0x3e0f66b0	0.14004016
227	0xbe812d65	-0.25229946
228	0x3e69ac6c	0.2281968
229	0x3e2368b7	0.15957914
230	0x3d96c970	0.0736264
231	0xbde517fb	-0.111862145
232	0xbe3d5c0c	-0.18492144
233	0xbdcbb50b	-0.099466406
234	0xbe62ddab	-0.22154872
235	0x3cd01b75	0.025403718
236	0x3e21cd8a	0.15801063
237	0xbe004113	-0.12524824
238	0xbcefa961	-0.02925557
239	0xbe99f665	-0.30070797
240	0x3eac97e0	0.3370962
241	0xbee1e9a6	-0.44123572
242	0x3eb10029	0.34570435
243	0x3e4b0bf0	0.19828773
244	0x3d144353	0.036197018
245	0xbdb1d892	-0.08683886
246	0x3e5b6c57	0.21428047
247	0x3e80e251	0.25172666
248	0x3e5d6a43	0.21622567
249	0x3d5b3420	0.053516507
250	0x3e88a7ef	0.26690623
251	0xbe0866e0	-0.13320494
252	0x3da9ca1a	0.08290501
253	0xbdda52cf	-0.10660326
254	0xbda0477b	-0.07826134
255	0xbe259141	-0.16168691

actor_mlp.mlp.0.bias f4 [256]
0	0x3d8bc23f	0.06824159
1	0xbd5e49fe	-0.054269783
2	0x3d2a322b	0.04155175
3	0x3c7798c3	0.015112105
4	0x3dfbc4bb	0.12293383
5	0xbe082895	-0.13296731
6	0xbc1afabe	-0.009459196
7	0xbc437628	-0.011930026
8	0x3e7e0e2e	0.24810097
9	0xbcc23a06	-0.023709308
10	0xbd68ad07	-0.056805637
11	0xbc92bdf8	-0.01791285
12	0xbdc05934	-0.09392014
13	0x3dd8d0e8	0.10586721
14	0xbeb8e10a	-0.3610919
15	0xbe26ab2f	-0.16276239
16	0xbb1ee1ea	-0.0024243542
17	0x3e525798	0.20541227
18	0xbe128660	-0.14309072
19	0xbe504125	-0.2033735
20	0x3d25ce1d	0.040479768
21	0x3ea00676	0.3125493
22	0x3c9df773	0.019283032
23	0xbdc6cc18	-0.097068965
24	0x3ca78ee4	0.020453878
25	0xbca5b430	-0.020227522
26	0x3d4a7014	0.049423292
27	0x3e1da3a9	0.15394463
28	0x3c83ee88	0.016104952
29	0xbd902e16	-0.0704004
30	0x3bc5c507	0.0060354504
31	0xbc85b6ae	-0.01632246
32	0xbe7805f9	-0.24221028
33	0xbe29e695	-0.16591866
34	0xbe221ac4	-0.15830523
35	0xbc853c75	-0.01626418
36	0xbe9c37ac	-0.30511224
37	0xbd2a6387	-0.041598823
38	0xbe2e9c8b	-0.17051904
39	0x3d63dc70	0.055630147
40	0x3d28b5ea	0.04118911
41	0x3dff6224	0.12469891
42	0xbd533d63	-0.051572215
43	0xbcef6382	-0.029222254
44	0xbe8a65fa	-0.27030927
45	0x3c93a4cf	0.018022923
46	0x3b2b74af	0.0026162078
47	0x3d65a1b6	0.056062423
48	0x3d17d7b7	0.037070956
49	0x3dd470fe	0.10373114
50	0x3dbd9062	0.092560545
51	0xbe6e01d5	-0.23242886
52	0x3d697cfe	0.057003967
53	0xbd89e3de	-0.06732915
54	0x3dd54eee	0.10415445
55	0x3d861e77	0.065487795
56	0x3e1c6b66	0.15275344
57	0x3df10202	0.11767961
58	0x3ddac6c9	0.106824465
59	0x3d5313b1	0.05153245
60	0x3d98aaab	0.07454427
61	0xbe2186ce	-0.1577408
62	0xbe3331a0	-0.17499399
63	0xbcb12912	-0.02162603
64	0xbe22b87b	-0.15890686
65	0x3e3a1511	0.18172099
66	0xbdc7d7e1	-0.097579725
67	0xbe57e5e0	-0.21083784
68	0xbdaac01f	-0.083374254
69	0xbdbc0400	-0.091804504
70	0xbea47440	-0.32119942
71	0xbcddbf05	-0.027068624
72	0xbda7ba70	-0.08189857
73	0xbe003844	-0.12521464
74	0xbd82dd2c	-0.063898414
75	0xbd692db6	-0.05692836
76	0xbde505a6	-0.11182718
77	0xbb68e5cb	-0.0035537358
78	0xbce54187	-0.027985347
79	0xbe185885	-0.14877518
80	0x3caa4ca6	0.020788502
81	0xbc4f8e07	-0.012668139
82	0x3d84f98b	0.06492909
83	0xbc514295	-0.012772222
84	0xbe20e77f	-0.15713309
85	0xbbc6b75f	-0.00606434
86	0xbd961624	-0.07328442
87	0xbd92c839	-0.07167096
88	0xbe3d81d7	-0.18506561
89	0x3db49dc5	0.08819155
90	0xbda40e6f	-0.080105655
91	0xbd8124ec	-0.063058704
92	0x3c33c0f6	0.010971298
93	0xbe250796	-0.16116175
94	0xbdb7067f	-0.08936786
95	0x3abbec86	0.0014337457
96	0xbe29ad59	-0.16570033
97	0x3d45de56	0.04830774
98	0xbe60b3dc	-0.21943611
99	0x3d2d46b0	0.04230374
100	0x3ddb4847	0.10707145
101	0xbe27b869	-0.1637894
102	0xbd9533e2	-0.072852865
103	0x3e3ade6f	0.18248914
104	0x3d36b820	0.04460919
105	0x3e58b019	0.21160926
106	0x3d9430da	0.0723588
107	0xbdb3bb79	-0.08775992
108	0xbe22028b	-0.15821283
109	0x3d1be19f	0.038056966
110	0xbdb21c97	-0.08696859
111	0x3dfd239f	0.1236031
112	0xbc72e9ec	-0.014826279
113	0xbe28aa42	-0.16471198
114	0xbdcb3242	-0.09921695
115	0x3e217e66	0.15770873
116	0xbe51c781	-0.20486261
117	0xbe736613	-0.23769407
118	0xbd5d72e1	-0.054064635
119	0x3de97dd0	0.1140095
120	0xbc15cece	-0.009143544
121	0x3e043f14	0.12914687
122	0xbe066e1f	-0.13127945
123	0x3d44e408	0.04806903
124	0xbddf3e4f	-0.10900556
125	0x3e197249	0.14985003
126	0xbe803b78	-0.2504537
127	0x3d1ad9d9	0.037805412
128	0xbe0f01de	-0.13965556
129	0xbe480afb	-0.19535439
130	0x3dc0c391	0.09412301
131	0x3cd74193	0.026276385
132	0xbd63df06	-0.055632614
133	0xbe13fe03	-0.14452367
134	0x3cc405d7	0.023928566
135	0x3dd61851	0.10453857
136	0x3dad5973	0.08464327
137	0x3e1074bf	0.14107035
138	0xbd1fd177	-0.03901812
139	0x3dc5e782	0.09663297
140	0x3daae13d	0.08343742
141	0xbd47ed53	-0.048810314
142	0x3e536c48	0.20646775
143	0xbd1ac502	-0.037785538
144	0x3e3a5abd	0.18198676
145	0x3db92559	0.090403266
146	0xbeae17d8	-0.34002566
147	0x3d7d6cbb	0.06187127
148	0xbb3ffa28	-0.0029293392
149	0xbdf6b00a	-0.120452955
150	0xbd90b30d	-0.07065401
151	0x3d2201d1	0.039552514
152	0x3c5e0750	0.013551548
153	0xbde6baf0	-0.11266124
154	0xbe054c3c	-0.13017362
155	0x3e219af5	0.15781768
156	0x3d8194d7	0.06327217
157	0xbd90a6a7	-0.070630364
158	0x3e03bef8	0.12865818
159	0x38b2a1de	8.5178515e-05
160	0x3d050749	0.03247765
161	0xbde03464	-0.10947493
162	0x3d9c798c	0.07640371
163	0x3d0eeefd	0.034895886
164	0xbda9cadb	-0.08290645
165	0xbd690974	-0.05689378
166	0xbc208dbc	-0.009799417
167	0xbc8dd564	-0.017313667
168	0xbdad57ca	-0.0846401
169	0x3e386b4e	0.18009683
170	0xbdda7449	-0.10666711
171	0x3db77b82	0.08959104
172	0xbd194d9c	-0.03742753
173	0x3e4f9998	0.20273435
174	0x3e1e0f0e	0.1543543
175	0xbe6c9e80	-0.23107338
176	0xbdda3dd0	-0.10656321
177	0xbde4be43	-0.11169102
178	0xbbb02640	-0.0053756535
179	0x3d8303b9	0.063971944
180	0x3acbe175	0.0015554862
181	0xbca45bf1	-0.020063372
182	0xba2d4240	-0.0006609298
183	0xbe3bd620	-0.18343401
184	0xbdfe8953	-0.12428536
185	0xbcadb6a7	-0.02120526
186	0xbe144abb	-0.14481632
187	0xbe25939b	-0.16169588
188	0x3e1c29f5	0.1525038
189	0xbcb86e86	-0.02251364
190	0xbdd89539	-0.10575337
191	0xbda0fbd2	-0.07860531
192	0xbdbf3513	-0.09336295
193	0x3d4a7a52	0.04943306
194	0x3d73a607	0.059484508
195	0x3cd96ef7	0.02654217
196	0x3d9c2d29	0.07625801
197	0x3bd5564d	0.006510532
198	0x3d1fc570	0.03900665
199	0x3d834905	0.06410412
200	0x3d2876c2	0.04112888
201	0xbe0c23ca	-0.13685527
202	0x3e0e2605	0.13881691
203	0x3ccf1ea8	0.025283173
204	0xbdcdd933	-0.10051193
205	0xbd353025	-0.044235367
206	0x3dc710ce	0.09720002
207	0x3daca138	0.084291875
208	0x3e68d9cd	0.22739334
209	0x3dc9d26f	0.0985459
210	0xbe5cb827	-0.21554624
211	0xbd9f0cc4	-0.07766107
212	0x3e7ff6f0	0.24996543
213	0x3cac4039	0.021026717
214	0xbd602219	-0.054720018
215	0xbda3c799	-0.079970546
216	0xbe83c787	-0.25738165
217	0xbd92300f	-0.07138073
218	0x3e037383	0.12837033
219	0x3cee83b0	0.029115528
220	0xbe042bb6	-0.129073
221	0xbdc7e17a	-0.09759803
222	0xba2cf3be	-0.00065976
223	0x3c929dd7	0.01789753
224	0x3d8061f5	0.06268684
225	0x3e3c4a4a	0.18387714
226	0xbdf8f00e	-0.12155162
227	0xbe30a0e8	-0.17248881
228	0xbd9ae9f6	-0.07564156
229	0x3db6f1bb	0.08932825
230	0xbd3cb65e	-0.046072356
231	0x3e02d972	0.12778261
232	0x3e1144e4	0.14186436
233	0x3d233412	0.03984458
234	0xbdb1c09c	-0.086793154
235	0xbd5c6f72	-0.05381722
236	0xbe5c335e	-0.2150397
237	0x3d53b7a0	0.05168879
238	0xbe5421a9	-0.20715965
239	0xbd7aae2b	-0.061201256
240	0x3d3f3357	0.04667982
241	0x3e288b7a	0.16459456
242	0x3e3c7a64	0.18406063
243	0xbe1838ef	-0.14865468
244	0xbec5d0c7	-0.38635847
245	0x3ad24a7f	0.001604393
246	0x3c4227ed	0.011850339
247	0x3d38f4d8	0.045155376
248	0x3db28840	0.08717394
249	0x3e118154	0.14209491
250	0x3d1b624d	0.037935544
251	0xbca9b600	-0.020716667
252	0x3e2a7e29	0.16649689
253	0xbdab51ba	-0.083651975
254	0xbd8e6777	-0.06953328
255	0xbdd9af9e	-0.106291994

actor_mlp.mlp.2.weight f4 [128, 256]
0	0x3d380a53	0.04493172
1	0x3c985d91	0.018599303
2	0xbc0d0633	-0.008607435
3	0x3d9fbb1b	0.077993594
4	0x3e4fc90b	0.20291536
5	0xbe0ed87a	-0.13949767
6	0xbe084470	-0.13307357
7	0xbd17eb54	-0.03708966
8	0x3e6b7512	0.22993878
9	0xbe92f9cf	-0.28706214
10	0xbe1a7968	-0.15085375
11	0x3e008a62	0.12552789
12	0x3e6e393c	0.2326402
13	0x3cb3c420	0.021944106
14	0x3db6f60a	0.08933647
15	0xbe197c4a	-0.14988819
16	0xbeacfa9a	-0.33784944
17	0x3e647dd0	0.22313619
18	0x3d9fc19c	0.078006
19	0xbd1da86e	-0.038490705
20	0x3e72f054	0.2372449
21	0xbd35b09b	-0.044357877
22	0x3e3e9b8e	0.18614027
23	0x3e0dad48	0.13835633
24	0xbde60581	-0.112315185
25	0xbe4a2bc4	-0.19743258
26	0x3e31a1ca	0.17346874
27	0x3e068c18	0.13139379
28	0xbdf0838b	-0.1174384
29	0x3d6d9534	0.05800362
30	0x3e2650aa	0.16241708
31	0xbded3f13	-0.11584296
32	0xbe144db3	-0.14482765
33	0xbe71e7a1	-0.23623516
34	0x3d85b364	0.06528357
35	0xbe2fa7b1	-0.17153813
36	0x3d6c879c	0.057746515
37	0xbde776be	-0.11301945
38	0x3cd44b8a	0.025914926
39	0x3c389a18	0.011267208
40	0xbe1d7702	-0.15377429
41	0xbdf109b6	-0.1176943
42	0x3d86e302	0.06586267
43	0xbd6eb9dd	-0.05828272
44	0xbbb8146e	-0.00561767
45	0xbe19e606	-0.15029153
46	0xbe30b6cb	-0.1725723
47	0xbdb98bdf	-0.090598814
48	0xbdb050b0	-0.0860914
49	0x3f16ae1a	0.5885941
50	0x3dd5d8f9	0.10441775
51	0xbd07f813	-0.033195566
52	0x3e4727c8	0.19448769
53	0xbe411707	-0.1885644
54	0x3cd5fca2	0.026121441
55	0xbda168ad	-0.078812934
56	0x3d9481d5	0.07251326
57	0xbe08db07	-0.13364802
58	0x3e55ad84	0.20866972
59	0xbde91239	-0.11380429
60	0x3e534a78	0.20633876
61	0xbdd1d950	-0.10246527
62	0xbdb1eae4	-0.0868738
63	0x3d8b8e48	0.06814247
64	0xbdb08bfb	-0.08620449
65	0x3e61b098	0.22040021
66	0x3d42007f	0.047363754
67	0x3d0e6ad3	0.034769844
68	0xbe0e5cdc	-0.1390261
69	0x3d9cb76d	0.07652173
70	0xbcc74f2f	-0.02432975
71	0x3c7f5552	0.015584307
72	0x3dd41d1f	0.10357117
73	0xbd31c6df	-0.04340255
74	0xbd64610e	-0.05575662
75	0x3d01c12e	0.03167837
76	0x3e34d4a9	0.17659248
77	0xbe9e1c94	-0.30881178
78	0x3cab29a6	0.020893883
79	0xbd9bed25	-0.07613591
80	0x3e1b6bd4	0.15177852
81	0x3cd3e805	0.025867471
82	0x3e83d038	0.25744796
83	0xbd4e7dba	-0.05041287
84	0x3dd61823	0.104538225
85	0x3e9a9ca1	0.30197623
86	0x3e4bf373	0.19917087
87	0x3de0cf95	0.10977093
88	0xbe6d2b0b	-0.23160951
89	0x3ebea33f	0.37233922
90	0xbe158c1f	-0.14604233
91	0x3e4013da	0.18757573
92	0x3d99acaf	0.0750364
93	0x3e732e68	0.23748171
94	0x3c495751	0.012288884
95	0xbe82e481	-0.2556496
96	0x3c9fdab8	0.019513473
97	0x3e051b00	0.12998581
98	0x3bcd9ad1	0.006274559
99	0x3e3f590b	0.18686311
100	0x3d889c48	0.06670433
101	0x3d25bed8	0.040465206
102	0x3e73a5e2	0.23793748
103	0x3e14d95e	0.14536044
104	0x3e23e9e8	0.16007197
105	0x3d9e657d	0.07734201
106	0x3ce91e01	0.02845669
107	0x3d3ebfdf	0.0465697
108	0x3d06fd02	0.03295613
109	0xbe76f180	-0.24115562
110	0xbcb232b5	-0.021752695
111	0x3e385a99	0.1800331
112	0xbdc13c2f	-0.09435307
113	0x3e681bfd	0.22666927
114	0xbdf44733	-0.11927643
115	0x3dd9f859	0.10643072
116	0x3dc6bbda	0.097037986
117	0xbe197ba4	-0.14988571
118	0xbe474e1b	-0.19463389
119	0x3df6fe42	0.120602146
120	0x3e42a81a	0.19009438
121	0xbdf3f40d	-0.11911783
122	0x3e9758b3	0.2955986
123	0x3e050012	0.12988308
124	0xbca6a4ea	-0.020342309
125	0x3b90b468	0.0044160374
126	0x3e19bd00	0.15013504
127	0x3e6ce575	0.23134406
128	0x3cdcc997	0.026951594
129	0xbe51fd11	-0.20506693
130	0xba2bfc0c	-0.000656069
131	0x3d0ffb43	0.03515173
132	0xbcb854c8	-0.022501364
133	0xbebe9a45	-0.37227073
134	0x3e07bc67	0.13255464
135	0x3efb5b53	0.49093112
136	0x3e5e6bf8	0.21720874
137	0x3e095056	0.13409552
138	0x3e5b271c	0.21401638
139	0x3e17d9df	0.14829205
140	0x3e5c9835	0.21542437
141	0xbeda5fc5	-0.4265119
142	0xbc4f45a2	-0.012650879
143	0xbd42ba28	-0.047540814
144	0xbe165cb3	-0.146838
145	0xbdf0ab7c	-0.11751458
146	0x3d0b2bdc	0.033977374
147	0x3da1bf02	0.0789776
148	0xbc986073	-0.018600678
149	0x3e91fd45	0.28513542
150	0xbe34c87f	-0.17654608
151	0x3b7b2fa0	0.0038327947
152	0xbe84a3ea	-0.25906307
153	0xbf1589f8	-0.5841365
154	0xbd9746ef	-0.073865764
155	0x3d777121	0.060410623
156	0x3ded9e67	0.116024785
157	0xbdb0d7b5	-0.08634893
158	0x3dfb028a	0.12256344
159	0x3de17734	0.11009064
160	0xbd25cfe0	-0.04048145
161	0xbdc85145	-0.09781126
162	0xbd48c1d3	-0.04901297
163	0x3c3f503f	0.011676847
164	0xbc2aa168	-0.010414459
165	0x3e10d463	0.14143519
166	0x3e2a9004	0.166565
167	0xbdb7ea15	-0.089801945
168	0xbdf082fe	-0.11743735
169	0x3e8163ff	0.25271603
170	0x3d6259cf	0.05526143
171	0x3e3f88d6	0.18704543
172	0x3e359542	0.17732719
173	0x3e861eba	0.26195318
174	0xbd780f82	-0.060561664
175	0x3cf3db3e	0.029767629
176	0x3d09f36e	0.03367942
177	0xbdb37f9e	-0.087645754
178	0x3eb1fb0d	0.3476185
179	0xbd64bbea	-0.05584327
180	0x3e605925	0.21909006
181	0xbe8c281e	-0.27374357
182	0x3e49e3a3	0.19715743
183	0xbcebdcb9	-0.028791772
184	0x3e111d5f	0.1417136
185	0xbecd443d	-0.40091124
186	0xbee3a17d	-0.44459143
187	0x3e45ed56	0.19328818
188	0x3e20f244	0.15717417
189	0x3eb84c10	0.3599553
190	0xbe9a0e45	-0.30089012
191	0x3df29f4f	0.11846792
192	0xbdb2e5d8	-0.087352455
193	0x3e32266d	0.17397471
194	0xbe50c0b2	-0.20386007
195	0xbe1dc8c3	-0.15408616
196	0xbdb2dfc2	-0.08734085
197	0xbe441de2	-0.19152024
198	0x3de643aa	0.11243375
199	0x3e780ccc	0.24223632
200	0x3e91e930	0.2849822
201	0x3d8f1d0e	0.069879636
202	0x3ea0e78b	0.31426653
203	0x3e1d1670	0.1534059
204	0xbe363c59	-0.17796458
205	0xbd588218	-0.052858442
206	0x3e457bb3	0.19285469
207	0x3d09c536	0.03363534
208	0x3da6f490	0.08152115
209	0x3db5c2e3	0.08875062
210	0xbe09dad3	-0.13462381
211	0xbdf38d3f	-0.11892175
212	0x3dd2e7fb	0.10298153
213	0xbe69971a	-0.22811547
214	0xbe71ab54	-0.23600513
215	0xbe3a436a	-0.18189779
216	0xbd9909f3	-0.07472601
217	0x3ec1d3f3	0.37857017
218	0x3e58b0b6	0.2116116
219	0x3e4f8bc9	0.20268168
220	0x3e1c739a	0.15278473
221	0xbdf9edd4	-0.12203565
222	0x3db50e71	0.08840645
223	0xbd014ef8	-0.03156945
224	0x3e108048	0.14111435
225	0x3e363c9e	0.17796561
226	0xbe8de241	-0.2771168
227	0x3db08eb6	0.0862097
228	0xbd492ec1	-0.049116854
229	0xbe04af4e	-0.12957498
230	0x3d9a56d7	0.07536095
231	0x3e24a2bc	0.16077703
232	0x3d8b8caa	0.06813939
233	0xbdcc8ebe	-0.099881634
234	0xbe942684	-0.28935635
235	0xbe65e031	-0.22448803
236	0xbe2498f9	-0.1607398
237	0xbc829631	-0.015940757
238	0xbe3f0422	-0.1865392
239	0xbdae1cbf	-0.08501577
240	0x3e3a9364	0.18220288
241	0xbc01350f	-0.007886185
242	0x3ea036bb	0.31291756
243	0x3dcd6521	0.100290544
244	0x3d6c56ad	0.057699848
245	0xbe188257	-0.1489347
246	0x3d8e7c51	0.06957305
247	0xbe1589e0	-0.14603376
248	0x3dbcd535	0.092203535
249	0x3dcdaf0c	0.10043153
250	0x3d32c593	0.043645453
251	0x3c8a9358	0.016915962
252	0x3b84ae4f	0.0040490995
253	0x3d8a461f	0.06751656
254	0x3bd06c2a	0.0063605504
255	0xbd66dec3	-0.056364786

actor_mlp.mlp.2.bias f4 [128]
0	0x3d96dafe	0.07365988
1	0xbe462969	-0.19351734
2	0x3d551367	0.052020457
3	0x3cc74ac1	0.024327638
4	0x3d43d842	0.04781366
5	0xbe1f527d	-0.1555881
6	0x3e005adb	0.12534659
7	0xbccf65ae	-0.02531704
8	0x3b67ee79	0.0035389944
9	0xbdc00e3d	-0.09377716
10	0x3cacb9f3	0.021084761
11	0x3cc81875	0.024425725
12	0xbe340a9c	-0.17582172
13	0x3db74890	0.08949387
14	0xbe858806	-0.2608034
15	0xbe6991e0	-0.22809553
16	0xbe265ed4	-0.16247112
17	0xbca88ef1	-0.020575972
18	0xbe31b536	-0.17354283
19	0xbd6b75fb	-0.05748556
20	0x3c1e309a	0.009655142
21	0x3e63ee21	0.22258808
22	0x3df90612	0.12159361
23	0xbd46b790	-0.048514903
24	0x3dc43e87	0.09582239
25	0xbcd6d404	-0.026224144
26	0x3d0acc8c	0.033886477
27	0xbd769367	-0.060199168
28	0xbc63b00a	-0.013896951
29	0x3d8e6f73	0.06954851
30	0x3d9bb985	0.076037444
31	0xbe3da906	-0.18521509
32	0xbe430a87	-0.19046985
33	0xbceba300	-0.028764248
34	0xbd14fb05	-0.036372203
35	0xbe194e89	-0.14971365
36	0xbda8d76b	-0.08244213
37	0xbd963603	-0.07334521
38	0x3da8c5d4	0.08240858
39	0xbdea35e0	-0.11436057
40	0x3c86c4f9	0.016451346
41	0xbcb1397a	-0.021633852
42	0x3b1f5232	0.0024310467
43	0xbe05ff78	-0.13085735
44	0xbd93df57	-0.07220333
45	0xbd9d4756	-0.07679622
46	0xbd9ece8e	-0.07754241
47	0x3e14d1ec	0.14533204
48	0x3dd36635	0.10322229
49	0x3d71ea3b	0.05906127
50	0x3e3062b6	0.17225155
51	0xbd477b3c	-0.04870151
52	0x3dfd6742	0.123732105
53	0x3dfd63ad	0.12372527
54	0xbd9d962c	-0.07694659
55	0x3e1bd5fa	0.15218344
56	0x3d2a1f07	0.041533496
57	0xbda945ad	-0.08265243
58	0xbc68920a	-0.014194975
59	0xbd98981f	-0.0745089
60	0xbe9b25f1	-0.30302384
61	0x3de427a6	0.11140375
62	0x3d7cd904	0.0617304
63	0xb7f8127d	-2.9572513e-05
64	0x3c5818cd	0.013189507
65	0xbc7c6621	-0.015405209
66	0x3dd602dc	0.10449764
67	0xbd660cb5	-0.056164462
68	0x3e67f0a5	0.22650392
69	0x3d79a945	0.060952444
70	0x3d5a490d	0.053292323
71	0xbea42e97	-0.32066795
72	0xbdda3745	-0.10655073
73	0x3e6c6b73	0.23087864
74	0x3e109291	0.1411841
75	0x3e591a5d	0.21201463
76	0xbe233658	-0.15938699
77	0xbd22a482	-0.039707668
78	0xbbc7b941	-0.006095082
79	0xbd63449f	-0.055485364
80	0x3d878125	0.06616429
81	0xba699207	-0.00089100044
82	0xbde3bd7d	-0.111201264
83	0xbd298d40	-0.041394472
84	0xbe3e5d3d	-0.18590255
85	0x3d9ab6e6	0.07554416
86	0x3d94ff40	0.072752476
87	0xbe22528c	-0.15851802
88	0xbde03c91	-0.10949052
89	0x3d513a90	0.05108124
90	0xbda0d26f	-0.07852637
91	0x3d253d1e	0.04034149
92	0xbe54e647	-0.20790969
93	0xbe1f0115	-0.15527757
94	0x3d9cef7b	0.07662865
95	0x3c17d3c7	0.0092668
96	0xbdd7826b	-0.10522922
97	0x3e0bf407	0.13667308
98	0xbe5354c0	-0.20637798
99	0xbde7a777	-0.11311238
100	0x3da3dd91	0.08001245
101	0x39fe633f	0.000485206
102	0x3d2acc9a	0.04169903
103	0x3dccdaa4	0.1000264
104	0xbc3a6622	-0.011376889
105	0xbdba4942	-0.09096004
106	0xbd486787	-0.048926856
107	0x3e58d99e	0.21176764
108	0x3cd36cce	0.025808718
109	0xbe17984a	-0.14804187
110	0xbe8e03c3	-0.27737245
111	0xbdbd180f	-0.092331044
112	0xbc980d62	-0.018561069
113	0xbe373a41	-0.17893316
114	0x3cb016a8	0.021495178
115	0xbe802274	-0.25026286
116	0xbe902cc9	-0.28159168
117	0xbdd6b7f7	-0.10484307
118	0xbde94c26	-0.11391477
119	0xbd54cbc7	-0.05195215
120	0x3e17ebbd	0.14836021
121	0xbd8f959d	-0.07010958
122	0xbdcfe965	-0.10151938
123	0x3d986918	0.0744192
124	0xbe240c6e	-0.16020367
125	0xbe21c10e	-0.15796301
126	0x3d737813	0.059440684
127	0xbd12aabf	-0.035807367

value_mlp.mlp.0.weight f4 [256, 27]
0	0xbe10b41b	-0.14131205
1	0xbd83e58e	-0.064402685
2	0x3d33932e	0.043841533
3	0xbdc87a91	-0.09789003
4	0xbd3ae3ae	-0.04562729
5	0xbc4c3dd8	-0.012465917
6	0xbd69d78a	-0.05709032
7	0x3cca60b3	0.024704313
8	0x3defea05	0.117145576
9	0xbd95aa7b	-0.07307907
10	0x3de84f87	0.11343294
11	0xbd4f9d3a	-0.050687052
12	0x3d9c6183	0.076357864
13	0x3d2d228b	0.04226927
14	0xbc729e12	-0.014808195
15	0xbd22d495	-0.039753515
16	0xbcfdeed7	-0.030997677
17	0x3d7795b4	0.060445502
18	0x3e130440	0.1435709
19	0x3d7771e5	0.060411353
20	0xbe651e2c	-0.22374791
21	0xbdc72e66	-0.09725647
22	0x3c762035	0.015022327
23	0x3e429336	0.19001469
24	0xbd03eebe	-0.032210104
25	0x3d68a5df	0.056798812
26	0xbd81b2eb	-0.06332954
27	0x3e627b03	0.22117238
28	0xbd9757e3	-0.0738981
29	0xbe3cdf1d	-0.18444486
30	0x3cbb57f5	0.02286909
31	0xbcef1bf6	-0.029188138
32	0xbdbef521	-0.093240984
33	0xbd7a4844	-0.061104074
34	0x3d86a758	0.06574887
35	0x3c994692	0.018710408
36	0xbd712281	-0.058870796
37	0x3dc3e7ac	0.09565672
38	0xbe8aecf3	-0.27133903
39	0x3cfa2eb8	0.030539855
40	0xbd8ddc9d	-0.06926844
41	0x3e029af8	0.12754428
42	0xbdd92c33	-0.106041335
43	0xbe58111c	-0.21100277
44	0x3ded5365	0.11588172
45	0x3e36113e	0.17780015
46	0x3e088390	0.13331437
47	0x3d50f1ff	0.051012035
48	0x3e0f47cf	0.13992237
49	0xbe65c668	-0.22438967
50	0x3e1bac3d	0.15202422
51	0x3d21f3d0	0.03953916
52	0x3ca9db3f	0.020734427
53	0xbcb967f1	-0.022632571
54	0xbd8319bc	-0.06401393
55	0xbe164ffc	-0.14678949
56	0x3dc002f5	0.09375564
57	0x3cb5f4de	0.022211488
58	0x3d4d6ee8	0.050154597
59	0x3df174c5	0.1178985
60	0x3d9b3f61	0.07580448
61	0xbdc7c15a	-0.09753676
62	0xbdc3f152	-0.095675126
63	0x3d2bdf98	0.041961282
64	0x3c586049	0.01320655
65	0x3d08da8d	0.03341155
66	0x3d6af288	0.057360202
67	0x3b885a2b	0.0041611395
68	0xbd8c6b49	-0.068564005
69	0xbb93c21d	-0.004509224
70	0x3cf78696	0.030215543
71	0xbc6ec259	-0.014572703
72	0xbde9959d	-0.114054896
73	0xbe195887	-0.14975177
74	0xbc8ccd24	-0.017187662
75	0xbdd9de76	-0.10638134
76	0xbd8383be	-0.06421612
77	0x3d16810e	0.03674417
78	0xbd1d9c0e	-0.038478903
79	0xbd00e32a	-0.03146664
80	0xbda01ed2	-0.078183785
81	0x3c923f94	0.017852582
82	0x3d8b51aa	0.068026856
83	0x3df4e459	0.11957616
84	0x3c4cee9d	0.012508062
85	0xbbbd08b2	-0.005768859
86	0x3d6787b9	0.05652592
87	0xbc7d222a	-0.01545004
88	0xbe219cf8	-0.15782535
89	0x3ce70189	0.028198974
90	0xbda1a9c8	-0.07893711
91	0xbce2cf7c	-0.027686827
92	0xbd932065	-0.07183913
93	0x3c9fb44b	0.01949515
94	0x3d64ecdd	0.055889953
95	0x3d102ee4	0.03520097
96	0x3df23185	0.11825851
97	0x3d0df6b3	0.0346591
98	0x3d0fd185	0.035111923
99	0x3da8687b	0.08223053
100	0xbdb0d48f	-0.08634292
101	0x3beca61b	0.0072219498
102	0xbcf73ce5	-0.030180404
103	0xbcec6fb0	-0.02886185
104	0xbd80fde9	-0.062984295
105	0x3c1093b3	0.008824277
106	0x3b8436bb	0.0040348447
107	0x3c218bb6	0.00985997
108	0x3e1e32a9	0.15449013
109	0xbe5f1322	-0.21784642
110	0xbc896c35	-0.01677523
111	0xbe7710f9	-0.24127568
112	0x3dea5189	0.11441333
113	0xbe62c315	-0.2214473
114	0xbd90500b	-0.07046517
115	0xbcec5621	-0.028849663
116	0xbdd475aa	-0.10374005
117	0xbcba2479	-0.02272247
118	0x3d62ce71	0.05537266
119	0xbe64da14	-0.22348815
120	0x3e11a82b	0.14224307
121	0x3e5e34ad	0.21699782
122	0x3d60dcda	0.05489812
123	0xbd6f3ac9	-0.05840567
124	0x3e6d0489	0.23146261
125	0x3b8a53ee	0.004221431
126	0xbda56bfd	-0.08077238
127	0xbce3d699	-0.02781229
128	0xbc96fb98	-0.018430516
129	0x3cdd1df2	0.026991818
130	0xbd8de413	-0.06928267
131	0xbcd311ae	-0.025765266
132	0x3daf7f0d	0.08569155
133	0xbd8eb9fe	-0.06969069
134	0xbd2a8f9e	-0.04164087
135	0x3bbf945e	0.005846544
136	0xbe006778	-0.1253947
137	0x3ded558e	0.11588584
138	0x3dc9e2e3	0.09857728
139	0xbd21f116	-0.039536558
140	0xbe385746	-0.18002042
141	0x3e5fca63	0.21854548
142	0xbd99c294	-0.07507816
143	0xbd593af5	-0.05303474
144	0x3dea43cb	0.11438712
145	0x3e2a785f	0.1664748
146	0x3e3a7f39	0.18212594
147	0xbe11a77b	-0.14224045
148	0x3e0b3b13	0.13596754
149	0x3df19dc4	0.117976695
150	0xbd244ce2	-0.040112384
151	0x3d0e609e	0.03476011
152	0x3da7f39d	0.082007624
153	0xbcaad220	-0.020852149
154	0x3dac8a26	0.08424787
155	0xbd16f396	-0.036853395
156	0x3d0ab35b	0.033862453
157	0x3e186208	0.14881146
158	0x3e3dc39b	0.18531649
159	0xbe27a0bd	-0.1636991
160	0x3d433fae	0.04766815
161	0xbe28a401	-0.16468813
162	0xbe2b8b0b	-0.1675226
163	0x3e040d34	0.12895662
164	0xbcb0b881	-0.021572353
165	0xbd362000	-0.04446411
166	0xbdbe8d6a	-0.09304316
167	0xbbf16308	-0.007366542
168	0xbce043f9	-0.027376162
169	0x3c966ab1	0.018361421
170	0x3df37b16	0.11888711
171	0xbdb489ac	-0.08815321
172	0x3e101eb0	0.14074206
173	0x3d13d732	0.036093898
174	0x3d1d694c	0.038430497
175	0xbcfa8048	-0.030578747
176	0x3c36ab8b	0.0111492975
177	0x3ca37bf3	0.019956565
178	0x3df1c753	0.11805596
179	0xbe6ab6b4	-0.22921258
180	0xbc86fe0d	-0.016478563
181	0xbe37054c	-0.17873114
182	0xbd9da751	-0.07697929
183	0xbd84f329	-0.064916916
184	0x3dda9f1b	0.10674878
185	0xbd25d438	-0.04048559
186	0x3d923eda	0.07140894
187	0xbd242a8d	-0.040079642
188	0x3d4f4db2	0.050611205
189	0xbd8298fc	-0.06376836
190	0xbb97b690	-0.0046299174
191	0xbcbf1ced	-0.023329223
192	0xbda93987	-0.082629256
193	0xbbb240b8	-0.005439844
194	0x3e17c808	0.148224
195	0xbe43b2d3	-0.19111185
196	0xbcd96e86	-0.02654196
197	0xbdfa30bb	-0.12216326
198	0xbdc04ce1	-0.093896635
199	0x3c386cfd	0.011256454
200	0xbd85dae8	-0.06535894
201	0x3db16fbd	0.086638905
202	0xbc6a00d2	-0.014282422
203	0x3e43a358	0.1910528
204	0x3d910f1e	0.070829615
205	0x3dbebb2d	0.09313045
206	0x3ceca870	0.028888911
207	0xbb6f2e35	-0.0036496047
208	0xbe067d82	-0.13133815
209	0xbbfdf8a3	-0.007750587
210	0xbd74940a	-0.059711494
211	0xbdfa0783	-0.12208464
212	0xbd60de69	-0.054899607
213	0x3c9c980b	0.019115468
214	0xbdc74465	-0.09729842
215	0x3e0bb013	0.13641386
216	0x3df7c523	0.12098148
217	0x3d55f3da	0.052234508
218	0x3dcd436b	0.100226246
219	0x3d4ca283	0.04995967
220	0xbd6d8291	-0.057985846
221	0x3dc51cc8	0.0962463
222	0x3da1bdb9	0.07897515
223	0xbdad68b6	-0.08467238
224	0x3e283fe3	0.16430621
225	0xbd6d4bc1	-0.057933573
226	0x3d78ef3c	0.060775027
227	0x3da4a061	0.08038402
228	0xbc76bf41	-0.015060247
229	0xbd44bb6b	-0.0480303
230	0x3d83a4fc	0.06427953
231	0xbc3ab254	-0.011395056
232	0xbc4d35c4	-0.012525026
233	0x3dd2ac1c	0.102867335
234	0xbb8261b4	-0.0039789323
235	0x3d16ef8c	0.036849543
236	0xbe124c63	-0.14286952
237	0x3abe36ff	0.001451224
238	0x3dd70a53	0.10500016
239	0xbd9cfbd0	-0.07665217
240	0xbd2554ca	-0.040364064
241	0xbe217e25	-0.15770777
242	0x3db1e6a5	0.0868657
243	0x3db4ccad	0.08828101
244	0x3dac2d31	0.08407057
245	0x3e334ee7	0.17510568
246	0xbda84685	-0.082165755
247	0xbdc97b20	-0.09837937
248	0x3d521931	0.051293556
249	0x3ddb158f	0.10697471
250	0x3de08794	0.109633595
251	0x3e97bfce	0.29638523
252	0xbcaa5086	-0.02079035
253	0x3d6345bf	0.055486437
254	0x3cc9b792	0.024623666
255	0xbd97a1a0	-0.074038744

value_mlp.mlp.0.bias f4 [256]
0	0x3c091cb5	0.008368661
1	0x3c2aaeb7	0.010417632
2	0x3e68b39a	0.22724763
3	0xbdabc44d	-0.08387051
4	0x3ea1818b	0.31544146
5	0x3e53a567	0.20668565
6	0xbe7f34c7	-0.24922477
7	0xbcb282b4	-0.02179084
8	0x3de86efe	0.11349295
9	0x3e84ae1b	0.25914082
10	0x3e881a6c	0.26582658
11	0x3f07745d	0.5291193
12	0x3adfa288	0.0017061988
13	0xbeaa57fa	-0.33270246
14	0xbd9d1a13	-0.07670989
15	0x3e116819	0.14199866
16	0x3e04bb1a	0.12961999
17	0x3e8e7b9a	0.27828676
18	0xbe5b1494	-0.21394569
19	0xbc77bc21	-0.015120537
20	0x3d875812	0.06608595
21	0x3dc5195b	0.09623977
22	0x3eb7cf8f	0.35900542
23	0xbdfab781	-0.12242032
24	0xbd3ecdd2	-0.046583004
25	0x3d9c4e50	0.076321244
26	0xbe97a323	-0.2961665
27	0xbe3fbccb	-0.18724363
28	0xbe501efa	-0.20324317
29	0x3eabffd6	0.33593625
30	0x3d3e836b	0.04651205
31	0x3e34bdb5	0.17650492
32	0xbeb0be56	-0.34520215
33	0xbd8cb738	-0.06870884
34	0x3d473a0f	0.048639353
35	0xbe3bc850	-0.18338132
36	0xbe408e97	-0.18804394
37	0xbe16bc65	-0.14720304
38	0xbdd0427f	-0.10168933
39	0x3d67a6b6	0.056555472
40	0xbde283d1	-0.11060298
41	0xbe101aa0	-0.14072657
42	0xbd8597ef	-0.0652312
43	0x3d26a95c	0.040688857
44	0xbe8353be	-0.25649828
45	0x3ea959e0	0.33076382
46	0x3d2814a5	0.041035313
47	0x3e0e3c40	0.13890171
48	0xbecdc67f	-0.40190503
49	0x3ec2e75d	0.3806714
50	0x3f203c3a	0.625919
51	0x3e958088	0.29199624
52	0xbc09f5ac	-0.008420389
53	0xbdb9c8c7	-0.09071498
54	0xbf0884ba	-0.53327525
55	0x3e1f3d88	0.15550816
56	0xbdf65fd6	-0.12029998
57	0xbd99a36c	-0.075018734
58	0x3e540b86	0.20707521
59	0x3d990cdc	0.07473156
60	0xbc2d7ec1	-0.0105893025
61	0xbd895916	-0.06706445
62	0x3e79f148	0.24408448
63	0x3eaf9c3b	0.34298882
64	0x3e4746a4	0.19460541
65	0x3e233542	0.15938285
66	0xbe0948c3	-0.13406663
67	0xbbe08b37	-0.006852533
68	0x39c93f5d	0.00038384917
69	0xbd8977ee	-0.06712328
70	0x3e87a6e2	0.2649451
71	0xbde881e4	-0.113529
72	0x3d4383ab	0.04773299
73	0xbe10e69c	-0.1415047
74	0x3e156aed	0.1459157
75	0x3da8416d	0.08215604
76	0xbe1400a4	-0.1445337
77	0x3e8149f8	0.25251746
78	0x3dec7384	0.1154547
79	0xbccb78cf	-0.02483788
80	0xbd819890	-0.06327927
81	0x3ddab53f	0.10679101
82	0xbead7e4a	-0.33885413
83	0x3ca8e486	0.020616781
84	0x3e9e27d9	0.30889776
85	0x3dcb3b2d	0.09923396
86	0x3ee8b04c	0.45447004
87	0x3eb56f96	0.35436696
88	0x3e74ff90	0.23925614
89	0xbc65c2ca	-0.014023492
90	0x3cf2f333	0.029656982
91	0xbe95b034	-0.29235995
92	0x3da50dc7	0.080592684
93	0x3ed2c1f4	0.411636
94	0x3dde900d	0.10867319
95	0xbe8382e1	-0.2568579
96	0xbe569df0	-0.20958686
97	0x3c65f396	0.014035126
98	0x3c015fdb	0.007896389
99	0x3eb50582	0.35355765
100	0x3c4b59f0	0.0124115795
101	0x3e83426f	0.25636622
102	0xbeb9c548	-0.36283326
103	0x3f2d36bc	0.67661643
104	0x3c291d90	0.01032199
105	0x3f269590	0.65071964
106	0xbd228ef1	-0.0396871
107	0x3e5d4675	0.21608908
108	0xbe99b11c	-0.30017936
109	0x3d90a991	0.07063592
110	0x3f044827	0.51672596
111	0xbe0fb2b5	-0.14033015
112	0x3dd4b618	0.10386294
113	0x3d9e593d	0.077318646
114	0xbc458e81	-0.012057901
115	0xbeca1d64	-0.39475548
116	0x3e18c6ff	0.14919661
117	0x3e59c31a	0.21265832
118	0xbb846ade	-0.00404106
119	0xbe0d4b78	-0.1379832
120	0x3e08423e	0.1330652
121	0xbd6185e6	-0.055059336
122	0x3e9337e1	0.2875357
123	0x3e4f6124	0.202519
124	0xbd060700	-0.03272152
125	0x3ec0a9f7	0.37629673
126	0x3e9e21b5	0.3088509
127	0x3edd53d5	0.4322802
128	0x3ec23d60	0.3793745
129	0xbd8332ef	-0.06406199
130	0xbefceb8c	-0.49398458
131	0x3d68182f	0.05666369
132	0x3e075a8b	0.13218133
133	0xbd723305	-0.059130687
134	0xbe83fcb4	-0.25778735
135	0x3e2bba43	0.16770272
136	0xbe9ea091	-0.30981877
137	0x3e8647dd	0.26226702
138	0x3ca58fdd	0.0202102
139	0x3ea3520d	0.31898537
140	0x3b59ae73	0.0033215552
141	0x3e5769f6	0.21036515
142	0x3ee8335e	0.4535169
143	0x3eaf07a5	0.3418552
144	0x3dde3099	0.10849113
145	0xbe93ac2f	-0.28842303
146	0xbdf22a84	-0.118245155
147	0x3d18cd0f	0.037304934
148	0x3e813c07	0.2524111
149	0x3d23db35	0.040003974
150	0x3f03fd0f	0.5155801
151	0xbcfa6dca	-0.03056993
152	0x3eb33a38	0.35005355
153	0xbc3379da	-0.010954345
154	0xbd294d46	-0.04133346
155	0x3dea9825	0.114548005
156	0xbebe1e60	-0.3713255
157	0x3d025c3b	0.03182624
158	0x3ed314bf	0.41226766
159	0x3e2be8aa	0.16787973
160	0x3e3c6139	0.18396463
161	0xbe8c3508	-0.2738421
162	0x3e53cb8e	0.20683119
163	0x3d3c861f	0.046026345
164	0x3a09f802	0.00052630913
165	0xbea4e286	-0.32204074
166	0xbe34845a	-0.17628613
167	0x3d7a940b	0.06117634
168	0x3e1c8089	0.15283407
169	0xbd049004	-0.032363907
170	0xbd8ccb29	-0.06874687
171	0xbe43a18b	-0.19104593
172	0x3e10a55d	0.14125581
173	0x3d014226	0.031557225
174	0x3e953ba8	0.29147077
175	0x3d321635	0.04347821
176	0x3d8a381e	0.06748985
177	0x3d466166	0.04843273
178	0xbe2cf51a	-0.16890374
179	0x3d8afcf5	0.06786529
180	0x3ceda501	0.029009344
181	0xbe4e025f	-0.20118092
182	0x3ed2c13f	0.4116306
183	0x3ea5f2a0	0.3241167
184	0xbe41d28e	-0.18927976
185	0x3e76731a	0.24067345
186	0xbd3243c4	-0.043521658
187	0x3ea75e56	0.3268916
188	0xbe0354c1	-0.128253
189	0x3d69b38f	0.057056006
190	0xbb7b72ac	-0.003836791
191	0x3d390751	0.045172993
192	0xbe5e227e	-0.21692845
193	0xbd9545fb	-0.07288738
194	0xbda7d519	-0.08194942
195	0xbdac6c51	-0.08419097
196	0xbe2be94a	-0.16788211
197	0x3df147a5	0.11781243
198	0xbf0a6d4d	-0.5407303
199	0xbe5dea8f	-0.21671508
200	0x3e08c9f9	0.13358296
201	0x3d95df4b	0.073179804
202	0xbe99128d	-0.29896966
203	0xbe20e5c8	-0.15712655
204	0x3cfa59ed	0.030560458
205	0xbe30e5d1	-0.17275168
206	0xbdc8dbbc	-0.09807536
207	0xbd19e7b1	-0.037574474
208	0x3edd512a	0.43225986
209	0x3eb753a4	0.35806
210	0x3edd0ba6	0.4317295
211	0x3e30945e	0.17244098
212	0xbd5d5dd9	-0.05404458
213	0xbe94edc5	-0.29087654
214	0x3e70ffae	0.23535034
215	0xbeaee687	-0.34160253
216	0xbe64f90d	-0.2236063
217	0x3da8153a	0.08207174
218	0xbe592cc2	-0.2120848
219	0xbeab9fd1	-0.33520368
220	0x3ddcbffc	0.107788056
221	0xbbd4f42e	-0.006498835
222	0xbe1b9a65	-0.15195616
223	0xbda4da73	-0.080494784
224	0xbed88f57	-0.4229686
225	0xbeb623dc	-0.35574234
226	0x3e23583d	0.15951629
227	0x3e89b412	0.26895195
228	0xbe4daee8	-0.20086253
229	0xbe39d75d	-0.18148561
230	0x3ea96cd1	0.33090833
231	0xbe92cb5e	-0.28670782
232	0xbd945463	-0.07242658
233	0x3e38d369	0.18049397
234	0x3cff47ba	0.031162132
235	0x3e00e4a9	0.12587227
236	0x3ea14f09	0.31505612
237	0x3da09728	0.07841331
238	0x3e2b3594	0.16719657
239	0x3d91a365	0.07111243
240	0xbdd8f5fd	-0.105937935
241	0x3dc3ccf1	0.09560574
242	0xbd76621e	-0.060152166
243	0xbdc40375	-0.09570972
244	0xbe64a576	-0.22328743
245	0xbdd45d96	-0.103694126
246	0xbeaa6f49	-0.3328803
247	0xbde5e10b	-0.11224564
248	0xbb6b5c54	-0.0035913186
249	0xbeb54c0e	-0.35409588
250	0xbe7a0e24	-0.24419457
251	0x3e54dfe0	0.20788527
252	0xbef9409c	-0.48682106
253	0x3c986a18	0.018605277
254	0x3e5ee0ab	0.21765392
255	0x3d94f124	0.072725564

value_mlp.mlp.2.weight f4 [128, 256]
0	0xbdd8e1db	-0.105899535
1	0x3d0220e7	0.03176966
2	0x3e25cc35	0.1619118
3	0xbd8d3e89	-0.06896693
4	0xbd8f75df	-0.07004904
5	0x3cd65fa8	0.02616866
6	0xbda0ef48	-0.07858139
7	0xbcdb8fde	-0.026802
8	0xbd4ca7a1	-0.04996455
9	0x3db342cd	0.087529756
10	0x3d287f67	0.041137125
11	0xbc747971	-0.014921532
12	0xbdb179c2	-0.086658016
13	0xbb426c31	-0.0029666538
14	0x3d618ec2	0.055067785
15	0xbdc2e484	-0.09516242
16	0xbb105569	-0.0022023565
17	0xbe072c22	-0.13200429
18	0x3dc92630	0.09821737
19	0xbd9ba603	-0.076000236
20	0xbd25dbf3	-0.040492963
21	0x3cfa0795	0.030521194
22	0xbc60acaa	-0.013713041
23	0xbd70fb4a	-0.058833398
24	0xbdb46ffd	-0.088104226
25	0xbd1abccc	-0.037777707
26	0x3dbb3745	0.09141401
27	0xbdee09b2	-0.11622943
28	0x3dd7cf86	0.10537629
29	0xba197326	-0.0005853645
30	0x3e3c2ec1	0.1837721
31	0xbced8a58	-0.028996632
32	0x3ba3c9b6	0.004998411
33	0x3dfb0ace	0.1225792
34	0x3d6ccb32	0.05781097
35	0x3c2fd0d9	0.0107309455
36	0x3dc9cad7	0.09853142
37	0x3db77c37	0.08959239
38	0xbda70f8a	-0.08157261
39	0xbd333717	-0.04375371
40	0x3d310445	0.043216962
41	0xbde9c6af	-0.11414849
42	0x3d4d2876	0.050087415
43	0x3cae556b	0.021280965
44	0xbdc4c989	-0.09608752
45	0xbdf1c6b3	-0.11805477
46	0xbd9f2000	-0.077697754
47	0xbe02ef7b	-0.12786667
48	0xbdc5dac3	-0.09660866
49	0xbcaa2d58	-0.020773575
50	0xbd4787d0	-0.048713505
51	0xbd958ff7	-0.0730285
52	0xbe02a499	-0.12758102
53	0x3dada707	0.084791236
54	0x3e2efafd	0.17087932
55	0x3df8893b	0.1213555
56	0x3c30c41d	0.010788945
57	0x3d42f652	0.04759819
58	0xbc643509	-0.01392866
59	0x3a2cf227	0.0006597363
60	0x3d8cf9b2	0.06883563
61	0x3d7509ca	0.05982379
62	0xbd855109	-0.06509597
63	0xbda176cb	-0.07883986
64	0xbcd5c349	-0.026094096
65	0x3c95812e	0.018250074
66	0xbd92a544	-0.07160428
67	0xbdb896df	-0.090131514
68	0x3e3fc902	0.18729022
69	0x3e2bf7af	0.16793703
70	0xbcb4296e	-0.021992411
71	0xbdd076ac	-0.10178885
72	0x3dbfc83e	0.09364365
73	0x3c996406	0.018724453
74	0x3db623f8	0.08893579
75	0x3d2062d4	0.03915675
76	0x3db09e1c	0.08623907
77	0x3ceee186	0.029160272
78	0xbdda3a19	-0.106556125
79	0x3dc40c66	0.09572677
80	0x3c91954e	0.01777139
81	0x3d9ad221	0.0755961
82	0x3da21931	0.07914961
83	0x3de08db5	0.109645285
84	0xbdc0b840	-0.09410143
85	0xbc6bcb82	-0.014391782
86	0xbe01f0c9	-0.12689508
87	0xbe0e1667	-0.13875733
88	0xbe3a184c	-0.18173331
89	0x3de1acbe	0.11019276
90	0x3d72e214	0.059297636
91	0xbccf9cf0	-0.025343388
92	0xbd983f48	-0.07433945
93	0x3c83f290	0.016106874
94	0xbc827736	-0.015925985
95	0xbd3cec91	-0.046124045
96	0xbe158add	-0.14603753
97	0xbd84e624	-0.06489208
98	0xbde00b56	-0.10939662
99	0xbc8450d8	-0.01615183
100	0x3c828b3b	0.01593553
101	0xbcd2781c	-0.025692038
102	0x3e113b75	0.14182837
103	0xbda971a9	-0.08273632
104	0x3d730209	0.059328113
105	0xbe0bdd1f	-0.1365857
106	0x3d4f9df4	0.050687745
107	0xbdd0bc8a	-0.10192211
108	0x3d5e6315	0.05429371
109	0xbd338b4d	-0.04383402
110	0xbdf37137	-0.118868284
111	0xbe22d5e4	-0.15901905
112	0x3bdc2f40	0.0067195
113	0x3dc762a5	0.09735612
114	0xbdf45c2c	-0.11931643
115	0x3dc35b1d	0.09538863
116	0xbbc2a35c	-0.005939884
117	0xbe5bdbd0	-0.2147057
118	0xbe1509d2	-0.14554527
119	0x3e656692	0.22402409
120	0x3d1a6d9f	0.0377022
121	0x3e3e1de1	0.18566085
122	0x3d1b20c2	0.037873037
123	0xbd073f96	-0.033019625
124	0x3cc41f00	0.023940563
125	0xbde2225b	-0.11041709
126	0xbdc4e089	-0.09613139
127	0xbd442175	-0.04788347
128	0xbe2defe1	-0.16986038
129	0xbd5b7670	-0.053579748
130	0x3ddcaba1	0.10774923
131	0x3d19ddba	0.03756497
132	0xbd9765a0	-0.0739243
133	0xbd74720d	-0.05967908
134	0xbccfe67d	-0.02537846
135	0xbc4d93ba	-0.012547428
136	0xbc008ed8	-0.007846557
137	0xbd8ed017	-0.06973284
138	0x3decd40e	0.11563884
139	0x3da13a62	0.07872464
140	0xbcb450ec	-0.022011243
141	0xbe0cf8f9	-0.1376685
142	0xbda8e221	-0.08246256
143	0xbbc2cd57	-0.0059448886
144	0x3d2ba1d8	0.041902393
145	0x3d8799c3	0.066211246
146	0xbcaaca4f	-0.020848421
147	0xbe0c7b72	-0.13718966
148	0x3da58cc6	0.08083491
149	0xbe021ac3	-0.12705521
150	0xbcbb2fd9	-0.022849964
151	0xbd9bfbf2	-0.07616414
152	0x3cd1d64e	0.025614884
153	0x3b25825e	0.0025254707
154	0x3dd6adc0	0.10482359
155	0xbd64b70b	-0.055838626
156	0xbc3663c7	-0.011132187
157	0x3d2043fe	0.039127342
158	0x3dad5fb8	0.084655225
159	0x3b4a548b	0.0030873145
160	0x3db9cf7d	0.090727784
161	0x3e146b53	0.14494066
162	0x3d7bb5d8	0.061452717
163	0xbd9c730e	-0.076391324
164	0x3dd6727b	0.10471054
165	0x3daaecd5	0.083459534
166	0x3d5470be	0.05186533
167	0xbd4e41f8	-0.05035588
168	0xbcfc8e27	-0.030829502
169	0x3d48774d	0.0489419
170	0xbd56bdb0	-0.052426994
171	0x3d642408	0.055698425
172	0xbc64d17e	-0.013965962
173	0xbd992f0b	-0.07479676
174	0xbd1168f6	-0.03550049
175	0xbd8b7d89	-0.06811053
176	0xbd11188a	-0.035423793
177	0x3d27c92d	0.04096334
178	0xbd6e8c8a	-0.058239497
179	0x3cceb05f	0.025230585
180	0xbb9f53d7	-0.0048622894
181	0x3e2ae464	0.16688687
182	0xbdb51e1a	-0.08843632
183	0xbe26f276	-0.16303429
184	0x3e21cb7c	0.1580028
185	0xbc0999c0	-0.008398473
186	0x3e19d501	0.15022661
187	0x3dd56340	0.10419321
188	0x3d89be0a	0.067257
189	0x3c8335f6	0.016016942
190	0xbd54872b	-0.05188672
191	0xbda390a7	-0.079865746
192	0xbdfd1ae6	-0.12358646
193	0x3daa0b33	0.08302917
194	0x3d026e43	0.031843435
195	0x3e324a1f	0.17411087
196	0x3e490b7d	0.19633289
197	0xbd2d9a81	-0.042383675
198	0x3ce3a80f	0.027790098
199	0xbc1c09ad	-0.009523791
200	0x3dfc5de6	0.12322597
201	0x3db8d42a	0.09024842
202	0x3d96353d	0.07334373
203	0x3d8f21a0	0.06988835
204	0xbc266bfd	-0.010157582
205	0xbe02faa4	-0.12790924
206	0xbd65b16c	-0.056077406
207	0xbe4f727a	-0.20258513
208	0xbd8af6a4	-0.06785324
209	0xbe224199	-0.15845336
210	0xbdcf713f	-0.10129022
211	0x3db34a2b	0.08754381
212	0xbb184b7a	-0.0023238347
213	0x3dde62cb	0.10858687
214	0xbde4beff	-0.11169242
215	0x3d8fae44	0.070156604
216	0x3e0d24fd	0.13783641
217	0xbd9e6fab	-0.07736143
218	0x3d8bc68a	0.06824978
219	0x3cf61d14	0.030043162
220	0xbd2518ae	-0.04030674
221	0x3ceac10e	0.028656509
222	0x3d874090	0.06604111
223	0xbd39443e	-0.045231096
224	0x3dbebbb7	0.093131475
225	0x3d13e951	0.03611118
226	0xbdd015f3	-0.101604365
227	0x3da7de99	0.08196754
228	0x3e44ee4d	0.1923153
229	0x3caf2864	0.021381564
230	0x3d95114b	0.07278689
231	0x3c423343	0.011853042
232	0x3d2feabf	0.04294848
233	0xbcf2899c	-0.029606633
234	0x3cc27ded	0.023741687
235	0xbd2bfec7	-0.04199102
236	0xbc25caba	-0.010119135
237	0x3d427452	0.047474213
238	0x3ddfdc6b	0.10930713
239	0x3d3ae2a0	0.045626283
240	0x3e8115c5	0.2521192
241	0x3ce11570	0.027476043
242	0xbcfd03f7	-0.03088568
243	0xbae8120d	-0.0017705575
244	0x3c903d5d	0.017607385
245	0x3cdac954	0.026707329
246	0x3d18e7af	0.037330326
247	0x3e1c2182	0.15247157
248	0xbc52d674	-0.012868512
249	0xbc60496f	-0.013689383
250	0x3dd49404	0.10379794
251	0xbd9d873f	-0.07691812
252	0x3d90f385	0.07077698
253	0xbc6c7570	-0.014432296
254	0xbdd90908	-0.10597426
255	0x3d0ad3c3	0.033893358

value_mlp.mlp.2.bias f4 [128]
0	0xbc0b708a	-0.008510718
1	0xbbdbbe27	-0.0067060175
2	0xbc6b60b2	-0.014366316
3	0xbea14435	-0.3149735
4	0xbded6b67	-0.11592751
5	0xbe021eb7	-0.1270703
6	0xbe278e3b	-0.1636285
7	0x3c8c4da2	0.017126862
8	0xbe12ab69	-0.143232
9	0xbe29c95c	-0.16580719
10	0x3bcae3df	0.006191715
11	0xbe4a91c1	-0.19782163
12	0xbdec3048	-0.115326464
13	0xbda6d2aa	-0.0814565
14	0xbe984105	-0.29737106
15	0xbbf42490	-0.0074506477
16	0xbe3d3584	-0.18477446
17	0xbe52ca58	-0.20585
18	0xbdcc6ce2	-0.09981705
19	0xbdd268d3	-0.102739
20	0xbe497cb1	-0.19676472
21	0xbbfe4ec7	-0.007760856
22	0xbe598a26	-0.21244106
23	0xbcb683c2	-0.022279624
24	0x3c4630dd	0.012096611
25	0xbdfa9364	-0.12235144
26	0xbd97094a	-0.073748186
27	0xbe2b1541	-0.16707326
28	0xbe2a9b11	-0.16660716
29	0xbddb2798	-0.10700911
30	0xbdef262e	-0.11677204
31	0xbe0ba1e5	-0.13635977
32	0xbcc843e0	-0.024446428
33	0xbe3f3de6	-0.18675956
34	0x3d6a0945	0.057137746
35	0x3cdcff2a	0.02697714
36	0xbdd5e889	-0.10444743
37	0xbe1d8540	-0.15382862
38	0xbcf0222b	-0.029313168
39	0xbed1aaae	-0.4095053
40	0x3cc6dbba	0.024274696
41	0xbd98322f	-0.07431447
42	0x3d02ac06	0.031902336
43	0xbd5a323b	-0.05327056
44	0x3c95ec5a	0.018301178
45	0xbc1d8c6a	-0.009615997
46	0xbdb950d8	-0.09048623
47	0xbe550757	-0.20803581
48	0xbdfed415	-0.12442795
49	0xbc79fb00	-0.015257597
50	0xbded1b79	-0.115775056
51	0xbdb93b42	-0.09044506
52	0x3c41e497	0.011834285
53	0xbe2193da	-0.15779057
54	0xbdd72ebe	-0.10506962
55	0xbd879ccc	-0.066217035
56	0xbe222745	-0.15835293
57	0xbd5200b0	-0.051270187
58	0xbe6745c3	-0.22585206
59	0xbd72fc57	-0.05932268
60	0x3cbe7c7b	0.023252716
61	0xbe3ae69e	-0.18252036
62	0xbe237b12	-0.15964916
63	0x3c1fd547	0.009755439
64	0xbdf300ae	-0.11865364
65	0xbe11b36f	-0.14228605
66	0xbd776a70	-0.06040424
67	0xbe2c63b5	-0.1683491
68	0xbe3ac491	-0.18239047
69	0xbc7dc3a5	-0.01548854
70	0xbd4fcd96	-0.05073317
71	0xbe6087c0	-0.21926785
72	0xbd86a2ff	-0.06574058
73	0xbe635500	-0.22200394
74	0xbdd8c3df	-0.105842344
75	0xbc2aed8f	-0.010432615
76	0xbe21b93b	-0.15793316
77	0xbd369ba4	-0.044582024
78	0x3c4f55d0	0.012654737
79	0xba9024f6	-0.0010997343
80	0xbd3543c8	-0.044254094
81	0xbdd834e8	-0.10556966
82	0xbb9b3ff2	-0.0047378475
83	0xbdd30b7c	-0.10304925
84	0xbbc26fc9	-0.005933736
85	0xbc86ab2a	-0.01643904
86	0xbdbeae86	-0.093106315
87	0x3d19f98b	0.0375915
88	0xbca4e3ce	-0.020128157
89	0xbe0cb816	-0.13742098
90	0xbd99855c	-0.074961394
91	0x3d1b3886	0.0378957
92	0xbe5acc41	-0.21366979
93	0xbbb3ca4f	-0.0054867635
94	0xbdff4689	-0.124646254
95	0x3cf14dcc	0.029456042
96	0xbdefafe6	-0.11703472
97	0xbea8412a	-0.32862216
98	0xbd2d1a6b	-0.042261522
99	0xbe093ed1	-0.13402869
100	0xbce38060	-0.027771175
101	0xbe0c37da	-0.1369318
102	0xbe676d48	-0.22600281
103	0xbe31840b	-0.17335527
104	0xbd4258a1	-0.047447804
105	0xbe506cc5	-0.20353992
106	0xbe8e84e4	-0.27835763
107	0x3c9c4697	0.019076629
108	0xbc7ffaa9	-0.015623727
109	0xbb80eeea	-0.003934731
110	0xbe176afa	-0.14786902
111	0xbd9ec177	-0.07751744
112	0x3ce94a4f	0.028477816
113	0xbe328e8d	-0.17437191
114	0xbe0c9027	-0.13726865
115	0xbb480c00	-0.003052473
116	0xbe168b22	-0.14701512
117	0xbe44feb8	-0.19237792
118	0xbb73c9a5	-0.0037199047
119	0x3bf0eefb	0.0073527074
120	0xbe97346f	-0.2953219
121	0xbdd6d005	-0.10488895
122	0xbde7aad8	-0.11311883
123	0xbe72872a	-0.23684373
124	0x3c20a3f0	0.009804711
125	0xbdd45cb7	-0.103692465
126	0xbe282585	-0.16420563
127	0xbe2d4059	-0.16919078
