assets/models/trace.pth (torch, 332186 bytes, 25 tensors)

sigma f4 [6]
00000000: 35b4 21bc 75df deba 07aa 263c c706 21bc
00000010: d557 143c 5e61 23bc
-0.009869625 -0.0017003851 0.010172374 -0.009828276 0.009054144 -0.009971945

actor_mlp.mlp.0.weight f4 [256, 27]
00000000: 5e86 afbd db0b 91bb 5c0a a93b 780d 13bd
00000010: 08e9 873d 8819 debd 10a6 9dba 4706 e83d
00000020: 5600 273c cb7b 0b3e 903b bbbc 098e 0cbd
00000030: 7c10 1dbd 0a63 bebd d42e cebd 472b 15bc
00000040: f0af b2bc f5a3 60bb 837a 8b3d 7697 23bd
00000050: 35b5 ccbb d68f 39bd 2b0c 8f3d 32cf aabc
00000060: 0dc8 c13d 6e22 a9bd 546d 02bd 9fe8 a4bc
00000070: ab4f 8abd e497 863b 1bc7 26bc cd11 f1bd
00000080: ff4d 34be 8513 e0bb b8fe ccbd c2d4 53be
00000090: 7ef4 493c be7b 3cbe 690c 5abd e224 0d3e
000000a0: a055 d9bc 3253 923c 45eb b3bc 00b3 8e3c
000000b0: 1bfd d33b 5516 c93d 7ee6 8cbd c451 bb3d
000000c0: 1879 80bd 06fe 89bc 6f1c 403c 31e6 31be
000000d0: 6424 08be 11d1 633b 63a3 013c 4cdd 2f3d
000000e0: 5ec5 593e d4fc 2c3e d95e 583d 2d5a 1cbd
000000f0: d3f8 e5bc 70bc 943c dea8 93bd 4e31 db3c
00000100: 285b 563c 9df8 8fbd 0349 533d 8f99 293d
00000110: e156 f93c 136b 29bd 4f87 743e f3ee 87bc
00000120: 8ea6 f63d d738 ecbd 15d1 a0bd 6ea5 e2bd
00000130: 2775 abbb b158 513d f169 a6bd f019 e0bd
00000140: 0fe2 e93d cd8b 25bb 6b53 76bd c419 43bd
00000150: 87f3 52bc 9e56 43bd c638 ddbd 145a fa3c
00000160: 244c 53be 0b68 05be b335 cebd cd7c b4bd
00000170: c6ca 64bd b680 3fbd 0afa cd3d ea1b 163e
00000180: 4304 28bd 8450 cbbc b593 4a3d b653 64bd
00000190: 3e98 5ebc 92c0 f1bd baf4 07be 110b ebbd
000001a0: 1caf b0bc 97d4 86bb ec3f 24bd c1a5 9c3c
000001b0: a657 8f3d 7ad0 a7bc 2c52 6cbd e3e5 cc3c
000001c0: 5d94 af3d 84e7 3e3c 053b e23d 2d26 8dbd
000001d0: f11b b7bd 7f20 0dbe 72a2 12bd b4fe ecbd
000001e0: e295 5e3e 9660 1cbe 35ab 1f3d 9533 3cbc
000001f0: c187 0dbe 0512 9e3d f708 df3b 1cb0 203d
00000200: e954 c3bc 5431 5dbd 839f f43c 0173 e63d
00000210: 4651 743d 750d c03d ecae 3abe e61a 0abd
00000220: cb1b 703d 73fb 09be 9378 3a3e 707e 413d
00000230: 87f0 683e 6692 913c 0ab4 b53d 22a3 7cbd
00000240: 9905 ef3c 2125 81bd 5157 3bbb a611 2bbe
00000250: 3e7b 613d c3fe 0a3e 13b0 ccbd 4b63 8e3c
00000260: 9fef b93c 6b21 693d 6e63 9d3d cff7 f8bd
00000270: 6fa5 2dbe dfed ce3d 1628 583d 27e0 dbbc
00000280: 0236 23bc ff84 9a3d aeac b8bd 9173 95bd
00000290: 24ab 3cbe 8db0 c2bd 0214 173e 224e 843d
000002a0: a435 793c fe52 b13a 6960 2ebd 84f0 903d
000002b0: 31ab 9ebd 27a5 8dbd 0063 80be 894c 363d
000002c0: 6799 9bbd fbbe 9a3d 7837 ee3d a8ae e53d
000002d0: 04cd 1d3d 6606 0abb 3848 333e 73d0 433d
000002e0: 2d80 943c 04fe 173c c9bd 2dbc e72a 04be
000002f0: 0764 de3b be0e 8a3d 3f6f f9ba 0251 9d3d
00000300: cae3 84bd 2bc9 24be e08c 1b3e efad 73bc
00000310: 25b1 453d b4a1 603c f017 133d 1751 95bd
00000320: 2bc1 03be 3a85 633c c97b b5bc a026 dabc
00000330: 6df3 f7bc 436a 5d3d 8d33 933d bf3f 21bc
00000340: b22a ea3d 4aab 953c 9f4c 0dbe a033 27bd
00000350: b688 e23d 9ad2 b5bd 67db 213e e0f4 10bd
00000360: 762e 10bd 9254 933d d1c1 b53d 25aa 1abe
00000370: 7296 0a3e 6f43 973d 957e 10bd 0e19 d33d
00000380: 3d2e a83d d064 f6bc d68c bfbd 1d5d e33b
00000390: 9da8 263d bb36 e53c c4cf ec3a 21d6 03bd
000003a0: c397 b13b 2105 04bd 9094 97bc 08ad 92bd
000003b0: 6590 a4bd fbd9 aabd d7ce e2bd 4645 19be
000003c0: d53c babd 3bfd 4cbd c5c3 17bd e1e7 3e3e
000003d0: 83c8 a6bd ec7a b5bc 1bbd 143c dd22 09be
000003e0: 0066 09be 005f 85bd 8323 21be 7c0e 3c3d
000003f0: 2e65 71bd ee6e e5bb 7e18 8d3d 1ee5 b63d
-0.085705504 -0.004426462 0.0051587056 -0.035901517 0.06636244 -0.108447134 -0.001202764 0.11329322
0.010192951 0.13621442 -0.02285555 -0.034315143 -0.0383458 -0.09296234 -0.100675255 -0.009104556
-0.02181241 -0.0034277414 0.06810477 -0.039939366 -0.0062471875 -0.04530319 0.06984743 -0.020850752
0.09461985 -0.0825852 -0.031842545 -0.020130454 -0.06753477 0.0041074622 -0.010179306 -0.11770973
-0.17607878 -0.0068382644 -0.10009521 -0.2068663 0.012326358 -0.18406579 -0.05323449 0.13783601
-0.026530087 0.017861936 -0.021962771 0.017419338 0.0064693815 0.098187126 -0.068799004 0.09146455
-0.06273097 -0.01684476 0.011725529 -0.17372967 -0.13295132 0.0034762064 0.00791249 0.042935655
0.21266696 0.16893321 0.05282483 -0.038171936 -0.02807275 0.01815626 -0.07209943 0.026756909
0.013083257 -0.07029841 0.0515833 0.04140621 0.030436935 -0.04136188 0.23879741 -0.016593432
0.120434865 -0.11534279 -0.07852379 -0.110667095 -0.0052324715 0.051109973 -0.081256755 -0.10942447
0.114200704 -0.002526033 -0.060138147 -0.047631994 -0.012875444 -0.047690026 -0.10801844 0.03056053
-0.20634514 -0.1302797 -0.10068836 -0.08812866 -0.055857442 -0.046753608 0.10057457 0.14659086
-0.04101969 -0.024818666 0.04945727 -0.055743895 -0.013586102 -0.11804308 -0.1327695 -0.1147672
-0.021567874 -0.004114698 -0.040100023 0.019122006 0.069991395 -0.020485152 -0.057695553 0.025011962
0.0857322 0.011651877 0.11046413 -0.06892047 -0.08940876 -0.13781928 -0.03579945 -0.11572018
0.21736863 -0.1527122 0.038981635 -0.0114869075 -0.13821317 0.07718281 0.0068064886 0.03923045
-0.0238442 -0.05400212 0.029861217 0.11252404 0.05964782 0.09377567 -0.1823079 -0.03371706
0.058620255 -0.13474827 0.18210058 0.04723972 0.22748004 0.017770004 0.0887223 -0.061679013
0.029177474 -0.0630591 -0.002858598 -0.16705951 0.055049174 0.13573746 -0.09994521 0.017381331
0.022697268 0.056916635 0.0768498 -0.12156641 -0.16957639 0.10103964 0.052772604 -0.026840283
-0.009961607 0.07544898 -0.09017311 -0.07297433 -0.1842466 -0.09506331 0.14753726 0.06460215
0.015210543 0.0013528762 -0.042572413 0.07077125 -0.07747496 -0.06916266 -0.2507553 0.044506583
-0.075976186 0.07555958 0.116316736 0.11214954 0.038525596 -0.0021060943 0.17508018 0.047806215
0.018127525 0.009276871 -0.01060433 -0.12906991 0.0067868265 0.06741093 -0.0019030346 0.07681467
-0.0648876 -0.16092364 0.15190458 -0.014873012 0.04826464 0.013710428 0.0359115 -0.07290857
-0.12866656 0.013886744 -0.022153752 -0.026629746 -0.030267442 0.054056417 0.07187567 -0.009841858
0.11433925 0.018270154 -0.1379876 -0.040820718 0.11061232 -0.0887806 0.15806352 -0.03538978
-0.03520056 0.07193865 0.08874858 -0.15103967 0.13533953 0.07385909 -0.035276968 0.10307513
0.08211944 -0.030077368 -0.09353034 0.00693859 0.040688146 0.0279802 0.001806729 -0.03218663
0.0054197027 -0.032231454 -0.018503457 -0.07161909 -0.080353536 -0.08342358 -0.11074608 -0.14967832
-0.09093634 -0.050046187 -0.037051935 0.18643142 -0.08143713 -0.02215334 0.009078289 -0.13392206
-0.13417816 -0.065122604 -0.15736203 0.04591225 -0.058934383 -0.0070017492 0.06889437 0.089304194

actor_mlp.mlp.0.bias f4 [256]
00000000: 0dd6 dbba e701 43bb 0733 b4bb 8fc2 be3b
00000010: fcac 023b 2e0f 903b 8fb7 883b 3e41 a93b
00000020: 1b2b adbb 14a0 7cba 28a1 bb3b 3208 27ba
00000030: fc01 11bb c42f c5bb a4c2 6a3b ab15 e6bb
00000040: 7c80 56b9 6026 ebbb 80aa f13b b2bb f03b
00000050: 2455 c0bb f09a 893b 17cc f53b 4bcf ef3b
00000060: 60ca 053c b7a1 7fbb daf7 04bc 25a8 a73a
00000070: 0281 d03b b242 f2bb e0fc b7bb a157 42bb
00000080: 7dd7 ddbb 540c c4bb 26bd 98bb 34fc db3b
00000090: 3a1e c5bb 5bad bbbb 9d29 fdbb 6e03 dbbb
000000a0: efdd b2bb 7456 b63b f3be 54bb eb00 6a3a
000000b0: feac 923b b9bf daba 9bbe f2b9 8446 ec3b
000000c0: 0fba d03b f5d1 da3a f322 51bb ff18 64bb
000000d0: ca32 d8bb 2075 e83b 0bcd f73b 5da1 1d3b
000000e0: f1de abbb 4b44 c13b 6e38 ea3b 8885 87bb
000000f0: afd9 bbbb 177a c83b d095 02bc 4fd3 9e3b
00000100: 5976 0b3c 705e c0bb 0455 543b d4a1 cebb
00000110: 518c 77bb 1943 a4ba b81b 893b bc74 1c3b
00000120: 9573 03bb c3c6 c6bb 5862 8a3b 9d09 04bc
00000130: a84f 933b 2881 a9ba c1a3 fdbb 08a3 c6bb
00000140: 5cea 7c3b fce6 a23b cccf 953b ac8d 91bb
00000150: de8a 7cbb e625 003c 979a d13b 65c5 cc3b
00000160: b688 95bb a81e a23b aea7 e8bb 6573 8a3b
00000170: 5163 453b b6a2 90bb f2aa fd3b 46a0 2ebb
00000180: b76f 05bc f24a 8bbb 5787 bfbb ca87 94bb
00000190: 593c f13b 25dd d8bb ffc1 db3b bb35 953b
000001a0: 4159 663b d6ab 5bbb 62cf 713a 6f90 fa3b
000001b0: 9b0e ef3b 027b d73b 3dca 3e3b 5648 663b
000001c0: 4524 b43b 661e e539 ec47 efbb 781c 7f3a
000001d0: 2475 cfbb 1e15 b13b 0e7d 21bb 780f abba
000001e0: ea6a 3ebb 1559 63bb 938f e83b 26da 12bb
000001f0: 752c cc3b e8c7 aab9 ff64 033c 914e 933a
00000200: 53e0 2fba e3cd 003c b6bc 1639 a10b 0bbb
00000210: 876e 61ba 99a0 3c3b bd8c ee3b 8aa3 bcbb
00000220: e81e f63b 3833 003b a3c6 713b 3595 063c
00000230: 4eaf 233b 1b39 d23a a309 b1bb a643 27b8
00000240: 5387 cd3b 633f e13b f376 103b 4b7e 2dbb
00000250: 6a1e c9bb 9662 8abb add7 143b ef1c 44bb
00000260: 73ba e23a 86de 6c3b d592 d7bb a125 36bb
00000270: 1deb e63a 3f41 a83b 3e36 d23b e281 85bb
00000280: bf44 f3bb 96ee 9c3a f6bd 023c 4cc5 db3a
00000290: a47e f6bb 5c46 d6bb fa3f c93a 572c 7dba
000002a0: 46cd 2ebb 4cf1 c6bb 2899 b43b aab2 d0bb
000002b0: eb5d f9bb c360 a1ba e53a d33a ea0b ab3b
000002c0: 0b9e 84bb c16b f4bb b560 883b 7cd9 93bb
000002d0: 4f58 b13b 380f 90bb e983 3bbb cd05 f8bb
000002e0: a348 223b 0bd9 b43a 4d4b a43a 060b 793b
000002f0: 3172 e43b 4964 fcbb f330 91ba e271 8e3b
00000300: 607b d8b9 8b58 8cbb 9d9d df3b c6b4 aeba
00000310: d1c6 c3bb d852 b53b c99d cd3b 1b69 97bb
00000320: 79f8 07bb 8a90 073c 1b3b 86ba b670 0bba
00000330: 2f5d b33b 8f4a 05bc a95a cdbb f0c5 6bbb
00000340: 5a18 343b 9587 02bb 0745 713b 9510 98bb
00000350: 06f6 97bb 122b d93b a7d3 873b 5198 7f3b
00000360: 336b 9cbb 461f 86b9 9c66 323b f3f2 193b
00000370: 91e0 c8bb c7ea b0ba ebc0 85bb f63f 03bb
00000380: 6f3a 85ba f598 ebbb 154a e43b 4190 023b
00000390: aad6 e83b 1e2b ca3a 34f3 7c39 9054 be3b
000003a0: 08e7 c3bb df3a 04bc 37f4 95bb 9971 433b
000003b0: 42db 563b 0d09 41bb a0c0 11ba d77a 0d3b
000003c0: fd5c 4eb9 eabc 023c d554 c8bb bbe0 d2bb
000003d0: 6416 09bc b58b 223b e6f1 08bc 8cec e73b
000003e0: c89f 183b 7c5d beba ac08 c93b cb05 d2bb
000003f0: 31c2 eabb 2449 f43b 4ae8 2d3b daea d0bb
-0.0016772166 -0.0029755773 -0.005499247 0.005821533 0.0019939533 0.004396341 0.0041722725 0.005165248
-0.0052846796 -0.00096368906 0.0057259984 -0.00063717656 -0.0022126427 -0.006017657 0.0035821581 -0.007021626
-0.00020456495 -0.0071762055 0.0073750615 0.007346594 -0.0058695246 0.004199378 0.007501136 0.0073184124
0.008165926 -0.0039006302 -0.008115733 0.00127912 0.006363035 -0.0073932046 -0.005614862 -0.0029654282
-0.006770073 -0.005982915 -0.00466122 0.0067134146 -0.006015566 -0.0057274527 -0.007725908 -0.0066837585
-0.0054585855 0.0055645052 -0.0032462447 0.00089265284 0.0044761887 -0.0016689218 -0.0004629985 0.0072105546
0.006369836 0.0016694652 -0.00319117 -0.0034804938 -0.0065978514 0.0070940405 0.007562285 0.002405248
-0.0052450825 0.0058980337 0.00714784 -0.004135791 -0.005732737 0.00611807 -0.007970288 0.0048469673
0.008512103 -0.005870633 0.0032399306 -0.0063059125 -0.0037772844 -0.0012532204 0.0041842125 0.002387329
-0.0020057906 -0.0060661747 0.0042231493 -0.008058933 0.0044955797 -0.0012932168 -0.0077404683 -0.0060619153
0.0038591838 0.004971383 0.0045718905 -0.0044419374 -0.003853492 0.007821536 0.0063966024 0.006249117
-0.0045634164 0.004947502 -0.007100067 0.004225182 0.0030119012 -0.004413928 0.0077413255 -0.0026645823
-0.008144311 -0.0042508775 -0.005844991 -0.004532789 0.0073619303 -0.0066181594 0.0067064757 0.0045535243
0.0035148414 -0.003351917 0.0009224323 0.0076466124 0.0072954423 0.006575943 0.0029112243 0.003513833
0.0054974877 0.00043700932 -0.007302275 0.000973172 -0.006331103 0.0054041287 -0.0024641189 -0.0013050875
-0.0029055425 -0.0034690548 0.0070971935 -0.0022407859 0.0062308856 -0.00032573869 0.008019685 0.0011238625
-0.0006709147 0.007861587 0.00014375415 -0.0021216648 -0.00085995387 0.0028782247 0.007279961 -0.0057568
0.0075110085 0.0019561779 0.0036892078 0.008214285 0.0024976316 0.0016038747 -0.00540276 -3.9878905e-05
0.0062722354 0.0068740114 0.0022043556 -0.0026472982 -0.006137659 -0.004223178 0.002271156 -0.0029924472
0.0017297998 0.0036143376 -0.006578783 -0.0027793425 0.0017617677 0.005134731 0.0064151576 -0.004074321
-0.0074239667 0.001197296 0.0079798605 0.0016767173 -0.007522421 -0.006539149 0.001535415 -0.0009657791
-0.0026672645 -0.0060712453 0.0055114217 -0.0063689547 -0.007610073 -0.0012312162 0.0016115574 0.005219926
-0.0040471605 -0.0074591343 0.004161919 -0.00451201 0.0054121385 -0.0043963455 -0.002861256 -0.007569051
0.0024762533 0.0013797594 0.0012534648 0.0038000955 0.0069716205 -0.0077023846 -0.001107721 0.004347072
-0.00041290652 -0.004283016 0.006824209 -0.0013329021 -0.0059746285 0.0055335574 0.006274913 -0.004620684
-0.0020747466 0.008274207 -0.0010241003 -0.00053192244 0.005473755 -0.008135452 -0.006266911 -0.0035976134
0.0027480335 -0.001991724 0.0036814825 -0.0046406486 -0.0046374826 0.006627449 0.004145104 0.00390007
-0.0047735213 -0.00025581772 0.0027221804 0.0023490756 -0.006130286 -0.0013497703 -0.0040818355 -0.0020027137
-0.0010164509 -0.0071898648 0.006966839 0.0019922408 0.007105668 0.0015424227 0.00024123193 0.0058084205
-0.005978469 -0.008070677 -0.004576232 0.0029822348 0.0032784496 -0.0029454858 -0.00055600144 0.002158811
-0.00019680332 0.007979611 -0.0061136284 -0.0064354814 -0.008367155 0.002480251 -0.008358454 0.007077759
0.0023288596 -0.001452371 0.006135067 -0.006409382 -0.0071642627 0.007455008 0.002653616 -0.0063756527

actor_mlp.mlp.2.weight f4 [128, 256]
00000000: ac48 b13d f7e4 1c3e f302 e83d ec7f 8f3d
00000010: b3fb 3d3c b9c6 e0bb 1e3f 52be c2b2 3c3d
00000020: 2b01 363c 5cf0 5ebd d618 97bd 76e7 9e3d
00000030: 9fe8 02bd 6c7f adbd 9adc d63c 0307 023e
00000040: 9efe 6abc fe46 b93d db3f 263e dad8 06be
00000050: 70d3 593d 9b44 2abe c64f 46bd 14ea 5fbd
00000060: b968 dbbd 26a2 4fbd 8e55 183e f787 3bbd
00000070: 2dde 15bd f292 0cbb e4ca bb3c ed66 903c
00000080: 9f47 c73c 8948 813d ba0f c6bd 8968 21bd
00000090: 64cf 823d a0a7 303d b9c2 143e 5e0c de3c
000000a0: b8a6 cfbc c991 25be f27d 97bd 9a27 923d
000000b0: 046c d8bd f2da b63c 3fcd 99bc bd7e d2bc
000000c0: 652d a83d 89a4 3d3e 8144 84bd 6556 6dbc
000000d0: acee b13d 2909 c3bc 6494 bc3d d63e d8bc
000000e0: 19a6 2f3d ef0a 81bb 4c29 1c3d 3533 613d
000000f0: 42d7 bc3d 5220 5cbd 4141 693e 17e0 033d
00000100: 86d0 243d b9c8 d4bc 1b4c 873d 9a47 07be
00000110: aafb 363d 330e b5bc a8cb d33d 0d2d a63d
00000120: bfe4 91bd cff9 9b3b 906f 6ebe 5064 dc3c
00000130: 939e cbbc 6b7e 50bd 4af2 76bc 3d0f 333d
00000140: 9ea9 4e3c 904d ffbb 473d 4bbc faec 56bb
00000150: da61 083c 2bf6 53be 8824 463d ad51 e83c
00000160: 646d e83d 48a8 bc3c 8f7f 153e 33ed bfbd
00000170: 8355 793b ed4b 753d a486 67bd 58d8 01bd
00000180: cbc0 963c 5fbd 883d ba9b 79bd 0900 e9bd
00000190: 1096 0ebc 0f36 ecbd d4eb aabc e234 b53c
000001a0: b5e2 393d 4cdd 16be f631 be3c bf7b d6bc
000001b0: c58a 183d b7bd 2e3c 35a2 0f3e aaaa c3bd
000001c0: 4255 7fbd 8136 f3b8 0667 25be 9ed5 5abd
000001d0: 61fe a63d c67d 2cbd b0be 103e 0343 0b3d
000001e0: 4e96 c83d 15b0 07be a76e bcbb a06f 3fbe
000001f0: 046e 20bd 0603 46bb 4d33 273e 3fcd 02bd
00000200: a782 c73b 4778 49bc adb4 cdbd 5400 ae3d
00000210: b8aa 993c b903 88bd 1dc2 adbd bfe3 f33b
00000220: affc 983d 4b7b efbd dcb5 203d e799 22bd
00000230: f0df 75be 08d2 133e 4d15 713d 4c89 6ebd
00000240: 27be b93d 8c36 2dbd ea22 393e a57e cdbd
00000250: fd41 a13d 5c0c a63d 2be6 e83c 6e0d 99bd
00000260: 95e6 373e 7431 1d3c 3ac4 2ebc 1bf8 003e
00000270: 4cf9 773d 461c d5bc b165 b13c b05b f93c
00000280: 586a eb3c 5ed7 1a3d c9ac 28be ee82 793d
00000290: e95a 6d3c 0c83 cf3d 1755 3cbd 2e87 963a
000002a0: f84f 4c3a 2ad6 4fbd 133d 63bb 1dee 9bbc
000002b0: 04aa e9bd 6c2b e1bd 6506 b9bd c084 09be
000002c0: 46ac e53c ec6c 9e3d 3d61 3b3d fdfd d73c
000002d0: b1ca 03bd 94fe 0d3d a769 8dbd 3171 40bd
000002e0: 99b0 55bd ffa6 963c 9c7d 5b3e db05 1cbe
000002f0: 5622 debd 8685 343e ba20 f53d 1902 773e
00000300: 059b f73d 2272 f23c f6e8 14be a9f4 98bd
00000310: c857 303c 8f81 ae3d 6394 ac3c 2def 01bb
00000320: 03ff da3d 33dc e5bc 8aae 29bb b496 64bd
00000330: 122d 31bd ea50 0cbc fb89 4fbd 6aba 75bd
00000340: 7b1c 033e 7e06 963d 90c4 4fbd d1d4 a73d
00000350: 241b bb3d 90f0 86bd 2ef8 94bb 089f af3d
00000360: 90f2 28be 0291 3cbe fa94 083d 8069 e63a
00000370: 2560 173e 14f6 333e 7cba b53d 79ab 9a3d
00000380: 8ccd 353e 85ee 86bc 76a6 c8bd 9f5a a13c
00000390: a2ba 35bc 19ee c13c 834d bd3d 8a45 1cbe
000003a0: 64e0 abbd 7c8d b5bc 8706 4cbd 3a7a 45be
000003b0: 5d92 c13d f8ba 80bd 3dd0 fa3d b9c1 5cbd
000003c0: 1616 a4bd bfa2 21bd 28b1 e43c 0611 dbbd
000003d0: 4322 ccbd 9fe3 9cbd c714 193e 5b07 8e3d
000003e0: 9135 f7bd e9e9 87bd b45c 503c 0862 9abd
000003f0: 9bfd 0f3d 8be9 00bd 1c84 033d 55cc 9cbd
0.08656439 0.15321718 0.113286875 0.07006821 0.011595654 -0.006859627 -0.2053189 0.046068914
0.011108677 -0.054428443 -0.07377784 0.077589914 -0.031960126 -0.084715694 0.026228238 0.12697987
-0.014342932 0.09046744 0.16235296 -0.1316866 0.05318016 -0.16627733 -0.04841592 -0.054666594
-0.10713334 -0.050691746 0.14876387 -0.045783963 -0.036588836 -0.002144989 0.022923894 0.017627204
0.024326144 0.06312663 -0.09670968 -0.039406333 0.06387213 0.04312861 0.14527406 0.027105507
-0.025348052 -0.16168894 -0.07397069 0.0713646 -0.10567477 0.022321198 -0.018774627 -0.0256952
0.08211783 0.18519796 -0.064583786 -0.01448593 0.08688101 -0.023808079 0.09207991 -0.02639715
0.042883012 -0.003938071 0.03812532 0.054980475 0.09220745 -0.05374176 0.22778799 0.03219613
0.040237926 -0.025974618 0.06606313 -0.13210908 0.0446736 -0.022101497 0.10341579 0.081140615
-0.07123708 0.004760004 -0.23284745 0.026903301 -0.024855888 -0.05090181 -0.015072415 0.043715704
0.012613682 -0.0077912286 -0.012404746 -0.0032795058 0.008324111 -0.20699374 0.048374683 0.028359259
0.113489896 0.023029462 0.14599441 -0.09371414 0.0038045354 0.05988686 -0.056524888 -0.031700462
0.018402478 0.06676745 -0.060939528 -0.1137696 -0.00870277 -0.11533748 -0.020864405 0.022119943
0.04538222 -0.14732856 0.023217183 -0.026182054 0.037241716 0.010665349 0.14026721 -0.09554036
-0.062337168 -0.00011597295 -0.16152582 -0.053426377 0.08153988 -0.042112134 0.14135242 0.033999454
0.09794293 -0.13250764 -0.0057504955 -0.18694925 -0.03916742 -0.0030214204 0.16328163 -0.03193402
0.006088573 -0.012296743 -0.10044227 0.08496156 0.018758163 -0.06641335 -0.0848429 0.007442921
0.074700706 -0.11693438 0.039235935 -0.039697554 -0.24011207 0.1443559 0.058858205 -0.058236405
0.09069472 -0.042288348 0.18079725 -0.10033921 0.078739144 0.08107826 0.028430065 -0.07473265
0.17959054 0.00959431 -0.010666901 0.12594645 0.060540482 -0.026014458 0.021654936 0.030439228
0.028737232 0.037803046 -0.16472162 0.06091588 0.014487007 0.10132417 -0.045979585 0.0011484378
0.00077938987 -0.050741352 -0.0034673854 -0.01903444 -0.11409381 -0.1099461 -0.09034423 -0.13429546
0.028036248 0.07735619 0.04574703 0.026366228 -0.032175723 0.034666613 -0.06904917 -0.046982948
-0.05217037 0.018390177 0.21434635 -0.15236609 -0.10846393 0.1762906 0.11969133 0.24121894
0.120901145 0.029595438 -0.14541993 -0.0746854 0.010763116 0.08520805 0.02106685 -0.0019826398
0.10693171 -0.0280591 -0.0025891387 -0.055807784 -0.043255873 -0.008564213 -0.050668698 -0.05999223
0.12803833 0.07325457 -0.050724566 0.081948884 0.09136036 -0.065888524 -0.004546187 0.08575255
-0.1649878 -0.18414691 0.0333452 0.0017579049 0.1478277 0.1757434 0.0887346 0.07552237
0.17754191 -0.016471157 -0.09797375 0.019696532 -0.01109186 0.023673104 0.092433 -0.15260902
-0.083924085 -0.022162192 -0.049810912 -0.19284907 0.09451745 -0.062856615 0.122467496 -0.053895686
-0.08012025 -0.039461847 0.027916506 -0.10696606 -0.099674724 -0.07660603 0.14949332 0.06934997
-0.12070764 -0.06636412 0.012717415 -0.07538229 0.035153966 -0.031472724 0.03210841 -0.07656161

actor_mlp.mlp.2.bias f4 [128]
00000000: aff6 06bc 3ff5 c7bb 4ae0 2dbb 92db 113b
00000010: 3417 c03a 087d 87bb d5ed 6d3b 7c94 793b
00000020: a421 913b 4470 e53b ff83 c3bb 2c6e cbba
00000030: cfcf 223b 632e 04bc 5783 f93b e280 c43b
00000040: a111 dd3a 960b 9cbb 051a 69bb 8971 6cb9
00000050: 7a0c 893b eea7 c5bb 07f2 053c a605 00bc
00000060: d54a 103c ac5f c1bb cb19 df3a 7390 5fbb
00000070: a4ab 24bb 517b afbb 0648 ff3b 35bf c9bb
00000080: 0c6d 9dbb d080 d3bb 377e c23b 3548 85bb
00000090: 28bb b43b c018 a73b 3598 4f3a 733c 0a3c
000000a0: 0979 003c 6d63 853a cf09 5bbb 8d02 a33b
000000b0: 76c9 3d3b 9f21 95bb 3361 a33b 4a00 c83b
000000c0: 1daf 223b c9d6 9ebb fb7e e23b ea1a 023c
000000d0: decd 04bb 1548 b63b 1bd7 133c 227d 063c
000000e0: 1677 98bb ddb0 b43b ada3 ab3b 5021 e1bb
000000f0: dbd0 823b 4e80 e23b a0d1 ff3b d734 f4ba
00000100: e804 5b3b d46c c73b c992 403b 1cf2 9c3b
00000110: ab34 393a 5bb6 b13b afe0 b3bb 1350 b7ba
00000120: 46f3 893b 4ff3 ceba 5a11 f8bb cc33 c33b
00000130: 7bb6 d03b 922b fe3b 1058 e63b 9c0a 4bbb
00000140: e415 a33b b475 af3b 06ca 66bb ea99 9dba
00000150: 6695 ae3b d6d6 4c3b 95a3 f6bb 50fa 073b
00000160: 50e0 e33b 0bb4 e73b 7095 fdbb 9c81 ec3a
00000170: 2c12 e2bb 901a af3b 790a 7c3b 21f9 e43b
00000180: 3180 edbb 7f11 c53b dbf4 ed3a 9a70 d038
00000190: 09c5 693b c860 3bba 02c0 ccbb 7a5a 933b
000001a0: 5213 563b 9ca6 e1bb c736 2cb9 7713 aa3b
000001b0: f941 a53b 7af3 963b bc4b b83b 94b6 abbb
000001c0: 3b61 0cbc 9fad ce3b e1e0 10bc 025b c1bb
000001d0: 50a7 db3b 41c8 8e3b 83e4 b6bb 6927 e63b
000001e0: bcdf 02bb 31a9 f1ba 936d d93a 0717 a23b
000001f0: e3eb e5bb f12e 26bb c74c daba 27a0 003b
-0.008237525 -0.0061022337 -0.0026531392 0.0022256118 0.0014655353 -0.004134778 0.003630509 0.0038082888
0.004429059 0.0070019085 -0.005966663 -0.0015520505 0.0024843102 -0.0080677 0.007614534 0.0059968093
0.0016866216 -0.0047621233 -0.0035568487 -0.00022549009 0.0041823955 -0.0060319817 0.00817538 -0.007813847
0.008806904 -0.0059012976 0.0017021237 -0.0034113198 -0.002512672 -0.0053552766 0.0077905683 -0.006156827
-0.004804259 -0.0064545646 0.005935456 -0.0040674456 0.005515475 0.005099386 0.0007919104 0.008437264
0.007841357 0.0010176726 -0.0033422594 0.0049746693 0.0028959191 -0.004551127 0.0049859523 0.00610355
0.0024823614 -0.0048473817 0.00691211 0.007940987 -0.0020264308 0.005562792 0.009023453 0.008208545
-0.004652868 0.005514248 0.0052380175 -0.0068704262 0.0039921827 0.0069122678 0.0078069717 -0.001863147
0.0033419672 0.0060859714 0.0029384366 0.004789604 0.0007065038 0.00542335 -0.005489431 -0.0013985656
0.0042099087 -0.0015789064 -0.007570428 0.0059571024 0.0063694096 0.007756659 0.007029541 -0.0030981665
0.004976975 0.0053546075 -0.003521563 -0.0012024019 0.0053278683 0.0031255982 -0.0075268247 0.0020748563
0.0069542304 0.0070710233 -0.0077387616 0.0018043998 -0.006899139 0.0053437427 0.003845839 0.0069877063
-0.0072479476 0.0060140486 0.0018154638 9.9391866e-05 0.003567042 -0.00071479054 -0.006248475 0.0044968696
0.0032665324 -0.0068863165 -0.00016423604 0.0051903087 0.005043265 0.0046066614 0.0056242626 -0.005240271
-0.008568103 0.0063073183 -0.008842678 -0.0059007416 0.006703295 0.004357368 -0.00558144 0.007023741
-0.0019969782 -0.0018437264 0.0016588442 0.0049465927 -0.0070166453 -0.002535757 -0.0016654962 0.0019626708

value_mlp.mlp.0.weight f4 [256, 27]
00000000: 15d7 a4bd a1e5 44be fbca 4e3d 6793 1d3d
00000010: 0dc7 563d 67ed 4dbd dc5a fb3d 3640 8fbd
00000020: 3de6 deb8 9c76 d6bd 59b6 563d d744 2f3b
00000030: de6e 76ba 1b3a 21bd 1d70 463d 06b6 043d
00000040: f4e2 4abe 7214 b13d e83b dabd 4376 363d
00000050: 07b4 e03d f942 ddbd 0fb8 c83d 94e0 b4bd
00000060: bc13 2b3d 8ff3 87bc 0e8d bcbd 1617 b7bd
00000070: 5a54 dabc 1234 dcbd fbbf 3dbd 741a 1fbc
00000080: eea8 03bd f8ae 94b9 68d2 84bd 3688 a63d
00000090: b0a7 cc3c ddc1 5dbc a82c c0bc 1acb 8bbe
000000a0: e02a 283e e669 29be 0f5d e73d 4356 2f3d
000000b0: bc8e 263d 9800 b43c fe80 60bd 958d 1c3e
000000c0: 02e3 cebb 5928 de3c fdfc 42bd 017b ee3b
000000d0: d602 40bd 6e1c 8fbb 1c78 8dbc 7f0b 0a3d
000000e0: 4c8b 5b3e f436 f3bd 5e9d 2e3c 8495 0bbe
000000f0: 5973 1d3e fa83 033e 35e5 183c b349 41bd
00000100: 429b a73c c108 85bd c612 a53c cf91 0cbc
00000110: 9371 debc 8307 0b3d e5ad d4bd 909f 84be
00000120: a211 44ba f51c 0b3d 8b75 9a3d 4c95 6f3d
00000130: bd36 f1bd 394e 243b 8ce8 163d 61ec 1bbe
00000140: 3da2 0dbd 5620 46bd 3650 6a3e f690 9c3d
00000150: da31 b1bd 8d5e 583b 9f7d 953b 5b71 11be
00000160: 0bf1 a63b 8f79 34be 3e58 933c 731c 143d
00000170: e53b 8abc 0f49 3a3d 108b fa3c 8e15 92bb
00000180: e99c 10bd deff adbd 0de5 1bbe e0e6 6c3d
00000190: ab3c b0bd e163 cd3d 694c 0d3e dddb b73c
000001a0: c8a1 b63d 4187 e4bc ff6a f83d 4f8d c43d
000001b0: a303 bfbd a9d6 cabd 447c 32bc 06e1 b03d
000001c0: 261c cb3d 4e99 1dbd d216 f4bc 9dd1 513e
000001d0: d944 1f3e 8147 09bc 29da 173d d7f4 8abc
000001e0: 621f ce3d 6c4a 343e f3fe d1bc 8ac3 d0bd
000001f0: 80ff eabd 2927 86bd 92c7 adbc 5389 36bd
00000200: 5466 5bbd d8e1 4a3e 566c d8bd 4450 c4bc
00000210: 6868 a03a b01c 113c 9286 2b3a db40 a03d
00000220: 3130 8cbd 9ad7 42bc 6a22 183d 9861 bf3d
00000230: cdcc cf3d 769c d73c 6eee 7cbd 617b ac3d
00000240: ebd5 593d 28d7 c4bd d38a db3d 49c1 04bd
00000250: fc9b febd b8b0 47be 1116 08bd 1232 0bbe
00000260: f917 a7bd 63b5 973c 98d7 f93d b8f8 bc3d
00000270: 5eb3 2cbe 05b6 a9bc bfea 4dbe 8ee2 073c
00000280: 347c 093d f59e a8bc 1b96 8bbc bd3a 13ba
00000290: 85aa 8dbc 3c26 31bd d5ad 303e 5df7 a4ba
000002a0: a15e de3d 314c a2bd 7cd9 8b3d 7537 313e
000002b0: aeb6 ed3c e73b f03d e86b 5dbd 931a 9ebc
000002c0: 129f 213e 8bf9 fdbc f046 45be cc3f 8c3c
000002d0: 290c e33a e182 babc 1f02 03bd df52 f2bd
000002e0: 736f 9f3d 65e1 a0bd 4ea2 183e 78c8 443e
000002f0: 265a 873d 96da 23bd 0061 3cbd 1fba 50be
00000300: 28f6 453d a06f 713d b2fe 0dba 6843 03b9
00000310: 2af6 813c efa7 8f3d be93 f9bc 3e61 0bbe
00000320: 04ab 413d eb8b 683b fc93 b0bc d3de 87bd
00000330: be64 a13d 2b0c d43c 2a4f 14be 0f8a cdbd
00000340: d5be fcbc 0f83 a1bc fa96 a83d cf04 ecbd
00000350: 6912 353d 838d 50bc a748 20bd 3113 e8bc
00000360: bd76 073d 7501 d0bd e8db 6bbd f3a3 85bd
00000370: 5d8b 33bd 197b 98bd 6e4c 91bd 869c a4bd
00000380: b1dd 3dbe 8731 cabc 7e9c 00be bc87 c03d
00000390: 54a7 ffbd 79c3 d63d 9247 80bd f5d0 acbc
000003a0: 78fb adbd 4998 03be 16c1 9bbd 53ec 2fbc
000003b0: 3417 31be e054 dbbc a1ad dbbd dd91 e73d
000003c0: 872e f5bc 23ce c53d fdf7 e53d 8be9 223b
000003d0: 5878 8b3d bcc4 143e 08c1 70bd f0b1 e5ba
000003e0: b9d2 233e ebfc 4e3d 6d2f d1bb e26d ca3d
000003f0: 713b d13b e778 3e3d 1cdb a53b 51dc 09bd
-0.08048836 -0.19228221 0.050486546 0.038470652 0.052435923 -0.050275233 0.122731894 -0.06994669
-0.0001062867 -0.10471842 0.052419994 0.0026743913 -0.0009400676 -0.039362054 0.048446763 0.032400154
-0.19813138 0.08646478 -0.106559575 0.044546377 0.109718375 -0.1080379 0.098007314 -0.088318974
0.041766867 -0.01659563 -0.092065915 -0.0893995 -0.02665155 -0.10752119 -0.046325665 -0.009710897
-0.032143526 -0.00028359122 -0.06485444 0.08131449 0.024982303 -0.01353499 -0.023458794 -0.27303392
0.16422606 -0.16544303 0.112970464 0.042806875 0.040663466 0.02197294 -0.054810517 0.15288384
-0.0063136825 0.027118849 -0.04760455 0.007277847 -0.046877705 -0.0043674028 -0.017269187 0.03370237
0.21439856 -0.11875716 0.010657636 -0.13631254 0.15376033 0.12843314 0.009331991 -0.047189426
0.020459775 -0.0649581 0.020150553 -0.008579685 -0.027153766 0.03394271 -0.1038473 -0.25902987
-0.0007479434 0.033963162 0.07541951 0.05849199 -0.117780186 0.0025071038 0.036842868 -0.1522689
-0.03457855 -0.04837068 0.2288216 0.076448366 -0.086520866 0.003301534 0.0045620943 -0.14203398
0.0050946525 -0.17624496 0.017986413 0.036159944 -0.016874263 0.04547983 0.030583888 -0.004458136
-0.03530589 -0.084960684 -0.15224095 0.057837367 -0.086053215 0.10028816 0.1379868 0.022443706
0.08917576 -0.027896525 0.12129783 0.09597265 -0.093268655 -0.099042244 -0.010893885 0.0863667
0.09917478 -0.03847628 -0.029796038 0.20490117 0.15553607 -0.008378864 0.037073288 -0.016962452
0.100645795 0.17606515 -0.025634265 -0.10193546 -0.11474514 -0.06550438 -0.021213327 -0.044564556
-0.053564385 0.19812715 -0.105675384 -0.023964055 0.0012238147 0.008856937 0.0006543185 0.0782487
-0.06845129 -0.011892224 0.037142195 0.093447864 0.101464845 0.026319724 -0.06175082 0.0842197
0.053182524 -0.0961135 0.10719838 -0.032410894 -0.124320954 -0.19501007 -0.03322417 -0.13593319
-0.08158869 0.01851911 0.12199324 0.09227127 -0.16865298 -0.020716676 -0.2010908 0.008293761
0.033565715 -0.02058361 -0.01703935 -0.00056163577 -0.017293224 -0.043249354 0.17253812 -0.0012585927
0.10857893 -0.079246886 0.06828591 0.17306311 0.029017773 0.117301755 -0.054057986 -0.019299781
0.15783337 -0.03100278 -0.19265342 0.017120264 0.001732235 -0.022767486 -0.031984445 -0.11832213
0.07784929 -0.078554906 0.14905664 0.19217098 0.06608991 -0.04000338 -0.045990944 -0.203835
0.048330456 0.058944345 -0.00054166757 -0.00012518244 0.01586445 0.07014453 -0.030465957 -0.13611314
0.047282234 0.0035483788 -0.02155494 -0.06634297 0.07880543 0.025884708 -0.14483324 -0.10036098
-0.030852715 -0.019715814 0.082319215 -0.11524355 0.04420701 -0.0127290515 -0.039131787 -0.028329464
0.033072222 -0.10156528 -0.057582766 -0.065254115 -0.04383408 -0.07445354 -0.07094656 -0.08037667
-0.185416 -0.02468182 -0.12559697 0.09400889 -0.12483087 0.10486502 -0.06263651 -0.021095732
-0.084952295 -0.12851061 -0.076051876 -0.010737496 -0.17294008 -0.02677387 -0.107264765 0.11307118
-0.029929413 0.09658458 0.11228941 0.002485844 0.06810063 0.14528173 -0.05877784 -0.0017524343
0.15998353 0.05053417 -0.0063838274 0.0988424 0.00638526 0.04650202 0.0050615203 -0.033657376

value_mlp.mlp.0.bias f4 [256]
00000000: 1070 18bc 4543 293c 4c05 25bc 9455 253c
00000010: e12b 293c 03b3 243c 7728 f03b 0c56 233c
00000020: 071c 273c 4ac1 7ebb d93a 263c 0a47 21bc
00000030: 2911 24bc 0b80 243c 4de3 02bc 64ca 25bc
00000040: 6f94 263c fa28 233c 61c2 25bc b672 27bc
00000050: 5097 273c 2eb6 23bc 7a92 283c d013 48bb
00000060: c3fa 263c b0c3 27bc c8f0 263c 5aeb 0b3c
00000070: c895 22bc 19bd 1cbc 154a 223c 8f3e 29bc
00000080: d03e 293c dc76 28bc bbb3 1fbc 301f 2abc
00000090: c5a4 23bc 81d6 28bc 2c07 283c 6a2a 23bc
000000a0: b2f4 25bc 5237 27bc c86c 01bc 47c0 00bc
000000b0: 85d3 f03b 6841 233c cf70 d83a f0ca 20bc
000000c0: a545 2abc 95dc 243c 6dca 033c 2529 10bb
000000d0: 11e7 273c e4cd 26bc 378d 27bc 46d1 203c
000000e0: eed6 233c c9c1 bfba 4b56 223c a156 06bc
000000f0: 13be 0abc 8668 23bc 61cc 25bc b74b 1dbc
00000100: 10d0 29bc d5e1 28bc 3f52 283c 37d7 223c
00000110: b005 21bc d9a2 283c 1d9e 1dbc cba2 23bc
00000120: 61ee 073c 90e8 193c 793a 0fbc 9c60 22bc
00000130: 818f 1fbc 3a30 24bc 2b6e 233c 6751 19bc
00000140: 8bda 1cbc 5b52 25bc 0d55 263c 8fdd 273c
00000150: b416 00bc 473c 2a3c f026 24bc e063 28bc
00000160: 9c48 293c 972f c9bb edb8 293c 21b0 123c
00000170: 16a6 163c 8fa1 26bc 885c 1bbc 799c 203c
00000180: 2c87 233c fee7 253c 8692 28bc 0aba 26bc
00000190: 854b 273c 7c73 cf3a 396d 273c 4347 9abb
000001a0: 8b8c fb3b d558 283c a87a febb 8e94 173c
000001b0: 9902 213c 75db 17bc f7cd 28bc c9ec 253c
000001c0: f327 273c 4323 253c ef1f bdbb 2e31 ff3b
000001d0: b575 29bc cecc 1b3c 9e4f 21bc 880a 263c
000001e0: 5fa3 683b 62f4 163c 3b81 1abb 6bf4 27bc
000001f0: 0ec3 293c 0d1c 263c 2058 263c d4be b0b9
00000200: 3989 253c d8ac 1d3c 8708 253c e5ea 1d3c
00000210: 2026 97ba 8089 27bc 702e 293c 167a 1cbc
00000220: 0a42 24bc f4a5 28bc ca4a 25bc d216 223c
00000230: b7fc 8eb9 c8dc 28bc 0f27 23bc c2b1 243c
00000240: 591a 01bc a3c6 283c 1c16 133c 4d21 27bc
00000250: e38d 26bc 68a8 283c 6e0b 20bc 567b 233c
00000260: 370b 28bc d29c 263c f6c1 1a3c a2ed 243c
00000270: fe9a 263c e8bf 26bc 60cc 27bc 835b 22bc
00000280: ff8e 26bc dca4 233c 19a6 29bc 2d40 29bc
00000290: e212 17bc 01ac 823b 9133 0c3c 316f a43b
000002a0: f351 27bc 83a5 223c b92f 0dbc 74fe 233c
000002b0: 67f3 1dbc b25a 1a3c 80ac 21bc a6ec 263c
000002c0: 9562 253c f11b 1c3c d99b 20bc 7882 283c
000002d0: 592e ed3b a988 253c 394d 1e3c 6f08 253c
000002e0: cfe7 273c 7f45 27bc f29e 1cbc cc44 09bc
000002f0: 54a8 293c 6522 1f3c 714e 2abc ba0d f2ba
00000300: 30df 5cbb ba67 2bbc 61ee 283c 465e 233c
00000310: a927 243c aefe 243c 88d2 dd3b 6501 21bc
00000320: 1f86 2a3c 8d3a 203c 243c 283c 5200 2abc
00000330: 2190 293c 1f80 283c f6ba 1ebc 06f0 24bc
00000340: 839d 203c 4194 1f3c 3bec 1bbc 0731 243c
00000350: 1a10 253c b977 1fbc 4f57 4ebb 91c3 263c
00000360: 1a2c 1fbc 9817 26bc 9e56 21bc c076 273b
00000370: b69e 06bc 0862 033c a124 2abc 81ae 243c
00000380: bf47 1f3c dea8 263c 1ce4 28bc 2251 eebb
00000390: 751e ffbb c651 243c 29b0 243c bdd8 213c
000003a0: 69a9 28bc be23 1c3c 9930 db3b eddb 22bc
000003b0: a599 22bc 6913 23bc 5624 27bc 947a 273c
000003c0: 3dea a03a 5d3e 1f3c a993 253c a150 ea3b
000003d0: 8022 293c 61f0 f6bb f804 243c 17c6 1abc
000003e0: 4c37 15bc 6acd 25bc 6b65 223c 71d1 27bc
000003f0: 97d2 203c 7669 22bc e484 253c acba 1f3c
-0.0093040615 0.01033098 -0.010072064 0.010091204 0.010325403 0.010052445 0.0073290425 0.009969246
0.010199553 -0.0038872533 0.010145866 -0.009843597 -0.010013857 0.010040293 -0.007988763 -0.0101190545
0.010167225 0.0099585 -0.010117144 -0.01022022 0.010228947 -0.0099921655 0.010288829 -0.0030529387
0.010191622 -0.010239527 0.010189243 0.008539999 -0.009923406 -0.009566569 0.009905358 -0.010329857
0.010329917 -0.0102822445 -0.009747441 -0.010383412 -0.009988015 -0.010305048 0.010255616 -0.009958843
-0.010129141 -0.0102060605 -0.007899471 -0.0078583425 0.007349434 0.0099643245 0.0016513112 -0.009814009
-0.010392581 0.0100623565 0.008043868 -0.002199718 0.010247962 -0.010180924 -0.010226539 0.00981552
0.009999974 -0.0014629896 0.009908269 -0.008199365 -0.008468169 -0.009973651 -0.0101195285 -0.009600571
-0.010364547 -0.010307749 0.010273515 0.0099390065 -0.009828016 0.010292732 -0.009620217 -0.009987543
0.00829658 0.009393826 -0.008741968 -0.009910729 -0.009738804 -0.010021264 0.009974997 -0.009357787
-0.009573589 -0.010090436 0.010152114 0.010245695 -0.007817913 0.010390348 -0.010019049 -0.010277718
0.010332253 -0.0061397064 0.010359031 0.008953125 0.009194871 -0.0101703545 -0.00948251 0.009802931
0.009980958 0.010126112 -0.01028884 -0.010176191 0.010210876 0.0015827264 0.010218912 -0.004708202
0.007676666 0.010275085 -0.0077660866 0.009251727 0.0098272795 -0.009268631 -0.010303012 0.010127255
0.010202396 0.010079208 -0.005771629 0.007787845 -0.010343005 0.009509278 -0.009845642 0.010134347
0.0035497767 0.009213539 -0.0023575563 -0.010251145 0.010361446 0.010138524 0.010152847 -0.00033711514
0.010103517 0.009623729 0.010072834 0.009638523 -0.0011531748 -0.010225654 0.010326013 -0.009550592
-0.010025511 -0.010293473 -0.010088632 0.009893136 -0.00027272638 -0.010306545 -0.009958043 0.010052146
-0.007879817 0.010301265 0.008977439 -0.010200811 -0.010165664 0.010294057 -0.00976835 0.009978136
-0.01025658 0.010169225 0.009445658 0.010066422 0.010168789 -0.01017759 -0.010241598 -0.009909513
-0.010165929 0.009988036 -0.010354542 -0.010330242 -0.009220811 0.0039877896 0.008557216 0.005018138
-0.010212409 0.009927156 -0.008617335 0.010009397 -0.009640551 0.0094210375 -0.009867787 0.010188257
0.010094305 0.009528146 -0.009802782 0.010285012 0.007238191 0.010103383 0.009661966 0.0100728115
0.010248139 -0.01020944 -0.00955938 -0.008378219 0.010355074 0.00971279 -0.010394678 -0.0018467226
-0.0033702366 -0.010461742 0.01031074 0.009971207 0.010019221 0.010070486 0.006769482 -0.009826993
0.0104079535 0.009779585 0.010268245 -0.010376053 0.010349304 0.010284453 -0.00968813 -0.010066992
0.009803179 0.009739936 -0.009516771 0.010021455 0.01007464 -0.009733134 -0.0031485145 0.010178463
-0.0097151045 -0.010137461 -0.009847311 0.0025552958 -0.008216551 0.008018978 -0.01038471 0.010051371
0.009721695 0.010172097 -0.010308292 -0.0072728554 -0.007785613 0.010029262 0.0100517655 0.009878335
-0.010294297 0.009530006 0.006689143 -0.00994013 -0.009924327 -0.009953358 -0.010201534 0.010222096
0.001227684 0.009719458 0.010106006 0.007150725 0.010323167 -0.0075359796 0.01001095 -0.009446642
-0.009107422 -0.010119775 0.009911875 -0.010242806 0.0098158335 -0.009912839 0.010102484 0.009749096

value_mlp.mlp.2.weight f4 [128, 256]
00000000: 6bd6 01ba 00ce febc 50ae d3bc af7c 663b
00000010: e44f 763e a9cf b3bd 8317 193b 709d dd3d
00000020: 846d 25bd b23c 9d3d 6009 05bd 6ef8 64bd
00000030: ed9e bebd 2447 a8bd dcb3 383e 12ad f63d
00000040: 7d34 473e 29f2 52bd c4a8 a9bd 5ca0 113d
00000050: 5816 3ebd 3d53 663e c472 13be 69f6 9fbb
00000060: 009f 54bd 2eea debd cf1f 06be 4b4c 063d
00000070: b751 83bd 21d8 153b 9329 0f3d 0344 a5bd
00000080: 0db8 163e ac16 533d 2af8 633c 4701 b13d
00000090: e8f9 333d 482c e23b aba5 fd3c 106a dabc
000000a0: 5348 92bd b97d 1ebd 8e86 b1bd 6612 0c3d
000000b0: 58b8 cbbd bca3 f13d bfb9 69bd f796 19bd
000000c0: 96f7 e63d b809 393c f6bc 94bd ba70 bdbc
000000d0: ff96 88bd 8cd1 5fbd ef5f 113e a31d 093e
000000e0: 3168 f63d 9a34 ba3d 90be 7e3e 8ec7 e3bc
000000f0: 08a6 023d 255a 953d 9329 01be 8304 243c
00000100: f0ec 23be b14b 963d bc91 b83c 9daf 7e3d
00000110: ce09 5e3d 22b9 b2bd 06de 633d 9db6 74bd
00000120: 3639 103c 06d1 eebd 5ce2 3b3c bcc7 873c
00000130: 4996 abbc 98ad 143d 7bfb 273e 5a9a d43d
00000140: 63e3 daba f0d5 003e 1158 16bd 0589 fb3d
00000150: f539 bcbd f50c 0d3e 8aee 393d 0ae9 7b3e
00000160: 99ef fe3b d586 303e caf2 813d c818 28bc
00000170: 2229 983d 6f01 4a3d 75b0 9cbd ec04 07bd
00000180: d100 82bd 0560 2cbd 86ef 9fbc eecb 183e
00000190: 6cce 003e 6024 ebbd 78f6 9cbd 2fad a1bc
000001a0: 91e5 6ebd 9536 a83d 282f fb3d b2f6 8c3e
000001b0: 6b8c 8f3d 0bc4 bcbd 05d8 28be 33bd 853c
000001c0: 1adb a03d ab4f 873c 1449 fd3d d697 88bd
000001d0: cf8d c83d 4708 c13c c12d a53c bd64 60bd
000001e0: 30d8 10be 4ec5 413d bfc3 4fbd fecb 713c
000001f0: 2333 223d 9862 b63d b724 7cbd 85b0 34bd
00000200: 7b9d 9a3b 1009 90bd 9ffa fd3c 75c4 22be
00000210: a01b 38be 7567 e1bc e576 633d 014f d53d
00000220: 0f36 af3d 4a74 38be 8b6f d73a 0e61 f3ba
00000230: b317 56bd 1ede 54bd 5695 4c3c ad3c 42bd
00000240: fa8a f33d 098a 91bd 2131 de3b 37fb 123d
00000250: 3618 173e 9070 6abd 335e 143e cedb b73d
00000260: 6d47 af3d 8499 d0bb e345 d33d d0a8 c3bd
00000270: 042f a33c 4c38 7b3d af0a ea3c abab bf3d
00000280: 3db0 cdbd 8fb2 09be f769 05bd 91ce cabc
00000290: f849 22be 0865 28bd a19f afbd 9214 76bb
000002a0: ab85 0a3e 1830 6b3d 60a9 853d 553a a13d
000002b0: 9ba3 06bd d4b6 23bd 36db c0bb e666 dbbd
000002c0: e038 a7ba 3c6b d13d 24b7 a03d 04fb fc3c
000002d0: 2b41 c9bc a9d3 a73d 6273 49bb 7f24 d13c
000002e0: 2c32 cfbc a32a bebd e673 8a3d a0db e8bd
000002f0: a3d0 dd3c 47f0 8abd a55b 66bd b446 a63d
00000300: f6d3 9b3d e0e8 11be 7dd6 f1bd f164 7e3d
00000310: 1b37 fabd 78e1 f13d b330 143d 550a 6dbd
00000320: cd9d ecbd 8e0d 8e3b f9a4 3dbe 09c4 97bd
00000330: c8a6 52bd ba05 2c3d 3d0a f1bd b113 183e
00000340: bd07 0d3c 1b5e 193d 73c1 ba3d c8f2 c93d
00000350: a0a7 ddbd 35d2 99bd 4dc9 4f3d a1e9 6c3d
00000360: 4a96 223d e8ea d63c 67d9 b83d 0d71 883c
00000370: 2452 b8bd e825 c43d 2887 b1bd 9c52 813b
00000380: aa12 91bd 822e d3bd dca4 37bd 6165 44bc
00000390: fd96 8abd 16e1 c6bd e416 2ebd 5ec4 ec3c
000003a0: 1fc4 d3bc 41c8 073b 73c3 bd3d 0a18 943c
000003b0: dcfa 85bd ed50 0e3d 37ac 88bd 109f ad3c
000003c0: 9570 f43d 34f9 28be ffbb 153d f022 f53d
000003d0: 09f8 aa3d 3844 9abd 6b4b b33d 6828 663d
000003e0: d0ab 283e a0c0 49bd 2e92 42be 27ef ecbc
000003f0: 231f 9fbd 2551 9abc a2a9 cb3d da45 1f3d
-0.000495291 -0.031104088 -0.025839955 0.0035169532 0.24053913 -0.087798424 0.0023359961 0.108210444
-0.040387645 0.07677592 -0.032479644 -0.055900984 -0.093076564 -0.08216694 0.18037361 0.12044729
0.19453616 -0.051500473 -0.082841426 0.03555332 -0.046408027 0.2249269 -0.14399248 -0.0048816693
-0.051909447 -0.1088451 -0.13098072 0.032787602 -0.0641207 0.0022864419 0.034951758 -0.08069613
0.14718647 0.051535293 0.013914147 0.08642822 0.0439395 0.0069022514 0.030962786 -0.026661903
-0.07142701 -0.038694117 -0.086682424 0.034197234 -0.0994727 0.11798808 -0.057061907 -0.037497487
0.11277692 0.011293821 -0.07262604 -0.023125041 -0.06669425 -0.0546432 0.14196752 0.13390212
0.12031592 0.09092064 0.24877381 -0.027805116 0.03189662 0.07292584 -0.12613516 0.010010841
-0.16008353 0.07338656 0.022530429 0.062179197 0.05420857 -0.087267175 0.05563166 -0.059744466
0.008802703 -0.11660962 0.0114675425 0.016574733 -0.020945685 0.036298364 0.16404526 0.10381003
-0.0016699847 0.1258161 -0.03670508 0.12281994 -0.09190742 0.13774474 0.045393504 0.24600616
0.007780027 0.17238934 0.063451365 -0.010259815 0.074297205 0.049317773 -0.07650844 -0.03296368
-0.06347812 -0.04208376 -0.019523393 0.14921543 0.12578744 -0.11481547 -0.07664198 -0.0197359
-0.0583244 0.08213536 0.12264854 0.27531964 0.070092045 -0.0921708 -0.16488655 0.016325569
0.0785429 0.01651748 0.12367454 -0.066695854 0.09792673 0.023563517 0.020163419 -0.05478357
-0.14144969 0.047307305 -0.050723787 0.014758108 0.03959955 0.08905524 -0.06155845 -0.044113655
0.00471848 -0.070329785 0.031003295 -0.15895255 -0.17979288 -0.027515152 0.05553331 0.104154594
0.08555233 -0.18013111 0.0016436441 -0.0018568353 -0.052268695 -0.05196964 0.012486776 -0.047421146
0.11891742 -0.07106406 0.006780759 0.03588411 0.1475533 -0.057236254 0.14489059 0.08977471
0.08558545 -0.0063659567 0.10316064 -0.09553683 0.01991988 0.061332986 0.028569547 0.09358915
-0.100433804 -0.13447021 -0.03257176 -0.024756702 -0.1584853 -0.041111976 -0.08575369 -0.0037548882
0.13527553 0.057418913 0.06526446 0.07872454 -0.03287087 -0.03996928 -0.005885507 -0.10712986
-0.0012758039 0.102255315 0.07847431 0.030881412 -0.024567207 0.08194668 -0.003073894 0.025530098
-0.025292479 -0.09285476 0.06760387 -0.11370015 0.027077025 -0.067841105 -0.056239743 0.08118954
0.07608788 -0.14248991 -0.118084885 0.062107984 -0.12217542 0.11810583 0.036179256 -0.05787118
-0.115535356 0.004335112 -0.18519963 -0.074104376 -0.051428586 0.04199765 -0.11769531 0.14851262
0.008607802 0.03744326 0.09118929 0.0986076 -0.108229876 -0.07510797 0.050729085 0.057839993
0.039694108 0.026235059 0.09025841 0.01665547 -0.09000042 0.095775425 -0.08668357 0.0039466154
-0.07083638 -0.10311605 -0.044834957 -0.011987061 -0.0676708 -0.097109005 -0.0425023 0.028902229
-0.025850354 0.0020718726 0.092657946 0.018077869 -0.06541988 0.034745146 -0.066734724 0.021194011
0.11935536 -0.16501313 0.03655624 0.119695544 0.0834809 -0.07532543 0.08754619 0.05619088
0.16471791 -0.049255967 -0.19001076 -0.02892263 -0.07769611 -0.01883752 0.09944464 0.038884975

value_mlp.mlp.2.bias f4 [128]
00000000: f18d 273c 1869 27bc c4ac 22bc 4e1e 24bc
00000010: 37fa 253c 68f8 26bc a6ee 263c 85d4 243c
00000020: bc32 253c 18c6 28bc ebf8 233c ae80 1e3c
00000030: 6757 1f3c d8a7 26bc d7dc 23bc 2118 28bc
00000040: 82df 263c dbed 263c 0d67 223c 7fff 26bc
00000050: 64d0 273c 8c0f 263c 7318 25bc cab0 273c
00000060: 5ea3 253c e6a4 26bc 1ee7 25bc 155d 263c
00000070: aa11 263c 45bc 233c 4451 1fbc 5de1 243c
00000080: 6b61 283c 2810 26bc 6f4b 20bc 01ce 28bc
00000090: 119a 27bc ce55 27bc 47bb 25bc d1a2 26bc
000000a0: 4af4 23bc 35fe 233c c5d0 263c 17f1 243c
000000b0: 58b6 28bc d865 223c c198 29bc da03 233c
000000c0: 8d64 293c 2c64 26bc 4b96 253c 8cad 1cbc
000000d0: f038 20bc 8b92 21bc 99b1 25bc eaf6 243c
000000e0: 7df2 28bc 47f3 29bc 403b 26bc 77c1 1fbc
000000f0: daf2 283c a20f 273c 07d8 22bc b844 223c
00000100: 7f98 1ebc a64e 263c c501 243c bbd6 d1bb
00000110: d7e4 1ebc 9a0d 24bc 4d23 24bc c15e 25bc
00000120: 577f 27bc 8190 25bc 8417 24bc 3a16 243c
00000130: 4501 24bc dd34 25bc 829d 233c 0204 243c
00000140: c5ae 223c 94b8 263c b33b 283c 0dff 21bc
00000150: 3f9c 21bc 987e 27bc b09a 24bc 4207 213c
00000160: 5928 9f3b b797 233c e7c2 263c c91c 22bc
00000170: eb91 273c 5d01 273c 7847 263c c500 243c
00000180: 7217 243c ad93 253c ba65 233c ab58 21bc
00000190: 3198 273c 7d4c 203c 29ba 27bc 0490 23bc
000001a0: f929 28bc 06e6 233c ef21 253c 9ce4 1f3c
000001b0: ea20 27bc e291 273c c02e 24bc fb86 283c
000001c0: c3cc 26bc d902 263c f306 21bc 1de1 27bc
000001d0: 1cd6 213c 7e37 28bc 5856 23bc 1433 21bc
000001e0: 2556 23bc 8256 263c 38e3 253c 92b4 223c
000001f0: 53a9 233c 6cb8 26bc edd4 28bc d51b 283c
0.010226713 -0.010217927 -0.009928886 -0.010016991 0.010130457 -0.010191061 0.010188734 0.010060434
0.010082897 -0.0103011355 0.010008077 0.009674234 0.009725428 -0.010171853 -0.010001383 -0.010259659
0.010185124 0.010188545 0.0099122645 -0.010192751 0.010242555 0.010135543 -0.01007663 0.010235021
0.010109751 -0.010171151 -0.010125903 0.010154028 0.010136047 0.009993617 -0.009723965 0.010063496
0.0102771325 -0.010135688 -0.00978361 -0.010303021 -0.010229603 -0.0102133285 -0.010115451 -0.010170654
-0.0100069735 0.010009338 0.0101816105 0.010067246 -0.01029738 0.009911977 -0.010351361 0.009949649
0.010338915 -0.010155719 0.010106633 -0.009562861 -0.0097792 -0.009861599 -0.010113143 0.0100686345
-0.01031172 -0.010372943 -0.010145962 -0.009750715 0.010311807 0.010196598 -0.0099392 0.009904079
-0.009679913 0.010150587 0.0100101875 -0.0064037717 -0.009698114 -0.0100130085 -0.010018182 -0.010093392
-0.010223231 -0.010105253 -0.010015372 0.010015065 -0.010010068 -0.010083404 0.009986283 0.010010721
0.009929364 0.010175843 0.01026814 -0.009887469 -0.009863912 -0.010223053 -0.010046646 0.009828391
0.0048571047 0.009984902 0.010178304 -0.009894558 0.010227661 0.010193196 0.010148875 0.010009949
0.010015355 0.010106009 0.009972984 -0.0098478 0.010229156 0.009783861 -0.010237255 -0.0099830665
-0.010263913 0.010003572 0.010078891 0.009759095 -0.010200718 0.010227652 -0.010020912 0.010286088
-0.010180655 0.010132515 -0.009828317 -0.010246542 0.009877708 -0.010267137 -0.009969316 -0.009838838
-0.009969269 0.010152461 0.010124974 0.009930747 0.0099891005 -0.010175806 -0.010304672 0.010260542

value.weight f4 [1, 128]
00000000: 862b 09bd c821 513d 2efc 683c 5e91 533d
00000010: f7c8 a2bd 8621 1f3e dccc c0bd d1c4 ebbd
00000020: 8544 0cbe 54b1 eb3c ae2f eebd 25e3 a2bd
00000030: ade9 14bb 485b c23d 8c3f 513d eff4 b73d
00000040: 5fe3 1abd e628 adbd 9dd7 b0bd ee79 c23c
00000050: b092 a3bc 9847 eebb 4e3d b13d a4f0 07be
00000060: 3f61 b4bc 911a 523d 596d a53d 037b 73be
00000070: d984 aebc 3507 d3bd dc71 d9ba 4efc 95bc
00000080: d305 cdbd 2c73 b63d 1184 ab3c e6ea ff3c
00000090: 90aa 813d 7214 3c3e ebf0 c63d 7d65 503d
000000a0: 7c00 8d3c cf6a 27bd 09d9 03be 7664 2fbe
000000b0: bdda 4a3c ccf9 c9bc d2cd 883d caee 9bbd
000000c0: ea58 c3bd 9d71 013d 9e96 46bd e042 2fbb
000000d0: 0aa0 fa3a 9c5b 0a3d f2b5 293e 30a7 5fbc
000000e0: 9734 293d 8411 c43d 267a a23c abab a63c
000000f0: 9e91 6ebd e1c4 a9bd d0fd 633d f897 23bd
00000100: bdee 003d ff99 5cbc a190 77bd aeb4 24bb
00000110: d2a4 033b 08db 083d 1a68 423d aaeb dd3d
00000120: 2c75 533d f8a7 473e 84d4 033e ff3f 0fbe
00000130: c9f3 bb3c 2b0a c63c b773 b0bb 234b 6dbc
00000140: 5488 3abe 8f39 f6bc 11a1 24be 9010 353d
00000150: 71ac 033e 0923 5d3d 4a19 b23c fd70 71bd
00000160: 39f3 f33b eac3 c3bc 6dc0 46be 2f25 aa3e
00000170: 1bda 62bd 5a26 58bd bab1 2ebe 247f b8bd
00000180: 69f6 60bd d8f2 e1bd 5c5e 3cbd 576b b83b
00000190: 8943 43bd 7850 c6bd de5b 6f3d 8835 4d3d
000001a0: 83e2 bc3d df14 2cbe b00b 85bd b16a fbbc
000001b0: 88b5 4a3d 08a9 0cbd 8889 763d b946 0fbe
000001c0: 018b 353d e7be 8abd 6ce2 903d 19d5 e13d
000001d0: a4a8 5abd 6bdd 9d3d 184b 043c ee19 493d
000001e0: 2221 e83c eed5 37bd e913 19be db7c 75bd
000001f0: 6b66 6bbd 6417 5c3d cc24 993c 146e 60bc
-0.033488773 0.051057607 0.014220281 0.051652305 -0.07948487 0.15540132 -0.09414074 -0.11512149
-0.13698013 0.02877108 -0.11630188 -0.07953481 -0.002272229 0.09490067 0.051085994 0.08982264
-0.037814494 -0.084550664 -0.08634875 0.023739781 -0.019967407 -0.0072717182 0.08654271 -0.13275391
-0.022019027 0.051294867 0.08077497 -0.23777394 -0.021303581 -0.10304109 -0.0016589719 -0.018308785
-0.100108765 0.08908686 0.020936998 0.031239938 0.0633136 0.18367174 0.0971392 0.050878037
0.017212145 -0.040873345 -0.12875761 -0.17128167 0.012381253 -0.024655245 0.06679882 -0.07613905
-0.095384434 0.03160249 -0.048483483 -0.0026742741 0.0019121182 0.03377877 0.16573313 -0.0136507
0.04130992 0.09573653 0.019833636 0.02034553 -0.05824434 -0.08289505 0.055661976 -0.03993985
0.03147768 -0.01346445 -0.060440663 -0.0025132108 0.0020087254 0.03341201 0.04746256 0.10835965
0.051625416 0.19497669 0.12874037 -0.13989256 0.022943394 0.02417477 -0.005384888 -0.014483246
-0.18216068 -0.030056743 -0.16077067 0.04420525 0.1285875 0.05398849 0.021740574 -0.058945645
0.007444766 -0.02389713 -0.19409342 0.33231494 -0.055383783 -0.05277095 -0.17059985 -0.09008625
-0.054922495 -0.11032647 -0.045988426 0.0056280303 -0.04767183 -0.09683317 0.05843722 0.05009988
0.09222891 -0.16804837 -0.0649637 -0.030690523 0.049489528 -0.03434089 0.060189754 -0.13991822
0.044322018 -0.06774693 0.070744365 0.11026973 -0.053383484 0.07708248 0.008074544 0.049096994
0.028336111 -0.044881754 -0.14949001 -0.059933525 -0.05747072 0.053733245 0.018694304 -0.01369812
